model-1.pth (torch, 261893 bytes, 22 tensors)

0.weight f4 [6, 1, 5, 5]
0.111916915 0.1852963 -0.22068822 -0.26406637 -0.042815328 0.14192837 0.012711953 0.04922717
-0.19298904 -0.022850985 0.06664939 0.036859963 -0.1891865 -0.20196237 -0.1204217 0.05622265
0.08844157 0.09718991 -0.15987113 -0.10862784 0.096951604 0.22400326 0.049678426 0.13474369
-0.09300832 0.13365774 0.22952868 0.01905109 0.026846157 -0.07506858 -0.03352621 0.024541626
-0.34237576 -0.3452813 -0.30232105 -0.29550782 -0.47264388 -0.22292033 -0.06338416 0.06523322
-0.060769364 -0.09059444 0.05165168 -0.07798644 -0.008048563 -0.06719742 0.1301462 0.12238596
0.025708824 0.13087487 0.1289135 0.13738713 0.08156754 -0.008176293 0.04102941 -0.14168574
-0.05523323 -0.18968673 -0.18319482 -0.159535 0.043746404 -0.03107853 -0.08916909 0.16671316
0.27387875 -0.11325131 -0.076646574 0.10630039 0.10002898 0.24003969 -0.301061 -0.08897111
0.22060597 0.22215436 0.22712012 0.1623479 0.044179983 -0.11758649 0.051931895 -0.27482516
-0.20187162 0.16051853 0.22472253 -0.12857492 -0.15968212 -0.054315098 -0.020097576 0.037279088
0.14565097 -0.42282718 -0.006948871 0.04044289 0.20058817 0.10083657 -0.37665194 -0.13609867
0.10863723 0.13423695 -0.1613946 -0.28018624 0.25347373 0.21213372 -0.11663523 -0.14778884
-0.12442367 0.059463765 -0.23246837 -0.323408 -0.014844091 0.12289989 -0.05458659 0.044348247
-0.07419977 0.19246876 0.1128362 -0.15501714 -0.0015215564 0.14871524 0.04002052 0.024852132
0.0028860297 -0.008595551 -0.016963048 0.10345605 -0.25907743 -0.0956211 -0.0736646 -0.17748404
-0.15450545 -0.20030834 -0.08797441 -0.0074649164 -0.14205426 -0.0019240162 0.11187154 -0.081810124
0.023943815 0.09537468 0.13937664 0.123459674 0.2112304 0.22024114 0.32701215 0.08346577
-0.123247154 -0.050893445 0.14149413 -0.0002309386 -0.11833805 -0.2192937
00000000: b234 e53d 50be 3d3e 18fc 61be b533 87be
00000010: 205f 2fbd ac55 113e cc45 503c 6ea2 493d
00000020: eb9e 45be fd31 bbbc 7a7f 883d 79fa 163d
00000030: 1bba 41be 39cf 4ebe a79f f6bd b949 663d
00000040: db20 b53d 810b c73d 42b5 23be 4678 debd
00000050: 908e c63d 1c61 653e 9b7b 4b3d 40fa 093e
00000060: 257b bebd 93dd 083e 9109 6b3e 0811 9c3c
00000070: 79ec db3c 8ebd 99bd c752 09bd 850b c93c
00000080: e04b afbe b6c8 b0be d3c9 9abe cd4c 97be
00000090: 61fe f1be 3a45 64be 8ecf 81bd ff98 853d
000000a0: 4ce9 78bd 9489 b9bd b690 533d 5bb7 9fbd
000000b0: 1fde 03bc cd9e 89bd 0c45 053e 7da5 fa3d
000000c0: 509b d23c 1004 063e e701 043e 36af 0c3e
000000d0: e20c a73d dcf5 05bc 740e 283d 1116 11be
000000e0: 3d3c 62bd 3d3d 42be 6c97 3bbe 255d 23be
000000f0: 6e2f 333d 6798 febc 499e b6bd dbb6 2a3e
00000100: d639 8c3e 4ef0 e7bd e1f8 9cbd 05b4 d93d
00000110: fedb cc3d f7cc 753e ab24 9abe 7c36 b6bd
00000120: 88e6 613e 6f7c 633e 2d92 683e 873e 263e
00000130: 12f6 343d 30d1 f0bd 8ab6 543d e2b5 8cbe
00000140: 6fb7 4ebe f85e 243e aa1d 663e 25a9 03be
00000150: b683 23be 8279 5ebd aca3 a4bc f5b1 183d
00000160: 8725 153e ce7c d8be 5bb3 e3bb 72a7 253d
00000170: fc66 4d3e 6783 ce3d 86d8 c0be 735d 0bbe
00000180: 327d de3d 6975 093e a044 25be 9274 8fbe
00000190: 4fc7 813e 9539 593e 74de eebd f555 17be
000001a0: d6d1 febd 4790 733d 300c 6ebe bc95 a5be
000001b0: a134 73bc f0b2 fb3d 3096 5fbd 82a6 353d
000001c0: 0df6 97bd 8816 453e aa16 e73d d0bc 1ebe
000001d0: f66e c7ba cf48 183e 8fec 233d b396 cb3c
000001e0: 8b23 3d3b 5bd4 0cbc 17f6 8abc c4e0 d33d
000001f0: cca5 84be ffd4 c3bd 77dd 96bd 60be 35be
00000200: ad36 1ebe a11d 4dbe ed2b b4bd 429c f4bb
00000210: ac76 11be 452f fcba e81c e53d 118c a7bd
00000220: d225 c43c cd53 c33d c0b8 0e3e 6dd8 fc3d
00000230: c84c 583e e586 613e 236e a73e 1af0 aa3d
00000240: 0169 fcbd a575 50bd d6e3 103e 1c28 72b9
00000250: 385b f2bd 878e 60be

0.bias f4 [6]
-0.2193692 -0.12380803 -0.009824938 0.24344079 0.18129265 -0.18414088
00000000: 52a2 60be 108f fdbd c7f8 20bc 8b48 793e
00000010: c8a4 393e 6d8f 3cbe

1.weight f4 [6]
1.2184408 1.3870761 1.126721 1.1884946 1.0334785 1.5713769
00000000: def5 9b3f b68b b13f 6538 903f 9720 983f
00000010: 0649 843f e122 c93f

1.bias f4 [6]
-0.45984176 -0.58069664 0.29028022 -0.54947454 -0.6903929 0.18603508
00000000: 6170 ebbe 89a8 14bf 9c9f 943e 5daa 0cbf
00000010: 97bd 30bf fb7f 3e3e

1.running_mean f4 [6]
-0.21345735 -0.15247568 0.018415345 0.16628203 0.17423834 -0.21753368
00000000: 9094 5abe 9622 1cbe c7db 963c d645 2a3e
00000010: 896b 323e 26c1 5ebe

1.running_var f4 [6]
0.83506024 2.371029 0.9215191 0.9749077 0.23056781 0.688069
00000000: 82c6 553f f0be 1740 ade8 6b3f 8d93 793f
00000010: f819 6c3e 4a25 303f

4.weight f4 [16, 6, 5, 5]
-0.121321596 -0.3186895 -0.21865433 -0.116041176 0.023439882 -0.08878412 -0.22831069 -0.18634331
-0.06725154 0.081057414 -0.061151106 -0.09429874 -0.16673388 -0.0050556012 0.18986222 -0.04104031
0.029577848 0.0027068665 -0.06856228 0.0729529 -0.077079326 -0.15967722 0.060998756 -0.029067824
-0.10650703 -0.020654699 0.04178366 -0.04427888 -0.00059243466 -0.012990753 -0.04191977 -0.025250698
-0.082337976 0.028643554 0.016024118 -0.007359526 -0.071171954 -0.018893238 -0.113322936 -0.1291679
-0.007317068 -0.00950654 -0.03845766 -0.023527201 -0.11833862 0.1047448 -0.10477788 -0.05661039
-0.016463093 0.027178973 -0.114091694 0.024115534 0.03562707 0.08752112 0.07404579 -0.172835
-0.07451664 -0.09239542 0.0639247 0.09830934 -0.16461128 -0.15170643 -0.039811652 -0.0047775446
0.096250825 0.046330903 -0.023832338 -0.0781255 -0.06873171 0.21122304 -0.10589088 0.0048846607
-0.022627387 -0.04291634 0.16985625 0.14155683 0.06213059 0.04054005 -0.0046744733 -0.06292614
0.13752809 0.04784352 -0.023186723 -0.036318686 -0.017760009 0.17584458 0.117890276 0.0066474034
-0.03941525 -0.12618487 0.15945423 0.061199818 0.035154946 -0.052658133 -0.1273974 0.11339692
0.14871801 -0.0471213 -0.10378045 -0.22384667 0.02960556 0.090695046 -0.06952437 -0.085732356
-0.1640847 0.05789739 0.1853059 0.24333505 0.1136387 -0.110427886 0.035319444 0.11138837
0.18581584 0.108930655 -0.13751426 0.050073765 -0.06564216 0.22855085 0.15992884 -0.09356309
-0.010291001 -0.14925405 0.024631528 0.122517645 -0.12613301 -0.15197964 -0.068179846 0.0506993
0.02811415 0.12635271 -0.0050084484 0.043093152 -0.15825526 -0.13488251 -0.026668658 0.13882445
0.17178756 -0.013988924 -0.14853427 -0.09773074 0.12357567 0.029073408 0.029947268 -0.10014273
-0.10147754 0.024423005 0.029013395 -0.008419427 -0.03724962 -0.23920472 -0.004192833 0.031363834
0.021153107 0.084401935 -0.03346963 -0.009664459 -0.022571484 -0.017682536 0.05541785 0.010040563
0.0025780268 -0.021348368 0.05317349 0.025159432 -0.021526745 0.03612439 -0.023366885 0.07392101
0.15397272 0.14021033 0.057631195 0.026093174 0.05118828 0.0269465 -0.047411066 0.031657655
0.21507241 0.20774254 0.10974125 0.07351574 0.19368158 0.15170115 0.19487284 0.18797038
-0.04935558 0.08976696 0.091956355 0.09168296 -0.013818444 0.009879342 0.014453352 -0.05308627
-0.029045962 0.13247313 0.053081937 -0.012819548 -0.12740421 -0.012958196 0.038923647 0.051755775
-0.004560169 0.1450866 -0.06698753 -0.02382458 -0.033441477 -0.13144144 -0.077195324 -0.010308335
0.010349568 0.048876807 0.012317507 -0.13895777 -0.115413204 -0.037004575 -0.059664957 0.058960494
-0.047716923 0.030119805 -0.011770801 0.06646294 0.07820642 0.10696386 0.11539041 0.14537135
0.18567947 0.0037268766 0.030135484 0.13689719 0.1424628 0.22092836 0.03857173 0.037535466
-0.033149306 0.084771946 0.14148326 -0.104667805 -0.14866555 -0.12884402 -0.042221088 0.14205204
-0.07945007 -0.14178054 -0.14232387 0.044615168 0.078972176 -0.049682617 -0.117795296 0.00697123
0.022033421 -0.027616866 -0.0026042778 -0.031301975 -0.11647888 0.011384629 0.10300324 -0.041944705
00000000: 7577 f8bd 452b a3be ece6 5fbe ffa6 edbd
00000010: ff04 c03c 73d4 b5bd 47ca 69be c8d0 3ebe
00000020: 2dbb 89bd 6e01 a63d 9579 7abd b31f c1bd
00000030: 49bc 2abe 75a9 a5bb 3e6b 423e e219 28bd
00000040: 3e4d f23c af65 313b 616a 8cbd 5468 953d
00000050: c4db 9dbd 6d82 23be d5d9 793d a51f eebc
00000060: 5c20 dabd 0b34 a9bc 5825 2b3d c55d 35bd
00000070: 9e4d 1bba 2bd7 54bc 11b4 2bbd 8dda cebc
00000080: d0a0 a8bd e3a5 ea3c 0345 833c 2e28 f1bb
00000090: 9ac2 91bd fec5 9abc db15 e8bd 9744 04be
000000a0: 04c4 efbb 52c1 1bbc c785 1dbd 1ebc c0bc
000000b0: 855b f2bd 7184 d63d c995 d6bd 4ce0 67bd
000000c0: 9cdd 86bc 70a6 de3c e8a8 e9bd f18d c53c
000000d0: b1ed 113d 463e b33d 52a5 973d a9fb 30be
000000e0: 2e9c 98bd cf39 bdbd f4ea 823d 6856 c93d
000000f0: dc8f 28be ee58 1bbe 8b11 23bd f38c 9cbb
00000100: 271f c53d 79c5 3d3d 093c c3bc 4300 a0bd
00000110: 36c3 8cbd da4a 583e 51dd d8bd 810f a03b
00000120: 125d b9bc 0bc9 2fbd ccee 2d3e 46f4 103e
00000130: a57c 7e3d 530d 263d 532c 99bb 6cdf 80bd
00000140: 2ad4 0c3e 91f7 433d 15f2 bdbc e7c2 14bd
00000150: 707d 91bc 9a10 343e 7570 f13d 76d2 d93b
00000160: e371 21bd 9b36 01be f847 233e a9ac 7a3d
00000170: a2fe 0f3d 0eb0 57bd 7774 02be a53c e83d
00000180: 8949 183e 4402 41bd d88a d4bd 1038 65be
00000190: 5c87 f23c 53be b93d cb62 8ebd 7294 afbd
000001a0: d205 28be d025 6d3d d4c0 3d3e d32c 793e
000001b0: 68bb e83d 0428 e2bd 1fab 103d 961f e43d
000001c0: 8246 3e3e 0917 df3d 8ad0 0cbe 261a 4d3d
000001d0: 666f 86bd 3c09 6a3e 63c4 233e 019e bfbd
000001e0: 969b 28bc 0ed6 18be 0fc8 c93c 88ea fa3d
000001f0: 0329 01be 8da0 1bbe e0a1 8bbd 12aa 4f3d
00000200: a54f e63c 9b62 013e e91d a4bb 7282 303d
00000210: ab0d 22be a41e 0abe 3b78 dabc ff27 0e3e
00000220: 14e9 2f3e cd31 65bc 5e19 18be 0e27 c8bd
00000230: 3e15 fd3d 5b2b ee3c f953 f53c a217 cdbd
00000240: 75d3 cfbd c112 c83c 80ad ed3c a3f1 09bc
00000250: 0f93 18bd 15f2 74be 0864 89bb 5d77 003d
00000260: 4849 ad3c ecda ac3d 7317 09bd ae57 1ebc
00000270: d5e7 b8bc f7da 90bc d4fd 623d 2c81 243c
00000280: 1df4 283b c6e2 aebc 72cc 593d 271b ce3c
00000290: db58 b0bc 2bf7 133d e96b bfbc e663 973d
000002a0: 06ab 1d3e 4c93 0f3e b00e 6c3d 5ac1 d53c
000002b0: cdaa 513d e8be dc3c 1b32 42bd 75ab 013d
000002c0: f13b 5c3e 76ba 543e 05c0 e03d 6c8f 963d
000002d0: 7754 463e 8c57 1b3e bf8c 473e 4f7b 403e
000002e0: 1429 4abd bdd7 b73d 9d53 bc3d 47c4 bb3d
000002f0: c166 62bc f7dc 213c c1cd 6c3c fd70 59bd
00000300: ccf1 edbc 09a7 073e 726c 593d 1509 52bc
00000310: 4076 02be 9d4e 54bc 676e 1f3d ddfd 533d
00000320: 786d 95bb 9591 143e c230 89bd c42b c3bc
00000330: eef9 08bd 9698 06be 9518 9ebd 4ae4 28bc
00000340: 3c91 293c 0c33 483d 5ecf 493c f24a 0ebe
00000350: c25d ecbd 1c92 17bd 3e63 74bd 8f80 713d
00000360: d272 43bd cfbd f63c 51da 40bc b91d 883d
00000370: b02a a03d de0f db3d cf51 ec3d 3adc 143e
00000380: c222 3e3e 9d3e 743b b1de f63c c72e 0c3e
00000390: c5e1 113e 0b3b 623e 64fd 1d3d cabe 193d
000003a0: 91c7 07bd ea9c ad3d fde0 103e 135c d6bd
000003b0: c83b 18be b0ef 03be 05f0 2cbd 1776 113e
000003c0: b8b6 a2bd eb2e 11be 59bd 11be 65be 363d
000003d0: 2abc a13d 0080 4bbd a93e f1bd ea6e e43b
000003e0: 6f7f b43c c43c e2bc 88ac 2abb 8036 00bd
000003f0: 7b8c eebd 9886 3a3c 5df3 d23d 36ce 2bbd

4.bias f4 [16]
-0.10259214 -0.016455142 -0.22061479 -0.11729579 -0.066267 -0.04992208 -0.09369112 0.13933219
-0.14657065 0.026920974 -0.05096547 -0.099061355 0.08214514 -0.0481251 0.09272523 0.078449346
00000000: d41b d2bd efcc 86bc d8e8 61be c638 f0bd
00000010: feb6 87bd 187b 4cbd 21e1 bfbd 19ad 0e3e
00000020: 9e16 16be 6089 dc3c 2bc1 50bd aee0 cabd
00000030: b63b a83d d31e 45bd bae6 bd3d 0daa a03d

5.weight f4 [16]
2.1058671 1.7867967 1.9121782 2.2411487 1.7000132 2.2515213 1.7744845 1.7814999
1.7283949 1.8720901 1.7570165 2.9307082 2.295017 1.4943482 1.6915839 1.7445006
00000000: 87c6 0640 c1b5 e43f 41c2 f43f fb6e 0f40
00000010: 089a d93f ed18 1040 4f22 e33f 3008 e43f
00000020: 0b3c dd3f a6a0 ef3f ebe5 e03f b990 3b40
00000030: 8fe1 1240 cd46 bf3f d285 d83f cc4b df3f

5.bias f4 [16]
-0.21536602 -0.20403896 0.4672522 -0.46111825 0.21200085 0.44115323 -0.2892418 0.15242675
0.5515668 -0.40110287 -0.80030024 0.050937578 0.41460142 -0.09140285 -0.33255756 -0.56950086
00000000: e988 5cbe 97ef 50be ae3b ef3e b117 ecbe
00000010: c016 593e d6de e13e 8017 94be c215 1c3e
00000020: 7b33 0d3f 5b5d cdbe 7ae0 4cbf eca3 503d
00000030: a346 d43e 6b31 bbbd fc44 aabe cfca 11bf

5.running_mean f4 [16]
-0.03226561 -0.50441706 0.06536655 -0.044715017 -0.05177261 -0.06397626 0.47115892 0.89999384
0.15331896 -0.65568465 -0.029610826 -0.03596514 -0.06470328 -0.4683714 -0.74352795 0.061160944
00000000: f228 04bd 7a21 01bf e6de 853d 1827 37bd
00000010: 840f 54bd fc05 83bd be3b f13e ff65 663f
00000020: a5ff 1c3e f3da 27bf 6792 f2bc 2f50 13bd
00000030: 2783 84bd 60ce efbe d957 3ebf e683 7a3d

5.running_var f4 [16]
1.048659 0.7485062 0.7163268 0.8489742 0.52155024 1.5875608 0.65431845 1.1254839
0.25958577 1.4312907 0.96168995 1.7294358 1.8951507 0.38375667 0.36192337 0.74832666
00000000: 753a 863f 1a9e 3f3f 3161 373f 6056 593f
00000010: 5184 053f 3135 cb3f 6a81 273f db0f 903f
00000020: 6de8 843e 8934 b73f 5031 763f 275e dd3f
00000030: 4c94 f23f c17b c43e 054e b93e 5692 3f3f

8.weight f4 [120, 16, 5, 5]
-0.14400795 -0.3198483 -0.25030327 -0.05455234 -0.23880045 -0.08078449 -0.17472345 -0.1520118
-0.09574529 0.06901683 0.06611144 0.14585797 -0.069189034 0.06884557 0.1461521 0.10055661
0.033088293 -0.04244026 0.06927502 0.10878249 0.047988225 -0.021278137 -0.054687828 0.037394606
0.13629131 -0.17156747 -0.097527854 -0.09566418 0.08285413 0.07134877 0.0018880932 -0.14342555
-0.037339192 0.08625286 0.14564416 -0.16289866 -0.045979317 -0.00010078872 0.02375335 0.016632628
-0.06474236 0.06170453 -0.10903257 -0.06426241 0.017985744 0.013768026 0.06593139 0.075229205
0.041445803 0.10697678 -0.09936333 -0.06689161 -0.012713128 0.030125381 0.057608504 -0.01892685
0.060890988 -0.13294138 -0.025447296 0.010545895 -0.058728095 -0.11702959 -0.07662659 -0.13442335
0.03401143 -0.034443796 0.009657176 0.05572675 -0.05155626 0.02530975 -0.060657334 -0.12445242
-0.036049392 -0.08641683 -0.024224581 0.2182005 0.027581258 -0.14129849 -0.07214509 -0.017411206
0.07833645 0.02471429 -0.064916074 0.01544298 0.089574575 -0.04046011 -0.055898536 0.038929567
-0.0020252732 0.12838277 0.09199601 -0.06961575 0.15291955 -0.0018662025 -0.08458665 -0.106467664
0.06697622 0.07269763 -0.10625933 -0.09174925 0.018247785 0.18900985 0.21100776 -0.07261205
-0.21720809 0.049065147 0.14347179 0.1091744 -0.05231446 -0.1060557 -0.08432344 -0.0016919845
-0.045923907 -0.0011882805 -0.18037145 0.11784067 -0.04778001 0.12400334 0.13218261 -0.0021014584
-0.027783697 0.041367102 0.021839153 0.10491469 0.051906496 -0.0420504 -0.05396837 0.026491199
-0.092820235 0.064453356 -0.005054162 -0.089058936 -0.16222622 0.047567263 0.24834482 0.017306317
-0.027248675 -0.023345755 -0.044219498 0.01786803 0.0134454705 -0.025647191 -0.05916288 -0.09405959
-0.0865314 0.018074868 -0.14406322 -0.00010357668 -0.0026356596 0.03871867 -0.077738285 -0.10557424
0.0652385 0.061946224 -0.113033496 0.030252254 -0.18407501 0.12237116 -0.09283399 -0.17016545
0.006936881 -0.026561342 -0.014343092 -0.0788205 -0.0052777776 -0.08709748 0.0068902806 -0.035179637
0.0375608 0.012523162 0.004430698 -0.1549012 -0.04559281 -0.015092312 0.017566022 -0.00953366
0.034648705 0.09456242 0.17671587 -0.12622623 -0.021382766 0.0021293105 0.03642412 0.19570486
0.12522484 -0.05991252 0.036901984 0.023249216 0.06475109 0.012838094 0.03370387 0.037974928
0.08934486 0.00073849206 0.032557055 0.0031203744 0.049435996 -0.08268031 -0.074704096 0.10428566
-0.11958946 -0.019101432 -0.1763944 0.055348106 0.33709165 0.16086848 0.10683155 0.112034686
-0.11663552 0.08610485 -0.00085009425 0.06765224 -0.09685214 -0.02972256 -0.20182657 -0.08312184
-0.14452292 -0.12504616 -0.09942511 0.003529423 -0.23910548 -0.28492925 -0.244461 -0.043902222
0.016909992 -0.113922484 -0.08123471 -0.25134256 -0.14852683 -0.16073316 -0.036985714 -0.20847867
-0.107347496 0.07602152 0.0010219613 -0.019906033 -0.036022868 0.02058025 0.08426457 -0.07685584
-0.081927486 0.030011397 0.13689223 -0.0025665641 0.028419368 -0.09198847 0.050655104 0.06763202
0.02172829 -0.06732329 0.0008808078 -0.12832901 0.03572906 -0.03770002 -0.06296904 0.13559696
00000000: d276 13be 28c3 a3be c027 80be 4672 5fbd
00000010: 1b88 74be 5772 a5bd b4ea 32be fba8 1bbe
00000020: 1b16 c4bd b258 8d3d 6f65 873d cb5b 153e
00000030: fbb2 8dbd e8fe 8c3d e5a8 153e a0f0 cd3d
00000040: 9787 073d d7d5 2dbd 10e0 8d3d 5bc9 de3d
00000050: 4d8f 443d 7d4f aebc 5800 60bd 162b 193d
00000060: f38f 0b3e 62af 2fbe afbc c7bd 95eb c3bd
00000070: 6daf a93d 4e1f 923d e579 f73a 26de 12be
00000080: fbf0 18bd 57a5 b03d be23 153e e8ce 26be
00000090: cf54 3cbd 885e d3b8 6396 c23c 2641 883c
000000a0: a497 84bd e4bd 7c3d 784c dfbd 039c 83bd
000000b0: d756 933c 4993 613c 0907 873d c511 9a3d
000000c0: 13c3 293d a416 db3d 007f cbbd 78fe 88bd
000000d0: b94a 50bc 81c9 f63c e5f6 6b3d 7b0c 9bbc
000000e0: d468 793d c921 08be d976 d0bc b1c8 2c3c
000000f0: df8c 70bd 36ad efbd 67ee 9cbd 46a6 09be
00000100: 924f 0b3d f014 0dbd 2239 1e3c bc41 643d
00000110: a82c 53bd 6556 cf3c d373 78bd e9e0 febd
00000120: 87a8 13bd 4ffb b0bd a172 c6bc f46f 5f3e
00000130: 17f2 e13c 8db0 10be cec0 93bd f2a1 8ebc
00000140: dc6e a03d 9f75 ca3c b8f2 84bd 8e04 7d3c
00000150: e072 b73d 80b9 25bd ddf5 64bd 9c74 1f3d
00000160: 72ba 04bb c676 033e 6768 bc3d b492 8ebd
00000170: f196 1c3e 5d9b f4ba c43b adbd b80b dabd
00000180: d42a 893d 7fe2 943d 7e9e d9bd 08e7 bbbd
00000190: 617c 953c cc8b 413e 6b12 583e a0b5 94bd
000001a0: cc6b 5ebe 89f8 483d 45ea 123e d496 df3d
000001b0: b047 56bd bb33 d9bd c5b1 acbd 94c5 ddba
000001c0: b51a 3cbd 14c0 9bba 4bb3 38be 7356 f13d
000001d0: f9b4 43bd 77f5 fd3d e15a 073e 9fb8 09bb
000001e0: a39a e3bc 8d70 293d 06e8 b23c 83dd d63d
000001f0: e89b 543d 0a3d 2cbd f00d 5dbd 1204 d93c
00000200: 8918 bebd 1f00 843d 629d a5bb 8864 b6bd
00000210: a11e 26be e4d5 423d 1b4e 7e3e fac5 8d3c
00000220: 9d38 dfbc 993f bfbc 811f 35bd fa5f 923c
00000230: 644a 5c3c 0f1a d2bc c754 72bd 50a2 c0bd
00000240: 6037 b1bd bf11 943c 4f85 13be 4f37 d9b8
00000250: 08bb 2cbb 7897 1e3d 4035 9fbd 4f37 d8bd
00000260: c39b 853d 53bb 7d3d 1b7e e7bd 93d3 f73c
00000270: 297e 3cbe bb9d fa3d bf1f bebd da3f 2ebe
00000280: c74e e33b 2c97 d9bc 4aff 6abc a46c a1bd
00000290: 35f1 acbb 2a60 b2bd ddc7 e13b 8618 10bd
000002a0: 5ad9 193d f32d 4d3c 642f 913b 6c9e 1ebe
000002b0: 87bf 3abd bf45 77bc 9ee6 8f3c 1133 1cbc
000002c0: cdeb 0d3d f1a9 c13d 01f5 343e 7341 01be
000002d0: e92a afbc e78b 0b3b 7531 153d db66 483e
000002e0: f13a 003e d566 75bd 8926 173d 2475 be3c
000002f0: 389c 843d de56 523c 120d 0a3d 998b 1b3d
00000300: 70fa b63d 5d97 413a 8c5a 053d 327f 4c3b
00000310: 667d 4a3d 4b54 a9bd 76fe 98bd b893 d53d
00000320: 52eb f4bd 9b7a 9cbc bca0 34be b2b4 623d
00000330: 4797 ac3e b5ba 243e 80ca da3d 7172 e53d
00000340: 9ade eebd bd57 b03d dcd8 5eba 428d 8a3d
00000350: 6a5a c6bd ba7c f3bc a0ab 4ebe c93b aabd
00000360: d1fd 13be 1a0c 00be 649f cbbd e44d 673b
00000370: 11d8 74be 3fe2 91be fc53 7abe d1d2 33bd
00000380: d386 8a3c 3150 e9bd 625e a6bd f9af 80be
00000390: 6b17 18be 3c97 24be 557e 17bd 6f7b 55be
000003a0: 01d9 dbbd 2cb1 9b3d 55f3 853a fa11 a3bc
000003b0: b78c 13bd ea97 a83c e792 ac3d 9866 9dbd
000003c0: 99c9 a7bd 76da f53c 7a2d 0c3e cd33 28bb
000003d0: bccf e83c 7364 bcbd ba7b 4f3d a882 8a3d
000003e0: 87ff b13c cbe0 89bd 03e6 663a ae68 03be
000003f0: a358 123d 566b 1abd e9f5 80bd eed9 0a3e

8.bias f4 [120]
-0.010929133 0.03714506 0.042093337 0.009343637 0.021868637 -0.023558507 -0.022628393 -0.02398383
0.024777392 0.009341407 -0.043009464 -0.0054412046 0.035900116 0.046532743 0.015400239 -0.01746498
-0.028544422 -0.028056461 -0.008431799 -0.0068417075 -0.035708144 0.039298117 0.026050992 0.028695462
-0.04588077 0.018558856 0.033512093 0.022528566 0.050209295 0.0035844184 -0.04715039 -0.022992665
-0.055605702 0.03617441 -0.015936054 0.017425328 0.028011214 -0.007871495 0.0022710308 -0.038564287
0.0055951183 -0.001609602 -0.002851865 0.008294618 0.0077187973 0.031290743 -0.0142101385 0.044278428
-0.029582953 -0.047075298 0.012581403 0.02821057 0.03319819 0.020510195 0.031916972 0.009410388
-0.02468193 -0.041428547 0.016859036 0.031252768 0.009832795 -0.007182497 -0.005592207 0.0042861295
0.011895106 0.0029266176 -0.021451293 0.024220252 -0.003405612 0.009875716 -0.04419054 0.02778771
-0.030671844 -0.03355607 0.0155114895 -0.005637216 0.009146698 -0.05703471 -0.027619144 0.04138583
0.024252877 0.017434476 0.05851897 -0.0101530375 -0.04392505 -0.024027351 -0.028384691 -0.0061014635
0.014652241 0.039840113 -0.0012247661 0.0066450327 0.012087397 0.035174247 0.018523404 0.014002938
-0.025244677 0.012034697 -0.03385042 0.03440261 0.0017465409 0.0193003 -0.027205426 0.03690907
0.002825807 0.025616324 0.006612387 0.016163534 0.041165464 0.045434 -0.029536476 -0.038946573
-0.03131228 0.014322794 -0.046061307 -0.009120025 0.03711206 0.010524579 0.009998093 0.04763389
00000000: 1b10 33bc 6b25 183d 106a 2c3d 0e16 193c
00000010: db25 b33c c5fd c0bc 2e5f b9bc bd79 c4bc
00000020: f5f9 ca3c b30c 193c b12a 30bd 224c b2bb
00000030: 000c 133d 1e99 3e3d 4951 7c3c b812 8fbc
00000040: fed5 e9bc aad6 e5bc 8725 0abc 6730 e0bb
00000050: b442 12bd 10f7 203d e468 d53c bf12 eb3c
00000060: 79ed 3bbd be08 983c fa43 093d d48d b83c
00000070: 43a8 4d3d 90e8 6a3b c420 41bd 1d5b bcbc
00000080: cec2 63bd 9e2b 143d 548c 82bc 90bf 8e3c
00000090: c677 e53c 71f7 00bc 93d5 143b 96f5 1dbd
000000a0: 4157 b73b 48f9 d2ba 5be6 3abb 26e6 073c
000000b0: f7ed fc3b b92a 003d a4d1 68bc 4c5d 353d
000000c0: f357 f2bc 07d2 40bd 3b22 4e3c da19 e73c
000000d0: d3fa 073d ff04 a83c 5fbb 023d 072e 1a3c
000000e0: c231 cabc fbb0 29bd f61b 8a3c e702 003d
000000f0: bb19 213c 275b ebbb d53e b7bb a972 8c3b
00000100: b1e3 423c 7fcc 3f3b 9fba afbc 8d69 c63c
00000110: b030 5fbb c1cd 213c 2401 35bd 0da3 e33c
00000120: 8543 fbbc 1772 09bd e723 7e3c 65b8 b8bb
00000130: 08dc 153c 3a9d 69bd 8b41 e2bc 3084 293d
00000140: f8ad c63c bfd2 8e3c 96b1 6f3d ed58 26bc
00000150: c1ea 33bd 02d5 c4bc 0387 e8bc c9ee c7bb
00000160: f40f 703c 632f 233d 5588 a0ba 93be d93b
00000170: 380a 463c df12 103d 65be 973c 946c 653c
00000180: edcd cebc 2e2d 453c bda6 0abd c0e9 0c3d
00000190: 30ec e43a aa1b 9e3c eadd debc f72d 173d
000001a0: 2d31 393b 53d9 d13c b9ac d83b 6369 843c
000001b0: 1e9d 283d 0119 3a3d 7bf6 f1bc 7186 1fbd
000001c0: 4e41 00bd 27aa 6a3c c8aa 3cbd 286c 15bc
000001d0: d102 183d 496f 2c3c 0bcf 233c c11b 433d

9.weight f4 [120]
1.6243846 1.7219393 1.5015409 1.3948191 1.64258 1.7832537 1.8492887 1.8795344
1.7099502 1.7041421 1.6010265 1.7495264 1.5743227 1.8292974 1.8255934 1.7584286
2.1387374 1.7249223 1.6891656 1.5412049 1.7496551 1.4691942 1.5844898 1.489684
2.0276253 1.8167286 1.8104427 1.6685951 1.9857922 1.5572395 1.8374196 1.5637678
1.5036767 1.6293919 2.0428865 1.4136609 1.4795843 1.9476393 1.5724835 1.7309891
1.8439919 1.5152243 1.601387 1.7399081 1.6735446 1.7521759 1.924003 1.9384431
1.9047683 1.7080765 1.6814418 2.0402765 1.7415514 1.8053762 1.547711 1.5591042
1.9353412 1.821225 1.5896072 1.9317155 1.7218227 1.7843983 1.9767395 1.932887
1.6450187 1.8086092 1.7502306 1.4469955 1.8035152 2.066852 1.6658851 1.6681246
1.8746313 1.59076 1.5495994 1.7180183 1.4769938 1.7709343 1.6733656 2.1136692
1.9383101 1.7159293 1.772136 1.7010483 1.6382508 1.8114496 1.9256681 1.8083447
1.9035163 1.5620207 1.9975928 1.6328679 2.1827455 1.6056062 1.8435051 1.8355968
1.8105677 1.7619318 1.8555875 1.7837083 1.4984447 1.8571159 1.7120227 1.9546378
1.8577272 1.4882874 1.9248369 1.6930586 1.6418363 1.9173712 1.6577622 1.434578
2.006312 1.717786 1.5686357 1.6584461 1.9463261 2.0945098 1.5556101 1.8473387
00000000: d6eb cf3f 8268 dc3f 7e32 c03f 6f89 b23f
00000010: 1040 d23f a841 e43f 7eb5 ec3f 9594 f03f
00000020: a6df da3f 5421 da3f 70ee cc3f 7bf0 df3f
00000030: 6883 c93f 6b26 ea3f 0bad e93f 3014 e13f
00000040: 13e1 0840 41ca dc3f 9436 d83f 3446 c53f
00000050: b3f4 df3f 8e0e bc3f 90d0 ca3f f7ad be3f
00000060: 9dc4 0140 908a e83f 96bc e73f 8694 d53f
00000070: 702e fe3f a053 c73f 9130 eb3f 8b29 c83f
00000080: 7a78 c03f ea8f d03f a7be 0240 d7f2 b43f
00000090: 0563 bd3f 3f4c f93f 2447 c93f 0d91 dd3f
000000a0: ed07 ec3f dff2 c13f 40fa cc3f 4fb5 de3f
000000b0: b636 d63f 4d47 e03f bb45 f63f e71e f83f
000000c0: 73cf f33f 40a2 da3f 7c39 d73f e493 0240
000000d0: 28eb de3f 9116 e73f 651b c63f ba90 c73f
000000e0: 43b9 f73f e71d e93f 4078 cb3f 7442 f73f
000000f0: b064 dc3f 2a67 e43f cd05 fd3f d768 f73f
00000100: f98f d23f 8280 e73f 8e07 e03f 2637 b93f
00000110: 96d9 e63f 4e47 0440 b93b d53f 1b85 d53f
00000120: ebf3 ef3f 069e cb3f 4659 c63f 06e8 db3f
00000130: 220e bd3f faad e23f d830 d63f 5b46 0740
00000140: 8c1a f83f 92a3 db3f 5ad5 e23f f3bb d93f
00000150: 34b2 d13f 95dd e73f 4b7c f63f d777 e73f
00000160: 6ca6 f33f 4bf0 c73f 1fb1 ff3f d101 d13f
00000170: 1ab2 0b40 8184 cd3f faf7 eb3f d6f4 ea3f
00000180: afc0 e73f fb86 e13f e483 ed3f 8e50 e43f
00000190: 09cd bf3f f9b5 ed3f 8f23 db3f 9231 fa3f
000001a0: 01ca ed3f 3480 be3f 0e61 f63f 25b6 d83f
000001b0: b127 d23f 6b6c f53f 8d31 d43f 40a0 b73f
000001c0: 6a67 0040 69e0 db3f 0ec9 c83f f647 d43f
000001d0: 3721 f93f 730c 0640 3b1e c73f 9875 ec3f

9.bias f4 [120]
0.24499102 0.053956304 0.16147706 0.31838793 -0.073148906 -0.18900174 0.08396676 0.035398073
-0.111065865 -0.020949937 -0.03430936 0.090285845 -0.17145629 0.25763917 0.048652716 -0.1796188
-0.06205001 -0.3095901 -0.19368942 0.13193333 0.081821375 0.13327892 0.10908405 0.30662575
-0.22841331 -0.06577022 -0.043823246 -0.12997289 -0.04641634 -0.20585494 -0.26554847 -0.07670687
-0.31179133 -0.28417248 0.35975718 0.14392684 0.33794028 -0.036331706 0.28762862 -0.24488877
0.17126165 -0.06410114 -0.07781048 0.120779924 -0.06026058 0.19181842 0.04636662 0.17582916
-0.10510799 0.42806566 0.11536961 -0.01913578 -0.10754853 -0.08882241 0.24220726 0.18252894
-0.02162431 -0.13499893 0.41465446 0.059642017 0.037564922 0.009540397 -0.09971193 -0.18022871
-0.1295732 -0.13964921 0.12391252 0.016420756 -0.23714446 -0.13465273 -0.123234 -0.050308697
-0.1005403 -0.27412978 -0.028374933 0.08007792 0.13964115 -0.01889456 -0.14890583 0.015175141
-0.35959664 -0.20149763 -0.032985434 -0.10703923 0.088381566 0.041313987 0.2577042 0.31896648
0.083867416 0.12568232 -0.1366827 -0.05303355 0.0732088 -0.07067062 0.09898966 -0.5387241
0.14381158 0.17693837 0.25779086 0.060425457 -0.015957115 0.09644883 -0.39448082 -0.2382432
0.05014705 0.26007897 0.25684866 0.054367654 0.005109904 0.31769136 -0.10515542 -0.0854414
0.10621254 0.11935657 -0.0040634787 0.2376982 -0.12375993 0.07213435 0.20283677 -0.12843934
00000000: edde 7a3e 4901 5d3d 3e5a 253e be03 a33e
00000010: 18cf 95bd ac89 41be c4f6 ab3d 92fd 103d
00000020: 8076 e3bd 349f abbc f987 0cbd c9e7 b83d
00000030: 3d92 2fbe 48e9 833e 1248 473d feed 37be
00000040: 2728 7ebd 9882 9ebe 8556 46be 8819 073e
00000050: f791 a73d 457a 083e 7567 df3d 0dfe 9c3e
00000060: 2ee5 69be 89b2 86bd 0180 33bd 9d17 05be
00000070: 0f1f 3ebd a3cb 52be f8f5 87be 7e18 9dbd
00000080: 1da3 9fbe 0e7f 91be 1832 b83e 8f61 133e
00000090: 8206 ad3e 8ed0 14bd 0f44 933e 1fc4 7abe
000000a0: 375f 2f3e 7547 83bd 1a5b 9fbd 775b f73d
000000b0: ccd3 76bd 0c6c 443e edea 3d3d 8f0c 343e
000000c0: dc42 d7bd 6c2b db3e e746 ec3d a4c2 9cbc
000000d0: 6742 dcbd 86e8 b5bd 2e05 783e dee8 3a3e
000000e0: 7725 b1bc 293d 0abe 974d d43e 304b 743d
000000f0: addd 193d 534f 1c3c c535 ccbd e08d 38be
00000100: d6ae 04be 3400 0fbe d9c5 fd3d d284 863c
00000110: ffd5 72be 68e2 09be 1b62 fcbd 7e10 4ebd
00000120: 13e8 cdbd bd5a 8cbe 8c72 e8bc e4ff a33d
00000130: 17fe 0e3e c4c8 9abc c57a 18be 28a1 783c
00000140: 0d1d b8be 6555 4ebe bc1b 07bd 6237 dbbd
00000150: 6501 b53d db38 293d cef1 833e 934f a33e
00000160: aec2 ab3d deb2 003e 8df6 0bbe b539 59bd
00000170: 7fee 953d c2bb 90bd 17bb ca3d d3e9 09bf
00000180: 5843 133e 552f 353e 2afd 833e af80 773d
00000190: 7fb8 82bc f786 c53d 64f9 c9be 07f6 73be
000001a0: fe66 4d3d 1229 853e ab81 833e 9eb0 5e3d
000001b0: fb70 a73b 71a8 a23e ba5b d7bd e7fb aebd
000001c0: f685 d93d 3871 f43d ee26 85bb 2867 733e
000001d0: d975 fdbd 2dbb 933d 71b4 4f3e 9a85 03be

9.running_mean f4 [120]
-0.25337335 -0.24544704 -0.95834917 0.40373328 0.9650326 -0.34534726 -1.5750576 0.40524018
1.3927315 0.029067295 0.20636415 -0.27646005 0.016928725 -0.6557909 0.52957374 -1.2927794
-0.62238926 0.81864077 1.3695587 1.4669889 1.267325 -0.97858685 2.6486712 -0.12596121
0.0696545 -0.81052834 0.09752832 -0.5417458 0.98880625 1.2515604 0.11406038 0.98163867
0.42828667 0.45438254 -0.99852365 -0.6942709 -1.0763651 -0.82052565 -1.27033 0.10984033
-0.59022486 -0.30889744 -0.048350174 -0.0773397 0.6152443 0.9782984 -0.56241834 -1.0492468
-0.8464451 -3.1765156 0.26936758 1.1474009 2.5235946 -2.0579422 -0.6622324 0.26250392
-0.4438681 -0.73746526 -0.9752746 -0.5539971 -0.0860121 0.7688133 0.28796348 2.1079826
-0.7159462 0.784982 -0.97631586 1.5282149 -0.57634854 0.22312698 -0.3800975 -1.1588058
0.98287207 0.3555621 -0.70297855 1.065966 -1.7031307 1.103827 0.7235026 0.1630085
2.0898488 -1.1123501 -1.016243 0.8368414 -0.26108214 -1.1758288 -0.58568597 -2.137048
1.7516358 -0.43682906 1.6964402 -1.2447308 -1.4633234 -1.2586794 -0.013955371 1.6042774
-1.0659513 0.5891826 -0.18608429 -0.18339834 0.19380957 0.5894629 0.61755073 -0.94125444
-0.19379772 -0.3295686 -1.0526831 -1.0187206 -0.46167088 -1.8054394 0.16964981 0.6249873
-1.0694873 -0.5761364 0.8446645 -0.30261403 0.3159881 -0.06370941 -0.32956728 0.27149016
00000000: 27ba 81be 7856 7bbe 5f56 75bf 21b6 ce3e
00000010: 600c 773f 5bd1 b0be 7d9b c9bf a47b cf3e
00000020: 0745 b23f 891e ee3c 2051 533e 2c8c 8dbe
00000030: 1cae 8a3c eae1 27bf 2592 073f cc79 a5bf
00000040: e754 1fbf 7192 513f b34d af3f 4bc6 bb3f
00000050: b537 a23f ab84 7abf d483 2940 fafb 00be
00000060: 05a7 8e3d c97e 4fbf eebc c73d daaf 0abf
00000070: 6822 7d3f 2233 a03f 7d98 e93d ac4c 7b3f
00000080: 6448 db3e d4a4 e83e 3f9f 7fbf bdbb 31bf
00000090: 55c6 89bf f80d 52bf 2c9a a2bf f8f3 e03d
000000a0: fa18 17bf ce27 9ebe d50a 46bd 4764 9ebd
000000b0: a780 1d3f c471 7a3f a6fa 0fbf b84d 86bf
000000c0: a0b0 58bf 084c 4bc0 8cea 893e 08de 923f
000000d0: 9382 2140 53b5 03c0 1088 29bf ea66 863e
000000e0: ae42 e3be 86ca 3cbf 99ab 79bf c1d2 0dbf
000000f0: 1d27 b0bd f3d0 443f f36f 933e 30e9 0640
00000100: 4048 37bf 95f4 483f d6ef 79bf 8c9c c33f
00000110: 948b 13bf 667b 643e 249c c2be c053 94bf
00000120: 819d 7b3f 3c0c b63e 67f6 33bf 9371 883f
00000130: 3000 dabf 344a 8d3f 7737 393f b3eb 263e
00000140: 15c0 0540 7d61 8ebf 4014 82bf 3d3b 563f
00000150: 8fac 85be 8f81 96bf 84ef 15bf 65c5 08c0
00000160: 9a35 e03f 0fa8 dfbe f424 d93f 5753 9fbf
00000170: 2e4e bbbf 681c a1bf 12a5 64bc f658 cd3f
00000180: 1871 88bf acd4 163f e18c 3ebe c6cc 3bbe
00000190: 0476 463e 0ae7 163f ce17 1e3f 0df6 70bf
000001a0: e972 46be 37bd a8be 52be 86bf 7065 82bf
000001b0: 2060 ecbe a318 e7bf aeb8 2d3e 2bff 1f3f
000001c0: f6e4 88bf ad7d 13bf ef3b 583f 3af0 9abe
000001d0: 31c9 a13e 147a 82bd 0bbd a8be c200 8b3e

9.running_var f4 [120]
3.0442045 3.9098783 4.522794 2.078841 4.4610147 4.86268 3.6414988 3.9890702
3.7668085 5.8316116 2.2967465 3.0474076 3.7856293 3.850038 5.0552793 4.381639
6.8445807 3.8144612 3.3079665 2.5802608 5.7699294 3.0365078 4.9759765 4.761295
6.7165136 3.4567235 2.9711592 5.0936947 5.262359 3.0816376 3.9174538 3.8583717
4.7413316 2.9667754 7.2363315 3.4659135 3.9306183 3.000736 2.9038832 4.4288707
5.116583 4.852856 4.579724 4.2321067 3.6388679 4.3393145 5.5957313 6.6933727
3.869374 4.9970026 4.2171655 5.152918 4.417194 4.484362 4.4592123 4.5466285
5.6780653 4.749634 4.17477 3.5919876 4.503508 5.952596 4.8680253 2.8212936
2.956494 4.7309775 3.8559864 2.931374 6.0563 4.155519 5.414235 3.4804614
5.582609 4.6037345 4.0723968 3.668904 4.3840547 5.0753727 4.8676906 8.629262
5.214913 3.1294785 3.6384304 4.598244 3.5685697 4.3657985 5.876366 3.0135372
4.9072723 2.4191096 4.901767 4.8333163 7.138063 3.1142492 4.0130544 5.596618
3.750062 4.4893484 8.497076 4.477543 3.4157445 5.0859613 3.6984556 5.0130253
4.7935047 2.9319382 4.817707 3.3207614 3.9557378 5.832319 3.5362198 4.2912297
4.5585666 5.164921 4.8525224 4.1279984 4.6454864 4.1255436 4.2198343 4.606042
00000000: 3fd4 4240 723b 7a40 baba 9040 bb0b 0540
00000010: a2c0 8e40 139b 9b40 510e 6940 ed4c 7f40
00000020: 6413 7140 909c ba40 e5fd 1240 ba08 4340
00000030: c047 7240 0667 7640 d9c4 a140 6336 8c40
00000040: ce06 db40 2220 7440 b9b5 5340 fe22 2540
00000050: 43a3 b840 2556 4240 333b 9f40 875c 9840
00000060: aeed d640 f53a 5d40 7927 3e40 8cff a240
00000070: 3f65 a840 8d39 4540 90b7 7a40 90ef 7640
00000080: fdb8 9740 a6df 3d40 0790 e740 87d1 5d40
00000090: 408f 7b40 0f0c 4040 39d9 3940 4fb9 8d40
000000a0: 0cbb a340 994a 9b40 198d 9240 6b6d 8740
000000b0: 36e3 6840 aadb 8a40 3b10 b340 1c30 d640
000000c0: d3a3 7740 72e7 9f40 05f3 8640 b4e4 a440
000000d0: a759 8d40 e57f 8f40 deb1 8e40 fb7d 9140
000000e0: b6b2 b540 00fd 9740 b797 8540 20e3 6540
000000f0: bd1c 9040 ab7b be40 ddc6 9b40 1390 3440
00000100: 3337 3d40 2b64 9740 7bc8 7640 a29b 3b40
00000110: 36cd c140 03fa 8440 6a41 ad40 e1bf 5e40
00000120: bca4 b240 cb51 9340 1351 8240 53cf 6a40
00000130: 2d4a 8c40 7469 a240 1fc4 9b40 7511 0a41
00000140: 91e0 a640 6049 4840 0bdc 6840 d124 9340
00000150: 7263 6440 9fb4 8b40 310b bc40 cbdd 4040
00000160: 6008 9d40 b1d2 1a40 46db 9c40 87aa 9a40
00000170: 036b e440 dc4f 4740 f16a 8040 7f17 b340
00000180: 0401 7040 bea8 8f40 06f4 0741 0848 8f40
00000190: 8f9b 5a40 32c0 a240 7fb3 6c40 b46a a040
000001a0: 6464 9940 e0a4 3b40 a82a 9a40 5b87 5440
000001b0: cf2a 7d40 5ba2 ba40 6d51 6240 c151 8940
000001c0: c7df 9140 0847 a540 dd47 9b40 9018 8440
000001d0: d3a7 9440 7404 8440 e208 8740 b264 9340

12.weight f4 [84, 120]
-0.13268086 0.2595096 -0.16301101 -0.13009693 0.05801354 -0.24611163 -0.1461325 0.122102596
0.009967001 0.03194623 0.18776035 -0.113898806 0.18782255 0.28736106 -0.14450784 0.13094011
0.19353372 -0.0013896647 -0.14825587 -0.088871256 0.0008690151 -0.01676553 -0.0002999275 0.23262978
-0.18879218 0.32385844 0.0073859054 0.087285124 0.020250125 0.12393489 -0.025181357 0.0848547
-0.11706692 0.17110924 -0.111974336 0.20107606 -0.13898084 -0.21843483 0.112221085 0.083451726
-0.026316224 -0.12160788 0.0057899496 0.10057427 -0.15124463 -0.27616784 0.20544162 0.15773886
0.0618775 0.0306379 -0.32244226 0.12247959 -0.11899917 -0.019283226 0.07160286 0.021499723
-0.04609423 0.06043908 0.18375076 0.19310027 0.14831208 -0.004949997 -0.04989956 -0.092252046
0.282575 -0.14153518 -0.3093065 -0.06422498 -0.06797839 -0.048323274 0.24645288 -0.053533763
-0.0818566 -0.03732421 0.1454342 0.1081639 0.01588242 0.020914687 -0.10408808 -0.10665207
0.1852756 0.090980396 0.13338606 0.028782062 0.03607125 -0.22942989 -0.24202245 -0.016185308
0.09686875 0.11732365 -0.43210265 -0.015010035 -0.008647537 0.3395024 -0.24559191 0.14079899
0.22942278 -0.2793166 -0.34568453 0.06896953 0.1228397 -0.117392115 0.20605941 0.23599799
0.11594606 0.11992086 0.07027292 -0.22904745 0.29010615 0.0900507 -0.05777986 0.14318953
0.013948271 -0.055717148 -0.22855431 -0.21311747 -0.030660035 -0.036288664 -0.12897505 -0.2840313
-0.061483413 0.05609526 0.0484985 0.24849258 -0.17132716 0.14867358 0.0010015401 0.042223547
0.031093653 0.21616279 0.0070877504 -0.1299135 0.20174554 0.34350398 0.116096206 -0.12337775
0.03703072 0.23772019 0.045579407 0.15970986 -0.07393131 0.08485427 0.13190386 0.15602708
-0.21123046 0.12566842 -0.033833016 0.09164157 0.35002488 -0.1431754 0.15045933 0.05122979
0.029571926 -0.10282582 0.108674645 0.08218969 0.13000238 -0.09804376 0.051057838 -0.21249138
0.06548528 -0.10115585 0.061794315 0.17052764 0.008209467 0.13239452 -0.13766645 0.06976851
-0.025101066 -0.15510932 -0.11359576 -0.01421882 -0.13045873 0.23765388 0.027107164 -0.062046997
0.16532242 -0.18964614 0.22145651 -0.05836406 0.14349806 -0.11710877 -0.04552519 -0.096828714
0.029310733 0.00030366806 6.389184e-05 -0.113793716 -0.061690524 -0.18767694 0.10300673 -0.12333559
-0.19049661 0.059639752 -0.13940842 0.24915752 0.09950271 0.012201 0.0820181 -0.051695053
-0.032479722 -0.20179166 -0.006757368 -0.090199366 -0.017406084 -0.15210648 0.016717901 -0.069369994
0.06308311 0.083601445 0.14789468 0.0976785 -0.15087278 0.11899972 0.025127884 -0.2036541
-0.028889984 -0.11196213 0.21706052 -0.0132480245 -0.07541871 -0.20127417 -0.041742194 -0.18161455
-0.031303853 -0.10914071 0.020602336 0.15580271 0.09425398 -0.025681678 -0.08754336 0.046406165
0.03702719 -0.054236293 -0.1854899 -0.19082464 0.08412463 -0.07407359 0.1432355 0.031674102
-0.09975206 0.16017137 -0.16610675 -0.07609571 -0.023280058 0.0099726785 0.21799292 -0.22648688
0.066228054 0.1362583 0.23214307 -0.021498129 -0.120274395 -0.22011562 -0.21984003 -0.004774747
00000000: 7edd 07be 71de 843e 5cec 26be 2138 05be
00000010: 9b9f 6d3d b004 7cbe c2a3 15be ed10 fa3d
00000020: a24c 233c 0dda 023d 4044 403e c743 e9bd
00000030: 8e54 403e fd20 933e ddf9 13be 2a15 063e
00000040: b42d 463e 6925 b6ba 63d0 17be 2202 b6bd
00000050: 9ece 633a dd57 89bc 963f 9db9 8036 6e3e
00000060: bd52 41be c6d0 a53e 7705 f23b 8bc2 b23d
00000070: 97e3 a53c 93d1 fd3d 2249 cebc 4dc8 ad3d
00000080: c8c0 efbd 4337 2f3e cd52 e5bd e2e6 4d3e
00000090: fe50 0ebe 61ad 5fbe 2bd4 e53d bde8 aa3d
000000a0: 1f95 d7bc 8d0d f9bd 9eb9 bd3b e2f9 cd3d
000000b0: dfdf 1abe df65 8dbe 4a5f 523e 4c86 213e
000000c0: 4373 7d3d 55fc fa3c 2717 a5be 94d6 fa3d
000000d0: d6b5 f3bd dbf7 9dbc 85a4 923d 3020 b03c
000000e0: 4ecd 3cbd f88e 773d 2929 3c3e 14bc 453e
000000f0: 1fdf 173e 9633 a2bb 7b63 4cbd a4ee bcbd
00000100: acad 903e 99ee 10be 6c5d 9ebe 6388 83bd
00000110: 4138 8bbd a0ee 45bd 255e 7c3e 3846 5bbd
00000120: 6fa4 a7bd 45e1 18bd b4ec 143e 0985 dd3d
00000130: d91b 823c 4755 ab3c 222c d5bd 676c dabd
00000140: e3b8 3d3e ee53 ba3d 5b96 083e 5cc8 eb3c
00000150: 72bf 133d abef 6abe bcd4 77be 0d97 84bc
00000160: 2063 c63d 6247 f03d 8f3c ddbe a6ec 75bc
00000170: 66ae 0dbc 42d3 ad3e 727c 7bbe 9c2d 103e
00000180: ceed 6a3e 9602 8fbe 90fd b0be e63f 8d3d
00000190: 6193 fb3d 476b f0bd 3d01 533e 75a9 713e
000001a0: 2175 ed3d 1199 f53d 40eb 8f3d 6a8b 6abe
000001b0: cb88 943e 806c b83d 93aa 6cbd 47a0 123e
000001c0: 4a87 643c aa37 64bd 240a 6abe 773b 5abe
000001d0: c12a fbbc 6ca3 14bd 0912 04be 8d6c 91be
000001e0: 08d6 7bbd 25c4 653d 5da6 463d d774 7e3e
000001f0: 6370 2fbe e33d 183e 1c46 833a 99f2 2c3d
00000200: 1eb8 fe3c c759 5d3e 5c40 e83b 0b08 05be
00000210: 6296 4e3e c1df af3e d9c3 ed3d 79ad fcbd
00000220: 86ad 173d ec6c 733e 79b1 3a3d fb8a 233e
00000230: 4c69 97bd 13c8 ad3d ce11 073e 90c5 1f3e
00000240: cc4c 58be 39af 003e 7d94 0abd 93ae bb3d
00000250: 7636 b33e 929c 12be 0312 1a3e 54d6 513d
00000260: d340 f23c 5896 d2bd d090 de3d 1153 a83d
00000270: 581f 053e 2bcb c8bd 0622 513d 5797 59be
00000280: 251d 863d cc2a cfbd 091c 7d3d cc9e 2e3e
00000290: 0081 063c 6e92 073e 6ff8 0cbe cbe2 8e3d
000002a0: c0a0 cdbc fad4 1ebe e5a4 e8bd 0ef6 68bc
000002b0: f996 05be 8a5b 733e d80f de3c fe24 7ebd
000002c0: 484a 293e 9932 42be 7fc5 623e 270f 6fbd
000002d0: 28f1 123e b9d6 efbd 9f78 3abd 224e c6bd
000002e0: 101d f03c a335 9f39 acfd 8538 ae0c e9bd
000002f0: 34af 7cbd 622e 40be 31f5 d23d 5f97 fcbd
00000300: 8b11 43be d048 743d 15c1 0ebe 2623 7f3e
00000310: 14c8 cb3d b4e6 473c 1bf9 a73d 31be 53bd
00000320: 7509 05bd 79a2 4ebe e96c ddbb 72ba b8bd
00000330: 3497 8ebc cdc1 1bbe fbf3 883c db11 8ebd
00000340: b831 813d 3c37 ab3d b471 173e aa0b c83d
00000350: 657e 1abe 20b6 f33d fed8 cd3c b38a 50be
00000360: b0aa ecbc 674c e5bd 1d45 5e3e 3e0e 59bc
00000370: 2075 9abd d11a 4ebe ddf9 2abd 2af9 39be
00000380: 7838 00bd 2a85 dfbd 3bc6 a83c bf8a 1f3e
00000390: 3b08 c13d 6262 d2bc ef49 b3bd 6414 3e3d
000003a0: d3a9 173d e026 5ebd 10f1 3dbe 8967 43be
000003b0: 8949 ac3d e5b3 97bd 54ac 123e b4bc 013d
000003c0: cf4a ccbd f703 243e e317 2abe 11d8 9bbd
000003d0: d2b5 bebc 7264 233c 8939 5f3e 2dec 67be
000003e0: 93a2 873d 4c87 0b3e eab6 6d3e d81c b0bc
000003f0: 6c52 f6bd fd65 61be bf1d 61be 7b75 9cbb

12.bias f4 [84]
-0.08976577 0.16405064 0.10876842 -0.0933622 -0.3150031 -0.1279473 -0.0950544 0.10168371
-0.10075048 -0.0016820151 -0.099778004 0.021812018 0.12762132 0.07585291 -0.09096876 -0.13866647
0.029355027 -0.09040244 -0.010755678 -0.18280269 0.026272643 0.0761755 0.04969796 0.16272469
0.0856119 0.1936275 -0.016180355 0.119111076 -0.12847033 -0.052642506 0.19413415 -0.20138492
0.09360148 0.09922004 -0.1758397 -0.037715856 0.31213287 0.13183136 -0.11856712 -0.008180687
0.20295973 -0.089491315 -0.060597543 0.04346374 -0.25896156 0.039761532 -0.18596971 -0.005381467
0.22943808 -0.3513594 -0.13486102 -0.32963955 -0.0728807 0.11975129 -0.09692144 0.19346781
-0.037581626 0.20124407 0.14285989 -0.09052416 0.03884449 0.102603026 0.022725875 0.35331127
0.0012685148 0.12748735 -0.01867446 0.101748146 0.054202072 0.15674333 0.32295415 -0.30939972
0.11829536 -0.3046649 -0.1832797 -0.14795104 -0.20547354 -0.11624714 0.028051395 0.003413685
-0.054069698 0.17837958 0.18903773 -0.031314958
00000000: 1ed7 b7bd e4fc 273e fac1 de3d ae34 bfbd
00000010: 1648 a1be 9e04 03be e2ab c2bd 8d3f d03d
00000020: 4556 cebd 1077 dcba 6958 ccbd 1eaf b23c
00000030: 2aaf 023e c558 9b3d d44d babd 95fe 0dbe
00000040: f479 f03c ea24 b9bd 9538 30bc a130 3bbe
00000050: ba39 d73c e701 9c3d 1790 4b3d 4da1 263e
00000060: 4b55 af3d 4a46 463e aa8c 84bc 82f0 f33d
00000070: ba8d 03be ab9f 57bd 1acb 463e d937 4ebe
00000080: 22b2 bf3d e033 cb3d 530f 34be f17b 1abd
00000090: e1cf 9f3e cdfe 063e 51d3 f2bd 4a08 06bc
000000a0: add4 4f3e 3947 b7bd 2135 78bd 0907 323d
000000b0: 9c96 84be fddc 223d d86e 3ebe 0457 b0bb
000000c0: d1f1 6a3e 61e5 b3be 0219 0abe 84c6 a8be
000000d0: 7a42 95bd 2a40 f53d bf7e c6bd 6d1c 463e
000000e0: 31ef 19bd ed12 4e3e dd49 123e bb64 b9bd
000000f0: 661b 1f3d 8921 d23d 9d2b ba3c 37e5 b43e
00000100: 4b44 a63a 0b8c 023e 2efb 98bc 5561 d03d
00000110: fe02 5e3d 5381 203e 3f5a a53e a469 9ebe
00000120: d644 f23d 0afd 9bbe acad 3bbe 7a80 17be
00000130: a867 52be fb12 eebd 0acc e53c 21b8 5f3b
00000140: 3078 5dbd 23a9 363e 1b93 413e 1d44 00bd

13.weight f4 [26, 84]
-0.096017525 0.11466428 -0.0342819 0.067211 -0.16760045 -0.22613446 0.19464815 -0.07634198
-0.16409701 0.11453013 -0.1473164 0.18336302 0.18422687 -0.08207724 -0.088893406 0.18855537
0.088614196 -0.14377365 0.045129184 0.1181515 0.03779331 -0.11454119 -0.0022903548 0.0013192387
0.2044552 0.21176085 -0.1817116 0.18816279 0.15160008 -0.23293746 0.2560385 0.25578713
0.18500932 -0.19145347 0.106487416 -0.24996684 0.020733302 0.020528365 -0.08290191 -0.27852246
0.07162307 0.08681745 0.08762945 -0.0038245062 -0.08946329 -0.09747768 -0.07740131 0.010323113
-0.015417293 -0.3208433 -0.23558372 -0.10797968 0.29887187 -0.1662828 -0.053358134 -0.06431162
-0.09516331 0.12312947 0.062454253 0.10497455 0.0006988491 0.011315858 -0.0643014 0.22602719
0.089307085 -0.08286165 0.14427057 -0.043809358 0.15919366 -0.0023869004 0.17480876 -0.043134954
0.13099411 -0.2155621 -0.21857083 0.05071916 -0.09882855 -0.005977747 -0.23768526 0.013914656
0.024994966 0.071026936 -0.18960862 -0.008738157 0.06321787 0.13238518 -0.09119758 -0.2694533
-0.20353846 0.17165828 0.20360638 0.10117037 -0.24984954 0.14145932 0.073217325 -0.007353685
0.013391243 0.21249913 0.21055947 -0.11765364 -0.051597625 -0.07200915 -0.3038634 0.124022834
0.09224028 0.13602383 0.008363053 -0.2843568 -0.11119649 -0.098243155 0.16494717 -0.15324713
0.07762229 -0.16081178 -0.21489778 0.1390334 0.07725055 0.16725513 0.22562487 0.1411914
-0.045270953 0.23051396 0.09476576 -0.16136602 -0.04875635 0.15901475 0.28357458 0.24649881
-0.21602586 0.06096933 0.17111279 -0.094273746 -0.05807566 0.07298348 0.04879877 -0.23685014
-0.058057845 -0.12447704 0.24379541 0.28393897 0.058049213 0.17258425 -0.27483863 0.109428406
-0.198465 -0.2929313 -0.21006256 -0.029078329 0.07478309 0.2770091 0.10153764 -0.23714285
0.12434085 -0.07095014 0.18412569 -0.21141173 -0.21206555 -0.057653453 0.21509206 -0.08410157
0.023202404 0.028038306 0.22976059 -0.0760679 -0.115869656 0.00163359 -0.099412985 0.057866637
-0.043391734 0.04756424 0.06025701 -0.115549386 0.14507806 -0.08218898 -0.106618755 0.16069494
0.11316866 -0.23562817 0.0871119 0.042786717 0.006396961 0.21284202 -0.03958235 -0.17747097
0.26534513 -0.061205998 0.22022831 -0.02870504 0.20618124 -0.0771192 -0.14279318 -0.20677097
-0.20079586 0.06739246 0.21484597 0.07109644 0.030198438 0.17394371 0.07733195 0.09958676
-0.1577576 -0.19877878 0.078070894 -0.21197172 -0.23690017 -0.15824062 0.14027952 0.03253949
-0.020239137 0.12465874 0.14748116 -0.037208807 -0.23351601 0.18991786 0.0059410827 -0.2323703
0.16628546 0.23594907 0.057773054 0.14203009 -0.100191675 0.116014145 -0.25098443 0.10641317
-0.06847667 -0.35630533 0.11345931 -0.25316417 0.15155655 -0.19361432 -0.06684495 -0.014750367
0.1953901 0.1485678 0.16830757 0.17812838 0.030041622 0.026072865 -0.049416497 0.22515962
0.08793977 0.21343642 -0.03623625 0.15352431 -0.17501672 0.09229422 -0.0910601 -0.24072193
0.22577585 -0.15995221 -0.09340888 0.30932143 0.26828998 0.2307088 -0.046910968 0.2124097
00000000: d6a4 c4bd 1bd5 ea3d 2d6b 0cbd eca5 893d
00000010: 749f 2bbe cb8f 67be d851 473e 2f59 9cbd
00000020: 0c09 28be c68e ea3d 1cda 16be 84c3 3b3e
00000030: f8a5 3c3e 1d18 a8bd bf0d b6bd a914 413e
00000040: 5c7b b53d 6639 13be 61d9 383d 6af9 f13d
00000050: 28cd 1a3d 9294 eabd c719 16bb 4eea ac3a
00000060: b45c 513e d6d7 583e 9b12 3abe bfad 403e
00000070: 0d3d 1b3e 2887 6ebe 7a17 833e 88f6 823e
00000080: 1573 3d3e 610c 44be 1316 da3d 4ff7 7fbe
00000090: e3d8 a93c 1a2b a83c 7ac8 a9bd 7f9a 8ebe
000000a0: 1eaf 923d 59cd b13d 1277 b33d 91a4 7abb
000000b0: 8838 b7bd 61a2 c7bd 9484 9ebd 4622 293c
000000c0: d098 7cbc 9345 a4be dc3c 71be 7324 ddbd
000000d0: bc05 993e 0a46 2abe 0f8e 5abd d0b5 83bd
000000e0: fbe4 c2bd 4e2b fc3d 08d0 7f3d e6fc d63d
000000f0: f832 373a 2666 393c 74b0 83bd ac73 673e
00000100: a2e6 b63d 5eb3 a9bd aabb 133e 7171 33bd
00000110: aa03 233e 8b6d 1cbb 1101 333e 47ae 30bd
00000120: 5223 063e 50bc 5cbe 08d1 5fbe e5be 4f3d
00000130: 9f66 cabd fae0 c3bb c463 73be 4cfa 633c
00000140: 3ec2 cc3c 9276 913d c328 42be 7d2a 0fbc
00000150: 5f78 813d fb8f 073e ccc5 babd c8f5 89be
00000160: 636c 50be 30c7 2f3e 317e 503e 6932 cf3d
00000170: 8fd8 7fbe b6da 103e f7f2 953d 2ef7 f0bb
00000180: f266 5b3c 5f99 593e e79c 573e 64f4 f0bd
00000190: 0858 53bd 8979 93bd fc93 9bbe afff fd3d
000001a0: 79e8 bc3d d549 0b3e 3005 093c 3797 91be
000001b0: fcba e3bd b533 c9bd e9e7 283e d1ec 1cbe
000001c0: 6ff8 9e3d d8ab 24be 2a0e 5cbe c65e 0e3e
000001d0: 8935 9e3d ee44 2b3e 350a 673e 7a94 103e
000001e0: 096e 39bd da0b 6c3e 8d14 c23d 223d 25be
000001f0: bdb4 47bd c3d4 223e b030 913e 2f6a 7c3e
00000200: e235 5dbe faba 793d 3138 2f3e 9812 c1bd
00000210: bee0 6dbd 5d78 953d 38e1 473d d888 72be
00000220: 10ce 6dbd d1ed febd 81a5 793e 7360 913e
00000230: 03c5 6d3d edb9 303e a6b7 8cbe 001c e03d
00000240: 693a 4bbe 17fb 95be a41a 57be ad35 eebc
00000250: e027 993d 23d4 8d3e f7f2 cf3d 93d5 72be
00000260: 6aa6 fe3d 4f4e 91bd 728b 3c3e 517c 58be
00000270: b627 59be 0726 6cbd 1841 5c3e 723d acbd
00000280: f812 be3c 97b0 e53c 5c46 6b3e 7dc9 9bbd
00000290: 124d edbd 2f1e d63a 0999 cbbd 9105 6d3d
000002a0: 88bb 31bd b8d2 423d 0ed0 763d 28a5 ecbd
000002b0: 588f 143e b252 a8bd ef5a dabd 378d 243e
000002c0: f8c4 e73d 8348 71be b967 b23d 2041 2f3d
000002d0: 999d d13b 42f3 593e 1a21 22bd f3ba 35be
000002e0: 51db 873e 24b3 7abd 8883 613e d526 ebbc
000002f0: 2d21 533e acf0 9dbd 6038 12be c5bb 53be
00000300: 6e9d 4dbe 0f05 8a3d 9500 5c3e 039b 913d
00000310: b762 f73c 4d1e 323e 3760 9e3d 25f4 cb3d
00000320: 358b 21be aa8c 4bbe a2e3 9f3d 1d0f 59be
00000330: f595 72be d409 22be 6fa5 0f3e 2148 053d
00000340: 8ccc a5bc 154d ff3d 4d05 173e 4368 18bd
00000350: d21e 6fbe d479 423e 6aad c23b 7bf2 6dbe
00000360: bc46 2a3e a29c 713e 70a3 6c3d 5670 113e
00000370: 4b31 cdbd d398 ed3d 0881 80be 26ef d93d
00000380: 7f3d 8cbd a76d b6be 5b5d e83d bc9e 81be
00000390: a431 1b3e d542 46be 01e6 88bd 86ab 71bc
000003a0: 5814 483e 2822 183e d258 2c3e 4967 363e
000003b0: d919 f63c c396 d53c f468 4abd 3e90 663e
000003c0: c419 b43d 148f 5a3e 766c 14bd 7a35 1d3e
000003d0: 9537 33be c104 bd3d b87d babd cf7f 76be
000003e0: c931 673e 83ca 23be 284d bfbd 615f 9e3e
000003f0: 4e5d 893e ed3e 6c3e b725 40bd ee81 593e

13.bias f4 [26]
0.09244215 0.061414722 -0.17406233 0.09623062 -0.0076258015 -0.05990416 0.13003826 0.10901077
0.005517103 -0.015260625 -0.22122175 0.0014596386 -0.30911905 0.013174419 -0.21863653 -0.2072188
0.05557459 0.32310024 -0.18267502 0.01654562 0.031888474 -0.0281581 -0.1885581 -0.14581393
0.20081805 -0.1343645
00000000: 4f52 bd3d 018e 7b3d 653d 32be 8f14 c53d
00000010: dce1 f9bb 115e 75bd c028 053e 0a41 df3d
00000020: d0c8 b43b b307 7abc f487 62be 5851 bf3a
00000030: da44 9ebe 85d9 573c 41e2 5fbe 2a31 54be
00000040: 2ea2 633d 656d a53e 290f 3bbe ae8a 873c
00000050: 7d9d 023d d1ab e6bc 6015 41be 3f50 15be
00000060: 3fa3 4d3e d996 09be
