model_4.pth (torch, 205387 bytes, 22 tensors)

0.weight f4 [6, 1, 5, 5]
00000000: 6444 36bd a22b 983d ab72 51be 49b8 c8bc
00000010: d2e5 5a3e e819 323d 3a4e aebc 21c8 c33c
00000020: ccc9 e4bd c945 673e bfb6 623c 9c59 cd3c
00000030: 1093 a2be 8528 a5be 0555 75bd b03f 033d
00000040: 6fe6 c23d 8446 ad3d 6979 52be 8c08 dbbd
00000050: 16ed e43d 2fb1 2e3e 7da0 963b 1be4 473e
00000060: b523 a5bc 5eda 3b3e d43b 5d3e 4d6e 503c
00000070: e830 753d 24e3 293d 9166 4dbd faab 70bd
00000080: 14c5 9cbe cb3d b0be 873f 83be 51d5 92be
00000090: 28ee cebe a337 41be 2efe e9bd 9444 9f3d
000000a0: 7a4b a83c d719 b7bd fbf6 c03b ad25 e1bd
000000b0: 866a 813c e0d2 3b3c 94bc 253e 2439 0f3e
000000c0: 00d0 213d 18ae 453e 4211 e63d 5216 123e
000000d0: aecd cc3d aa41 ef3c 2ca0 043d 39f5 2cbe
000000e0: 90df 24bd b4a7 3dbe 82f4 20be af62 23be
000000f0: bd92 ef3c 68da e4bc 441d 1bbe ed1f 2c3e
00000100: 9fe1 853e 6047 94bd fe06 d1bd aadf af3c
00000110: b420 273e afca 7c3e f9c8 4fbe 4dc4 22be
00000120: 0c59 913d 5a8f 823e 5389 a03e c86e 053e
00000130: 5d58 693c df78 dcbd 01f1 433d 92e2 a3be
00000140: f6e9 52be b65f 2e3e 67c3 843e beeb 0dbe
00000150: 7155 94be f4d4 2dbd de00 28bb befb 053d
00000160: fcd9 ad3d dd1e 00bf e9ae c63c d76d 673d
00000170: 81e5 1d3e 1249 f63b 3afd b8be d0ce c4bd
00000180: c23a 013e eba4 d93d b8e3 22be b571 66be
00000190: 493e 6e3e 2e32 6c3e 6044 9dbd 0dc1 f9bd
000001a0: 499f f5bd e0ea 423d 27c7 67be 2389 acbe
000001b0: 729c cabc 6da4 e03d 83f8 02bd 986c 053d
000001c0: 410a dcbd 9e0b 553e 25ce ea3d df97 0dbe
000001d0: 9c93 a1bc 0c77 0a3e d143 4a3d 84c7 bd3c
000001e0: 957d d83c 815b a33b 34d2 b8bc bb45 df3d
000001f0: 9017 85be 3ed4 8dbe ee45 aebe 277c e3be
00000200: e310 47be 8744 c7bd 84c7 7fbd 3f1c 5d3d
00000210: a857 00be 898e 1cbd 1a1c 763d 92ec 0b3c
00000220: 10bf 0e3e 1722 f03d 60a0 3e3d 6e59 333c
00000230: 33f1 e73d 20e9 e83d daad 573e 33cc c23b
00000240: 4858 56be 9bd7 cbbd 43fb 2f3e 8ef1 0f3d
00000250: ed12 95bd 68aa 43be
-0.044498816 0.07430197 -0.20453899 -0.024501937 0.21376732 0.043481737 -0.021277536 0.02389914
-0.11171302 0.22585215 0.013837515 0.025067143 -0.31752825 -0.32257476 -0.059895534 0.03204316
0.09516608 0.084607154 -0.20554127 -0.106949896 0.11178033 0.17059778 0.0045967684 0.19520609
-0.020158628 0.18345019 0.21604854 0.01272161 0.059861094 0.041476384 -0.050146643 -0.05875776
-0.3061911 -0.34422144 -0.25634405 -0.28678373 -0.40416074 -0.1886888 -0.11425434 0.07776752
0.020543803 -0.089404754 0.0058888174 -0.10993514 0.015797865 0.011463851 0.16185218 0.13986641
0.039505005 0.19304693 0.112337604 0.14266327 0.10000168 0.029206116 0.032379314 -0.1689042
-0.04025227 -0.18521005 -0.15718272 -0.15955614 0.029244775 -0.027936175 -0.15147883 0.16809054
0.26148698 -0.07240176 -0.10206412 0.021468956 0.16321069 0.24686693 -0.20291509 -0.15895195
0.070970625 0.25499994 0.3135477 0.13030541 0.014242259 -0.10765242 0.04783726 -0.32008797
-0.20597062 0.17028698 0.2593033 -0.1385946 -0.28971437 -0.042439416 -0.0025635283 0.032710783
0.08488843 -0.50047094 0.024253326 0.056501236 0.1541958 0.007516035 -0.36130697 -0.09609759
0.1262007 0.10627159 -0.1590718 -0.22504313 0.23265947 0.23066017 -0.07679057 -0.12195025
-0.11993272 0.047587276 -0.22634564 -0.33698377 -0.024732802 0.10968862 -0.03197528 0.032574266
-0.10744143 0.20805213 0.114651 -0.13827465 -0.019723706 0.13521975 0.04938108 0.023166426
0.02642707 0.0049852734 -0.02256117 0.10901972 -0.2599454 -0.2770099 -0.34037727 -0.44430658
-0.19440036 -0.097298674 -0.062446132 0.053982016 -0.12533438 -0.03822187 0.060085393 0.0085402895
0.13940072 0.11725252 0.046539664 0.010946615 0.11325302 0.1137259 0.21062413 0.0059447526
-0.20932114 -0.09953233 0.17185692 0.035142474 -0.072790004 -0.19107974

0.bias f4 [6]
00000000: e99f 85be df04 54bc 7d0e b7bd 5ee2 a83d
00000010: 2e2d 003e 1968 cabd
-0.26098564 -0.0129406145 -0.0893831 0.08246301 0.12517235 -0.09883136

1.weight f4 [6]
00000000: a33b 983f 942e a63f 7c00 843f 6345 9f3f
00000010: 5b23 7f3f 00f8 953f
1.18932 1.2982965 1.0312648 1.244305 0.99663323 1.1716309

1.bias f4 [6]
00000000: 76e3 3fbf 792b 1ebf 98ea f43e 4310 07bf
00000010: a733 31bf 5de6 00bf
-0.7495645 -0.61785084 0.4783523 -0.5275919 -0.6921944 -0.50351506

1.running_mean f4 [6]
00000000: 7201 6cbe 620d 04bc 3cbe 5ebd 41c2 1cbb
00000010: 3484 fc3d 29c1 35be
-0.23047426 -0.008059831 -0.05438064 -0.0023919495 0.12329903 -0.17749466

1.running_var f4 [6]
00000000: 8247 a33e 9b79 dc3f 1fdb 743f cfa1 c23f
00000010: ab37 583e a8cc a13f
0.31890494 1.7224611 0.9564685 1.520563 0.21114986 1.2640581

4.weight f4 [16, 6, 5, 5]
00000000: d404 bc3d 0895 afbe 1762 ffbc 3946 c33c
00000010: b8a6 893d 5d60 5e3d 55b6 41be 0523 b8bd
00000020: 21c2 b63d 27a0 e03d 96bc 0dbd 5df0 013b
00000030: 8ddf 663a 4cd4 383e 6ec9 383e 2565 fcbb
00000040: 2f78 a33c 8947 b13d 59c7 103e 52fb f13d
00000050: f667 293d 4bbd 57bd d923 803d dd0e 423d
00000060: 0b9f 0d3e c931 cd3d 4286 bb3d d17d d9bc
00000070: b59d 70bc 255a 2abb e7d2 583d 611e d63c
00000080: 0550 c5bd ac31 75bd a120 1c3b 7bf8 113e
00000090: 7d2d df3c 6ffd a6bd 7af2 87be 525c e1bd
000000a0: 2ad8 2b3d aac5 893d 8886 b0bd be4f 67be
000000b0: b1a3 28be 43b3 d93d f4d6 9b3c d5c4 95bd
000000c0: 15bb 8abe 7024 07be 739a 0abe dbff 543e
000000d0: 6a73 f43d bf73 773d d7f7 78bd 4111 40be
000000e0: 24bc f33d cbba 2d3d 7987 adbc 772c 02be
000000f0: 00be 31be 6c2d d0bc 8f15 0d3e 724d 68bd
00000100: 3b67 1cbe b613 f1bc 728b e5bb 16f1 a83d
00000110: e75b 72bd 66fc 98bd 789c b6bd cf5c 923d
00000120: 72d5 8a3d 41dd e63d 14cf 1a3d ae85 24bc
00000130: 2b75 05be 946c b63d 8e16 833d a71d c4bc
00000140: acc6 ea3d f41e fabd 8e43 003d 5900 4b3c
00000150: b575 5f3d ee9b 5b3e eb6b 583c 6b0d 2a3d
00000160: dfe4 adbb e584 94bb 4bef 753e 7fac 263d
00000170: 45af 1c3d 1647 80bd 04c2 183d 8250 223e
00000180: bdc9 1a3e dee6 e8bc 4f6f c8bd 19f6 8dbd
00000190: 108d 863b 87b0 99bb c0d9 98bd 0e46 9abd
000001a0: b5ca 133d fb57 9d3d 64ce 8ebd e160 913d
000001b0: 56e6 443d ad0b 8b3d 9965 d63d c027 20bd
000001c0: ef3a c3bd c3dc 873d d336 8b3d bcb1 803e
000001d0: 5789 9d3c 5221 d6bd 8fd9 b0bc 5b39 80bc
000001e0: 90f4 423e e8c5 b63c cde1 2f3a e48a 233d
000001f0: 3992 d03c fe7c 9e3d 2ae5 4fbd 3eb8 f4bc
00000200: b12b a4bd 0b6b aa3d d976 123e e382 cbbb
00000210: 66f7 c7bd 00ad 87bd 384e 09bd f431 0e3e
00000220: 1adf 99bc e7cc b2bd 4197 8bbd c736 16bd
00000230: 98dd a93d c5de 64bd 3617 cabd 0849 09be
00000240: 134e 75bc 3d07 ef3c 1159 91bd 6598 dcbc
00000250: 1421 87bd af44 88bd 7417 a13d 7299 35bc
00000260: f4af 79bc ea8e 8e3b 91da 34be 743b 62bd
00000270: 82c2 9fbd 89ae 5bbd 10d2 a63c e6c3 55bd
00000280: c178 11be c622 f9bd 8259 98bd ab63 33bd
00000290: ef75 a33b bb62 20be abf7 5abe 4229 99bd
000002a0: df65 7fbd cd3d ff3c df07 27be 75cb d9bd
000002b0: 7d39 563d 9b7c d4bd f003 1ebe 42a7 8a3b
000002c0: 359d 1a3e 8a76 703d 374f 20bd 7316 b6bc
000002d0: c8c8 1f3e 7b89 203e 4f61 643e 4365 403e
000002e0: f703 913b c1b7 0d3e 4e48 833e 1b66 303e
000002f0: a57f 853d fe03 353e 8c86 423e 534f 373e
00000300: ed30 d33d 7479 0a3e 2d6d 773d 8ea6 123e
00000310: a4ea 503d 8fb8 ed3d 4411 b93d 13e7 993d
00000320: c529 41bd 452b f4ba 0cf0 93bd 2eb2 a6bc
00000330: 6ab5 edbc 93da a5bd 8a86 98bd dda9 f2bc
00000340: 0ca3 a3bd 227a 833c 473e 813c 2b84 26be
00000350: a337 3cbe e2c1 18be 9ab6 debd d394 9e3d
00000360: 77ee fd3b f76e 5e3c 4072 52bd da2c e0bd
00000370: 44f1 16bc 79b8 b23d f059 973c f205 ab3d
00000380: 57a5 e7bc b07a 49bd 8ef0 19bd 12c7 bb3d
00000390: 88ef 793c 1fb9 13be abb3 05bd d63e 633d
000003a0: 96f3 513d 7f26 e73d d07e 1fbd 225b 4dbd
000003b0: 35c9 9bbd 83ed f13c 2791 cf3d 6575 013e
000003c0: 94ba 81bd 2adb d7bd c9d8 38bd e9f4 273e
000003d0: b4d9 0b3e 59f1 f6bc 5274 f2bd b96f a33c
000003e0: 77c3 973c ae44 b43c 6408 763c 3b88 56bd
000003f0: 75e3 53be b621 27be f8c9 0fbe 9f1f 6ebb
0.091806084 -0.3429339 -0.031174703 0.023837196 0.06721252 0.054291118 -0.1891721 -0.089910544
0.08923746 0.10968047 -0.034603678 0.0019827106 0.00088071154 0.18049735 0.1804559 -0.007702487
0.019954769 0.086562224 0.14138545 0.11815514 0.04135891 -0.05267076 0.062568374 0.047377456
0.13830201 0.100192614 0.09156467 -0.026549252 -0.014686038 -0.0025993672 0.052935507 0.026137533
-0.09634403 -0.059861824 0.002382316 0.14254944 0.02724337 -0.08153807 -0.26552182 -0.11003937
0.041954197 0.067271546 -0.0861941 -0.22589013 -0.16468693 0.106298946 0.019023396 -0.07312933
-0.27095857 -0.13197494 -0.1353548 0.20800726 0.11936076 0.06041312 -0.060783233 -0.18756582
0.11901119 0.042414468 -0.021182762 -0.12712274 -0.17357635 -0.025412284 0.13777755 -0.056714483
-0.15273754 -0.029428344 -0.0070051486 0.082491085 -0.059169676 -0.07470016 -0.08916563 0.07146608
0.06778993 0.112726696 0.03779514 -0.010041637 -0.13032977 0.089074284 0.06400786 -0.02393992
0.11463675 -0.12212935 0.031314425 0.01239022 0.054555614 0.21446201 0.013209323 0.041516703
-0.0053068246 -0.004532444 0.24017064 0.04069185 0.038253088 -0.062635586 0.037294403 0.15851024
0.1511602 -0.028430399 -0.097868554 -0.06931705 0.0041061714 -0.004690233 -0.074634075 -0.07532893
0.03608199 0.076827966 -0.0697296 0.07098556 0.048071228 0.06789336 0.10468597 -0.03910041
-0.09532725 0.06633904 0.06797566 0.251356 0.019230528 -0.10455574 -0.021588115 -0.01565235
0.19038606 0.022311166 0.0006709367 0.03992738 0.02546035 0.07738684 -0.050755657 -0.02987301
-0.08016146 0.08321198 0.1430315 -0.0062106713 -0.097639844 -0.06624794 -0.03352186 0.13886243
-0.01878314 -0.08730488 -0.06815959 -0.036673333 0.08294219 -0.055876512 -0.098677084 -0.13406765
-0.014972228 0.029178256 -0.07097066 -0.026928136 -0.06598106 -0.06653725 0.078658015 -0.0110839475
-0.015239704 0.004350533 -0.17661501 -0.05523248 -0.07800771 -0.053633247 0.020363837 -0.052188776
-0.1420622 -0.12164836 -0.07438947 -0.043796223 0.004988424 -0.15662663 -0.2138354 -0.074785724
-0.06235301 0.031157399 -0.16311596 -0.106345095 0.05230092 -0.10375329 -0.1543119 0.0042313645
0.15099032 0.058706798 -0.039138045 -0.022227501 0.15603936 0.15677445 0.22302745 0.18788628
0.0044255215 0.13839628 0.25641102 0.1722645 0.06518487 0.17677304 0.18996638 0.17901354
0.10312066 0.13522893 0.060406853 0.14321348 0.05100502 0.116074674 0.09036496 0.07514777
-0.047158975 -0.0018628618 -0.0722352 -0.020348635 -0.029017169 -0.0809833 -0.07447536 -0.029622013
-0.07990083 0.016049448 0.015776766 -0.16261356 -0.18380599 -0.1491771 -0.10874672 0.0774323
0.0077493745 0.013576261 -0.05137849 -0.10946055 -0.009212796 0.087265916 0.018475503 0.08350743
-0.028277082 -0.04918927 -0.037582926 0.09168829 0.015254863 -0.14426087 -0.032642048 0.055479847
0.051257692 0.112866394 -0.038939297 -0.05013574 -0.076067366 0.0295322 0.101351075 0.12642439
-0.06334415 -0.10539849 -0.045128617 0.1640202 0.13657266 -0.03014438 -0.118385926 0.019950734
0.018525822 0.022005405 0.015016649 -0.052376013 -0.20692237 -0.16321453 -0.14041889 -0.0036334766

4.bias f4 [16]
00000000: 306d fcbd f555 9ebd f58d 33bb d56f 4abb
00000010: 894f c8bd ef2c 1ebd c708 543e e52b 73bd
00000020: 809d 0f3d 75a7 b33d 7889 ecbd bf7f 35bd
00000030: 294e 9c3d fd14 08bd ec97 fa3c 2a34 68bd
-0.12325513 -0.07731239 -0.0027397845 -0.003088941 -0.09780795 -0.03861707 0.20706473 -0.059368033
0.035062313 0.08772174 -0.115496576 -0.04431128 0.07632095 -0.03322314 0.03059002 -0.056690373

5.weight f4 [16]
00000000: ad80 1240 ae86 fd3f 6061 e53f 825b 9a3f
00000010: 2c09 ea3f 0580 1240 2410 0540 c0ce ee3f
00000020: 8113 cb3f 9a9e 0d40 e684 1240 dec9 0a40
00000030: 53ca d13f 3aef 0840 d2b0 d13f d479 0740
2.2891037 1.9806726 1.7920341 1.2059176 1.8284049 2.2890637 2.0791101 1.8656845
1.5865327 2.2128053 2.2893615 2.168571 1.638987 2.1396012 1.6382086 2.1168108

5.bias f4 [16]
00000000: 7b99 b8be b29b ea3d db49 b63d 8646 2fbe
00000010: d33a c7be 7b63 f83e 6274 1abe 63c0 92bd
00000020: 295d b23e 7783 e2bd 6e26 793e 1114 b5bd
00000030: 48ba 01bf 7fe7 0e3d b2c7 df3d fd72 853e
-0.36054596 0.11455478 0.089008056 -0.17116746 -0.38912067 0.48513398 -0.15083459 -0.07165601
0.348367 -0.11060231 0.24331066 -0.08841718 -0.5067487 0.03488874 0.10926761 0.26064292

5.running_mean f4 [16]
00000000: 6e81 edbe 317c 253f c294 653f e6c2 42bf
00000010: f2a2 52be 085b ec3d 2269 153f ece9 d9bc
00000020: 986b 893e ad70 fb3e f658 0c3f 794d 8c3d
00000030: 847e 803f 1401 213d 52f1 a2bf 888c 873e
-0.4638781 0.64642626 0.8968011 -0.7607864 -0.20569971 0.115408 0.58363545 -0.0266008
0.268399 0.49109402 0.54823244 0.06850714 1.003861 0.03930767 -1.2729895 0.26474404

5.running_var f4 [16]
00000000: aa20 833f 2df7 1e3f 515f db3e 0080 e93e
00000010: a1b7 4f3f b0e3 9c3f 26c5 6a3f 3b26 5d3f
00000020: 36ca a63e 1ff6 103f 69c3 b53f a63b 5b3f
00000030: 2817 303f 6d60 623f bca6 f33e 3d6d 833f
1.0244343 0.6209591 0.42846158 0.4560547 0.8113957 1.2256985 0.91707075 0.8638646
0.3257615 0.5662555 1.420026 0.8563789 0.68785334 0.88428384 0.47588146 1.0267712

8.weight f4 [100, 16, 5, 5]
00000000: 5296 9f3c d8eb 0d3e 40a6 fdba 0220 443d
00000010: bdd8 24be f538 a63d 9678 493d f83a b8bd
00000020: b210 983a 558f 3f3d ac9d efbd c374 463c
00000030: 2b01 84bd 374a 583d 7f29 ec3d e234 90be
00000040: 64ed 9ebb 9ca6 83bb d4ec 61bc b21c 95bc
00000050: 4fc5 9cbe 05e7 33bc 9012 fdbb c8a3 e93d
00000060: db88 a53d d238 bd3c 1232 43bd ad85 1ebe
00000070: 6a2c b0bd 05f1 5c3d 1a6f eb3d 6aba b3bd
00000080: 4fc8 1ebe dac9 bebd 0dd1 c83d 3ba0 4abe
00000090: 0a4e 24be e680 61bd 8b12 cd3c 927a 923d
000000a0: e3b3 6fbe 2e3e fdbc c058 14bd fd33 ab3c
000000b0: 277d 9a3d 7f37 7dbd 0a16 453e 76d6 663d
000000c0: a0c5 c9bc d7e8 5abc 1116 143e cab9 4d3e
000000d0: a108 d23d d1e0 8a3c a1ce 23bc eb22 b7bd
000000e0: edbe fab9 1c58 623b da8b 0f3e 7715 113d
000000f0: 6c60 18bd a9f8 c5bd c5dc 5fbd f1e6 143d
00000100: 3f6e 9abc c86c 0cbd 21a3 3fbd e0fa b8bd
00000110: cb3e 1ebd 37db e0ba 6f76 1b3e 86d1 e93a
00000120: 777e 44bd 1e86 ac3b 48f0 b7bd 5885 f7bc
00000130: 9049 e33c ed3a 2a3d 96ea 66bd c461 bf3d
00000140: 0751 fabd ea97 57bc ec85 e13d de54 c3bd
00000150: c9e8 203d d8a4 59be 51ca 1d3e a5e3 ee3c
00000160: 08cf 26be b4d1 ce3c 24f8 f03d 69c1 843c
00000170: 5be8 0c3c 2fbb 4dbd 1704 6b3d c76e 533c
00000180: 1533 bd3d 4c4e 3f3d 147b fa3c a3f4 a23d
00000190: c77c 0c3e 9c4c 423d e4f1 a2bd 741c fc3a
000001a0: b128 a63d 9f90 423d 805f 753d c2e6 3dbd
000001b0: bd8d 23bd d86e 9d3a 0f79 4f3d f310 4d3d
000001c0: ff68 d7bd 537d e53c bae9 1bbd 4fb2 aa3d
000001d0: 0d1f 89bd ba6b b8bd 6fc6 9f3c c9f9 e43a
000001e0: 1002 523e eea5 b43d f94e 913d ecde e33c
000001f0: 89cb 843d a786 5cbd 2a41 ce3d 5d14 bd3d
00000200: 67ba 25bd b435 9e3d af18 be3d 392a 073e
00000210: 25ed b0bd 8907 b2bc 1ff9 71bd 04e9 8a3e
00000220: 37ce 5a3c 7a69 f6bd dbca bbbd fee0 febc
00000230: 550d c73d 89b6 c4bc 3ce3 eebd c4d5 60be
00000240: 0937 a73b eecc ffbd d69f a3bc 7127 99bd
00000250: 46a0 a5bd f6b7 913c a382 433e 8d13 773d
00000260: d6c4 65bd 1072 7ebd 726d 5f3b 5d14 10be
00000270: 059e 77be ec54 3fbe 533a efbb 60be abbd
00000280: be93 46be b430 7bbe ae11 84bd 8e47 0dbd
00000290: a500 5ebd cea6 93be 53cf a93d a74e fd3c
000002a0: ad38 a83b cf8c 793d 6b1e a13d 2a96 933b
000002b0: be80 0f3d 1502 e33d bc21 a4bb 1d4d 3f3d
000002c0: 43ad a83d 4882 133e 47fa 603d 7be5 4fbd
000002d0: f771 533d c3e6 1d3d bafc a53c c374 1a3d
000002e0: 7b8a 28bd 654e 823d b31b e9bb b0f9 8cbc
000002f0: 182d f83c 1b8d c2bd 56f5 c43c c3ce 323d
00000300: 49aa ccbc 86e5 6d3d 8b11 0d3d d7e8 30bd
00000310: 1823 30bd bcb4 0fbe 8e2b 72bd 9080 3e3d
00000320: 2ead 2ebe 659c 35bd a9d6 353e c141 263e
00000330: ea34 003e 4407 77bc e969 04be 4a69 123b
00000340: e39c d5bd c023 433d 933a ce3c 6bc3 a2bd
00000350: 01bd 713d 1a42 12be 0835 a0bd 2944 a9bd
00000360: 45b8 22be 15d1 2a3d 4a40 8a3c c87c ae3b
00000370: da6b 763d ee00 96bc bc97 08bd ef08 dd3d
00000380: 920c 593d f662 343c 31be e7bd 7756 eebd
00000390: 0ff7 00bd 5f5d b23c c587 c6bc a743 0cbe
000003a0: 38e1 edbc 6749 f33c 92c6 863d b2bd 82be
000003b0: 00d3 0dbc b2a3 833d f2c5 123d 5514 15bd
000003c0: c3e8 48be c196 8a3d 7ca3 d8ba 8f1d 4cbc
000003d0: 0b66 c7bc e133 46be 3dd1 273b 4e96 543c
000003e0: 30a2 7cbd 5756 1ebd d1f4 503b ed1a 4bbd
000003f0: 15c5 153e 97be 953d 6caf c83d f3dd f23c
0.019480858 0.13859499 -0.0019351915 0.047882088 -0.16098304 0.081163324 0.049187265 -0.089956224
0.0011601655 0.04676755 -0.116999954 0.012112799 -0.06445535 0.05280515 0.11531352 -0.28165346
-0.0048500765 -0.004017664 -0.013789374 -0.01820216 -0.30619285 -0.010980372 -0.00772316 0.11408192
0.08082744 0.023098383 -0.047655173 -0.15480681 -0.08602221 0.05394079 0.114958 -0.0877579
-0.15506099 -0.09315844 0.09805498 -0.19787686 -0.16045395 -0.055054568 0.025033256 0.07152285
-0.23408465 -0.030913439 -0.03621745 0.020898813 0.07543402 -0.061820503 0.19246688 0.05635687
-0.024630368 -0.013361177 0.14461543 0.20090404 0.10255552 0.016952904 -0.009997995 -0.08942207
-0.00047825967 0.003453738 0.14018193 0.03542086 -0.03720133 -0.09666569 -0.0546539 0.036353055
-0.018851398 -0.03428343 -0.04678643 -0.090322256 -0.038634103 -0.0017155175 0.15181898 0.0017838932
-0.04797217 0.0052650115 -0.08981377 -0.03021495 0.027745038 0.041560102 -0.056376062 0.09344819
-0.12222486 -0.013158778 0.11011872 -0.095376715 0.0392845 -0.21254289 0.15409209 0.029161284
-0.16289914 0.025246479 0.11766079 0.016205506 0.00860032 -0.05022734 0.057376947 0.012904829
0.09238259 0.04670553 0.030576266 0.07956817 0.13719474 0.04743634 -0.07956293 0.0019234554
0.0811323 0.047501203 0.05990553 -0.046362646 -0.039930094 0.0012011183 0.05065256 0.050064992
-0.10518073 0.02801386 -0.038064696 0.08334791 -0.066953756 -0.09004922 0.0195038 0.0017469461
0.205086 0.08820711 0.07095141 0.027816258 0.06484134 -0.053839352 0.10071023 0.092323996
-0.04046097 0.07725087 0.09282052 0.131997 -0.08638982 -0.021732109 -0.05907547 0.27130902
0.0133548295 -0.12031837 -0.09169551 -0.031113144 0.0971934 -0.02401282 -0.11664435 -0.21956545
0.0051029962 -0.12490259 -0.019973677 -0.07478226 -0.0808721 0.017787915 0.19092803 0.06032138
-0.05609592 -0.062120497 0.0034092334 -0.14070268 -0.24181373 -0.18684739 -0.007300654 -0.083859205
-0.19392297 -0.24530298 -0.06448685 -0.034492068 -0.054199833 -0.288382 0.08291497 0.030921293
0.0051337094 0.0609253 0.0786713 0.004503985 0.035034887 0.110843815 -0.0050089043 0.0467044
0.08236172 0.14405167 0.054926183 -0.05075596 0.051622357 0.03855015 0.020262111 0.03770901
-0.04114769 0.06362609 -0.0071138977 -0.017208904 0.03029494 -0.0949957 0.024042767 0.043654215
-0.024983542 0.05808022 0.03444056 -0.043190803 -0.043002218 -0.14033788 -0.05912357 0.046509326
-0.1705825 -0.044338603 0.17757668 0.1623602 0.12520185 -0.015077416 -0.12931027 0.002234059
-0.104303144 0.047641516 0.025174415 -0.07947429 0.05901814 -0.14283028 -0.07822615 -0.08264954
-0.15890606 0.041703302 0.016876359 0.0053249337 0.06016145 -0.01831099 -0.03334783 0.107927196
0.052990504 0.011009922 -0.11315573 -0.116375856 -0.031485613 0.021773038 -0.024234662 -0.13697682
-0.029038057 0.029698087 0.06580843 -0.2553535 -0.008656263 0.06427707 0.035833307 -0.036396343
-0.19620042 0.06767035 -0.0016528214 -0.012458219 -0.02434065 -0.19355728 0.0025606893 0.012975289
-0.06167811 -0.03865656 0.0031884203 -0.049586225 0.14625962 0.07311743 0.09799084 0.02964685

8.bias f4 [100]
00000000: 8663 bb3b d858 debc 3bbb 38bc f67a a73c
00000010: d78d 693c 3c64 7dbc e933 cabc 0736 15bd
00000020: 9a38 393d 5f8f 343d b1cc b13c db65 b83a
00000030: f599 383d cff1 9d3c a55d 273d 4d9f 2f3d
00000040: 257f a53c ac60 b8bb 06df 62bb d008 cf3c
00000050: 190f 2a3d 3bc4 7abc 7f95 f63c 1f9a f7bc
00000060: ac3e a2bc 6b19 183d ad26 8d3c d03a 553d
00000070: 4f40 b33c 5895 15bd 6b75 523c 22f3 103d
00000080: ffe6 c0b9 7e44 8c3c cb67 203d 0d4e 963c
00000090: c166 0d3d 56ed 763c 564e 063c cff8 2fbd
000000a0: 5d1f 3ebd 40fb 34bd 68f7 d13c e839 2ebd
000000b0: 1206 333d 20ad 533c 9577 b33c 1dd8 c0bc
000000c0: 84e1 b73c fbd6 083d ea72 02bd 631b 473d
000000d0: 32eb db3c 8436 d8bc 483b 51bc ed9c fc3c
000000e0: c15c b7bc 99ab 01bd 6ed8 4c3c 6a0e c03b
000000f0: 934d 71bd bbea e9bc e497 5dbd dcc0 063d
00000100: fc89 c5bb ee80 8e3c 118e 3c3d c311 083d
00000110: 19ca 40bc 438a b0bb 68b3 983c bab1 2abd
00000120: a233 edbc d64b ae3c 9842 7f3c 46b9 16bd
00000130: 2b9c 00bd 0911 af3c 9211 393d 3ad0 d0bb
00000140: 1a6c eb3c 6dba fbbc e1cd 3d3c 96e3 41bd
00000150: 9986 0fbc 0a26 3abd 8594 5f3d ab92 2e3d
00000160: 5cc1 243c f6c1 e2bc a0cf 76bc 2c0f ef3c
00000170: d0ae 3fbc 5b22 20bc d05d 273d d28a c4bc
00000180: 1479 62bc ea48 db3c 2ba1 2a3d d712 12bd
0.005718651 -0.027141973 -0.011275108 0.020444375 0.014255009 -0.015465792 -0.024682956 -0.036428478
0.045219995 0.04408204 0.02170405 0.0014068441 0.0450687 0.019280342 0.04086079 0.04287653
0.020202229 -0.0056267586 -0.0034617796 0.025272757 0.041518304 -0.015305574 0.030100582 -0.030224858
-0.019805275 0.037133615 0.017230356 0.05205804 0.02188125 -0.03651938 0.012845377 0.03538812
-0.000367932 0.017122503 0.039161485 0.018347764 0.034521822 0.015071234 0.008197388 -0.04296189
-0.04641663 -0.044184923 0.025630668 -0.042535692 0.04370696 0.012919694 0.021907607 -0.02354055
0.022446401 0.033408146 -0.03184787 0.048610102 0.026845548 -0.026393183 -0.012770481 0.030836547
-0.022383096 -0.03165779 0.012502773 0.0058610933 -0.05891187 -0.028554311 -0.054099932 0.03289877
-0.006028412 0.017395463 0.046033923 0.033220064 -0.011766934 -0.005387576 0.018640235 -0.0416734
-0.028955285 0.021276396 0.015579842 -0.036797784 -0.031398933 0.021370428 0.045182772 -0.006372479
0.02873807 -0.030728543 0.01158473 -0.047336183 -0.008760118 -0.045446433 0.054585 0.042620342
0.010055866 -0.027680378 -0.01506415 0.02918204 -0.011699393 -0.009773816 0.04086095 -0.023991976
-0.013822813 0.026768167 0.041657608 -0.0356625

9.weight f4 [100]
00000000: c103 f13f 1aff f03f df1a 0440 c98a d93f
00000010: 3844 db3f 87fa de3f a773 da3f d9f7 db3f
00000020: ddba fc3f 1a1b db3f 2cbe e93f 4526 f93f
00000030: def0 ea3f 7580 cb3f e1c9 fb3f d22a e93f
00000040: f9f6 ec3f 4bca 0040 c93b e43f 9d4c ea3f
00000050: c517 0740 5556 fe3f a303 d83f f197 fb3f
00000060: c0d5 e63f b155 0440 bb95 f43f 6bbe f93f
00000070: e620 fc3f bbf6 ec3f 6ba3 f83f affd 1040
00000080: b148 0240 c5f1 0040 7ba9 df3f 792c f33f
00000090: 2e77 ca3f a195 d53f 5470 0540 d7fe 0240
000000a0: 86da e73f 22f3 f73f 3972 e73f 1d95 eb3f
000000b0: 3476 e03f 39b7 f63f a465 0740 a0f9 d23f
000000c0: 1337 c83f 9df7 0740 92c7 da3f f66b ee3f
000000d0: 3698 0040 5f61 da3f e715 e33f c0e0 ff3f
000000e0: 8ede cf3f 8f04 0040 2f32 d83f f16e df3f
000000f0: 0cd7 ea3f e9c9 ed3f 4cdb db3f 1d40 0340
00000100: 55a3 fb3f c771 ee3f 9569 e73f 6222 fe3f
00000110: f02c ee3f cf14 e23f 45f1 d33f 7d92 f63f
00000120: 582a de3f d027 f53f c19c d33f dff6 c03f
00000130: 313f ff3f 6cbc d23f 9da5 fa3f e19e cf3f
00000140: 36f0 ed3f 67df e43f 7620 f73f bc46 fd3f
00000150: a800 ec3f 97ab ee3f 64d9 e73f ddc2 d03f
00000160: f2ef e33f c2ee bd3f e1db 0140 9df2 fd3f
00000170: f807 0b40 e69b e13f 2cfe de3f 40b8 0b40
00000180: 8e29 fc3f 64a0 de3f 06ae ca3f e2dc ec3f
1.8829271 1.8827851 2.06414 1.6995479 1.7130194 1.7420205 1.7066544 1.7185012
1.9744526 1.7117646 1.8261161 1.9464804 1.8354757 1.5898577 1.9670984 1.8216193
1.851287 2.012347 1.7830745 1.830463 2.1108258 1.9870096 1.687611 1.9655744
1.8033981 2.0677302 1.9108194 1.9511236 1.969754 1.8512796 1.9424871 2.2654836
2.0356867 2.0147564 1.7473596 1.8997947 1.5817621 1.6686288 2.084981 2.0468042
1.8113563 1.9371073 1.8081733 1.8404881 1.7536073 1.9274665 2.1155787 1.648243
1.5641807 2.124488 1.7092154 1.8626697 2.0092902 1.7060965 1.7741059 1.9990463
1.6239793 2.0002782 1.6890315 1.7455732 1.8346877 1.8577243 1.7176299 2.0507882
1.965922 1.8628472 1.8079096 1.9854243 1.8607464 1.76626 1.6558005 1.9263455
1.7356672 1.9152775 1.6532212 1.5075339 1.994116 1.6463752 1.9581791 1.6220361
1.8588932 1.7880677 1.9306781 1.9787211 1.84377 1.8646115 1.8113217 1.6309468
1.78076 1.4838488 2.0290453 1.9839665 2.1723614 1.7625701 1.7421317 2.1831207
1.9700181 1.7392697 1.5834358 1.8504908

9.bias f4 [100]
00000000: 2124 03be b9d4 5dbe 7b44 6f3d 09e4 81bd
00000010: 69e4 543c 510e c43c 536c c7bc e11e 623c
00000020: 775c afbe 4dfe 243e f492 ab3e 6b32 a43c
00000030: cd3a febc a6bc e63c bc87 60bc b919 4dbe
00000040: 377c d4bd 4147 b4be 642c 04bf 7815 2cbd
00000050: f71e b03c 629c bcbd 6f82 503e a819 6abe
00000060: 1ee5 73be e2a3 5abe 2c29 9ebd 8456 de3c
00000070: 01c1 d1be 1a17 00bd 81d2 d9be 2c38 7fbd
00000080: 3276 bfbd 60b7 153e f3be bf3d 8a87 bf3d
00000090: b85a f43d 7ee7 a1be 4ff3 a93d 26fc 5fbc
000000a0: 0a2e a93d 3fc1 d7be d729 a1be 5070 d43e
000000b0: 4c03 063e 6293 8bbd ea0c 6cbe d271 b33d
000000c0: 5b23 2c3e 21a3 033e c6b2 7e3d 819c 26be
000000d0: c4b8 9f3d 9856 0c3e 8a8d a7bc d8fb 3dbd
000000e0: 2e57 243e 1deb 22be b374 7b3e 7302 d03c
000000f0: 3fbb 493d f079 a53d 4696 343b cdc6 31be
00000100: e613 8abe e750 8a3e 7145 af3e 8cc1 10be
00000110: 295f a93e 6a74 77bd 447f a23d a152 4fbc
00000120: 4ac6 a03d 0ca6 873e 33f3 233e 3ce0 09be
00000130: 758f 863d 63ad e8bd 611c 8dbe 12e4 d1bc
00000140: 160b d03b c75a 5c3c 361d 263d ce56 c43d
00000150: 8f1e 523e 3658 843e 7b51 4abe 02b2 33bc
00000160: c957 d23d 2b39 0bbe 3305 98be 0ffb aebd
00000170: c787 053e 9566 70be 0536 63bc 17a8 5f3e
00000180: 3a4b ab3d 0dc4 7fbc 3e85 74be 7157 453d
-0.12806751 -0.21663179 0.058414917 -0.063423224 0.01299391 0.023932608 -0.024343645 0.013801307
-0.34250233 0.16112633 0.33510554 0.020043572 -0.031033898 0.028166126 -0.013704237 -0.20029344
-0.103752546 -0.35210612 -0.51630235 -0.04201266 0.02149914 -0.09209515 0.20362256 -0.2286135
-0.2381787 -0.21351579 -0.07722697 0.027140863 -0.40967563 -0.03127203 -0.42543414 -0.06230943
-0.09348716 0.14620733 0.093625925 0.09352024 0.11931366 -0.31621927 0.082983606 -0.013670957
0.082607344 -0.42139623 -0.31477234 0.41491938 0.13087195 -0.068152204 -0.23051801 0.08761944
0.16810362 0.12855197 0.06218221 -0.16270639 0.07798913 0.13704908 -0.020453233 -0.046382755
0.16048881 -0.15910001 0.24556236 0.025391793 0.049250837 0.08079898 0.002755539 -0.17360993
-0.26968306 0.2701485 0.34232667 -0.14136332 0.33080414 -0.060413755 0.0793443 -0.012653978
0.07850321 0.2649387 0.16010742 -0.13464445 0.06570331 -0.11361196 -0.27560714 -0.025621448
0.006348978 0.013449377 0.0405552 0.09586869 0.2051947 0.2584855 -0.19757645 -0.010967733
0.1027065 -0.13596027 -0.29691467 -0.085439794 0.13040076 -0.23476632 -0.01386786 0.21841465
0.08363958 -0.015610707 -0.23878953 0.048179094

9.running_mean f4 [100]
00000000: 339c 893e e24f d83f b9ec 19bf 8467 2cbf
00000010: 2e9e 77be 382e b73f 0060 ad3e b087 ae3f
00000020: 92fc f33e 8589 45be 7f2f cabe c91d 433e
00000030: f4b9 a63e 247a a8bf c567 53bf 20f3 9fbd
00000040: 6c6f 923e f5b9 d03f b620 913f 1df0 c13f
00000050: 8ba3 68be e391 4a3d ae95 06bf 3770 aa3e
00000060: a8d4 4bbe ca52 213f b9a9 da3e e39d ef3f
00000070: b093 b93e b30a 163e 488d 05bf e1a2 2f3f
00000080: 482f 213f 3190 f83e 2eb7 0540 8a4b 99bf
00000090: aeeb ca3f d980 69bd f790 a4be 52d3 e33f
000000a0: 1230 c7bc b24f 783f a6f4 063f 1c13 69bf
000000b0: 1940 20bf a44c 2fbf b6e1 323f 8398 dbbe
000000c0: 78f0 f63f c541 313f 4111 9fbe 4b1d 9fbe
000000d0: 1008 8bbf 8db9 893d 0fcd c9bf 4905 5bbf
000000e0: 7a63 b63f 925c bc3f 1e69 92bf 2711 7d3f
000000f0: 5ab4 44bd 5191 433e 2d6b 2f3d fb9c 3dbd
00000100: a518 7c3f 8f24 88bf 2f08 d4bf 9aca 0abe
00000110: 3c4a 16c0 fcbc 8f3f eed6 a0bf 382e c8bb
00000120: e698 6040 3c40 8cbf fd7e 313f 8eaa 90be
00000130: 9a98 f2bf dc95 0fbf 2298 9d3f 8c31 9cbf
00000140: e0db c5be a5e9 9fbc c53d 02c0 98d5 043f
00000150: ad77 55bf 3229 07bf 0772 883f 5da6 d93e
00000160: 88c6 633e babc e13f 1ab7 aa3f e894 e3bf
00000170: bdd6 85bf 310d f4bd 86f3 6e3f c844 2ebf
00000180: f2fc 983f 3f52 8f3d e89d 6e3f 1e0e 343f
0.26876983 1.6899378 -0.60126835 -0.6734545 -0.24181435 1.431098 0.33862305 1.3635159
0.47653633 -0.19290741 -0.39489362 0.19054331 0.32563746 -1.3162274 -0.82580215 -0.07810044
0.28600633 1.630675 1.1338108 1.5151402 -0.22718637 0.049455535 -0.52572143 0.33288738
-0.1990534 0.6301695 0.42707613 1.8720058 0.3624549 0.14652519 -0.52168703 0.6860791
0.6296277 0.4854751 2.0893054 -1.1976178 1.5853174 -0.057007644 -0.3214185 1.7798865
-0.024314914 0.96996605 0.52717054 -0.91044784 -0.62597805 -0.6847632 0.6987566 -0.42889795
1.9292135 0.6924098 -0.3106785 -0.31077036 -1.0861835 0.06724844 -1.5765704 -0.8555494
1.4249108 1.471575 -1.1438329 0.988543 -0.04802356 0.19098403 0.04282682 -0.046292286
0.98475105 -1.0636157 -1.6564997 -0.13553849 -2.348281 1.1229548 -1.2565591 -0.0061090253
3.5093322 -1.0957103 0.69334394 -0.28255123 -1.895282 -0.5608804 1.2312052 -1.220262
-0.38644314 -0.01952059 -2.03502 0.5188842 -0.83385736 -0.52797234 1.0659798 0.42509738
0.22243702 1.763572 1.3337128 -1.7779818 -1.0456158 -0.119165786 0.9334034 -0.680737
1.1952193 0.06998109 0.93209696 0.7033404

9.running_var f4 [100]
00000000: a9e4 be40 e21b 8540 8821 9440 7376 2a40
00000010: 15b9 6140 2353 a440 5537 4e40 2c46 8240
00000020: 1a21 9740 3d17 7340 bb1c 8140 0cae 6140
00000030: 7861 4a40 e4a9 3b40 40c4 8f40 7c56 a140
00000040: e909 8a40 6743 ae40 a1d1 8440 3a7c 9340
00000050: f467 b340 406e a940 3ff0 9240 e2a1 6f40
00000060: 5f1e 9d40 9031 c840 d8c7 6440 dc4f 9140
00000070: f87c 7840 0c41 7440 6899 e340 2d9b cc40
00000080: 1f1b 5a40 af42 8b40 6c97 c140 1741 df40
00000090: 6c18 4a40 bf1a 3f40 8c9c d840 9b08 ce40
000000a0: 4573 8440 7205 9640 6641 9b40 556f 6c40
000000b0: 5c97 4e40 93a2 7440 30fa 9140 b59b 3740
000000c0: f5b7 3a40 8e61 de40 7364 ef40 2bc0 9b40
000000d0: c306 aa40 affa 9240 c5fa 9d40 2b7a 8040
000000e0: 8a07 8040 8051 a740 3824 b840 e6dc 6140
000000f0: 2842 7240 690d 9340 effe 6d40 b810 a740
00000100: 01aa a340 3018 8f40 4e9a d340 25cb a040
00000110: 98f1 5040 8e05 8f40 b409 2440 a94a a040
00000120: 1380 a540 8b27 5540 8266 7040 2573 4240
00000130: bd7c 8940 f996 8a40 85a0 a640 7baa 4f40
00000140: 7160 8b40 3405 ca40 63ba e740 b136 a640
00000150: 3abc b040 26ee 8040 1464 8240 65ac 6240
00000160: b4e9 c240 09f0 4640 ebb3 8840 a01b ac40
00000170: 8588 da40 652b a340 c02b ab40 9a95 7f40
00000180: 7497 9840 9bee 4440 dbf3 1340 101b 6f40
5.9654126 4.1596537 4.629093 2.6634796 3.5269215 5.1351485 3.2221272 4.071066
4.7227907 3.7982934 4.034757 3.526248 3.162199 2.9322443 4.4927063 5.041807
4.3137097 5.445728 4.1505895 4.6089144 5.6064396 5.2947083 4.591827 3.7442555
4.9099574 6.25605 3.5746975 4.5409985 3.8826275 3.8164701 7.1124763 6.3939424
3.4079053 4.35189 6.049734 6.9766955 3.1577406 2.9860075 6.7691097 6.4385505
4.139071 4.6881647 4.851733 3.6942952 3.2279882 3.8224227 4.5617905 2.8688786
2.9174778 6.9494085 7.481012 4.867208 5.3133254 4.593101 4.9368615 4.014913
4.0009203 5.2286987 5.754421 3.5291076 3.7852879 4.595387 3.718685 5.220791
5.1145024 4.4717026 6.612586 5.024798 3.2647457 4.469428 2.5630922 5.009114
5.171884 3.3305385 3.7562566 3.0382779 4.296477 4.3309293 5.2070947 3.2447803
4.3555226 6.313135 7.2415023 5.194176 5.522977 4.029071 4.0747166 3.5417721
6.091028 3.1084006 4.2719626 5.378372 6.829165 5.099047 5.3490906 3.993506
4.768488 3.0770633 2.3117588 3.7360268

12.weight f4 [50, 100]
00000000: df34 8d3e 4a92 2fbe b2d8 803e f4ba 43be
00000010: cbd9 0cbd 5721 6e3e a144 1ebe 3341 eabd
00000020: 7e10 f9bd a841 6d3e d4b9 dd3e fe8e bc3e
00000030: 82eb c5be bd47 5bbe d822 50be 7e41 473b
00000040: f96f 90be 3af9 77bd ca9b f7bd 62e0 69be
00000050: fc54 1c3d 4c72 343c e3f8 a6bd d6e5 64be
00000060: 9a3b 4d3e 32f0 113d 8a46 82be 35b0 9abe
00000070: 0779 153f 41b0 463e 963b 24be 8225 1fbe
00000080: d5d6 0dbe d43c 3e3e 73a6 283e c4c7 0fbe
00000090: b6f3 5a3e e54f 2c3e 8fbd ef3e fff6 883d
000000a0: 120a 913e 2965 4e3b 1d3b 873e 5a74 843e
000000b0: b578 9e3c 1248 80be 1416 1abe c0b4 c43e
000000c0: db28 72be 2976 1b3e a060 333e 3624 86be
000000d0: d6c5 b93e 2af6 1a3e ed69 1dbe a2a9 4ebe
000000e0: 119a 153e a6f1 51bc d853 413e 4fca bbbd
000000f0: 74f6 26bc a695 1c3d d2f4 05be 7909 aebe
00000100: d0f1 f9bd 5954 8c3d bd23 933e d7c0 a3be
00000110: c36a 113e d41e c63e 1ed3 9dbd 7954 acbc
00000120: a02f a43d e035 0a3e d5a9 0abe bb9d c5bd
00000130: e97e 833e 857f 173e 7360 48be 4f29 093e
00000140: 4c33 623e 6825 e9bd 158e 813d 375b cdbe
00000150: 746c 8bbe 23b8 323d 25e9 22be 74a5 253e
00000160: bbf6 073e f326 0a3e a82a 51bd f03f 6fba
00000170: 4712 3a3e 1c24 bb3c 3a25 703e 970c 04be
00000180: 984e 433e 879e cb3d 745c 7bbe bab3 4dbe
00000190: 5d1a 42be dd71 d8bd 882e 533e 44f5 43be
000001a0: 7d2c abbd db59 4d3d d0ad 6c3e bd29 d6bd
000001b0: aa4b ac3d 6be8 293e 2abf c4bd 0978 e1bd
000001c0: 0c02 35bc 172e 0cbe d348 1fbe 1a81 d4bd
000001d0: 05a8 053d db6d 19be 6625 b93b 97d5 e0be
000001e0: a8ed 823e 8e08 503e 7b19 3d3e 8c59 f53e
000001f0: e773 fa3c be56 873e 75c1 53be b9a5 9b3d
00000200: 8cba 883c 45c4 933e c036 80be 2f2d dabe
00000210: 2cc0 55be 2c59 b13e 6b80 003d 0e45 4d3e
00000220: 225e f23d c60a 953d 6c87 ecbd c218 aabc
00000230: 6154 693d 6711 293e 2d31 56be 1874 d7bd
00000240: b803 bfbe 20c9 44be 02b8 673e e263 8d3e
00000250: ad50 9d3d ddba 423e 6534 1e3e 87ff 563d
00000260: d321 073f 8749 ccbd 012e 7cbe 4f34 adbd
00000270: c1c1 ba3e 57c4 c7bc 372c e2bd f0c7 13be
00000280: 3750 5dbd 2ea6 5cbe cc7c a9be 7123 8c3e
00000290: 78eb fd3e 05ba 043e 64bd 74be 020f 023d
000002a0: f451 3fbe 7401 943e bc3f 38be 5e73 afbd
000002b0: fff6 433d 7afe dabe b752 5f3d 2141 843e
000002c0: bdac fe3d 424a 5b3d 532e b73e 5190 123d
000002d0: 5e9e 42bd 6d3c ea3d b7a8 f5bd 584e 8cbe
000002e0: dca5 80bc 4aad 6dbd 31c4 333d 6799 d03d
000002f0: 6feb 043d 92a1 8d3e 309b 013f ede9 67be
00000300: f8cf f23c bd17 a63e 83a2 1f3e 29c2 ba3d
00000310: 31e1 923e ac08 4c3e 021e 6c3e d3bb 29be
00000320: 5338 66be cafd 57be 0ad7 b3bd 4c4b 6c3d
00000330: 4a13 aebd ea32 abbd bdc2 8a3d b7d4 e7bd
00000340: 033f 9fbd 6539 6bbd 9701 563e 5eab d43e
00000350: c341 9e3e 6864 10be b049 81be fe26 6e3d
00000360: 5559 b43e eb2b 053e 1374 093e 6f18 923e
00000370: e4a4 1abe 9663 04be 73e6 763e 360e 513e
00000380: 0730 42be 709f 4b3b eec7 6bbe 5401 b4bd
00000390: 0dfa 4bbe d772 51bd 4be8 083e 39bc 9e3d
000003a0: 91ce e13d c677 f6bd 530e da3e a973 8f3e
000003b0: a66d 5d3e 9969 733d 2997 babe 859c bfbe
000003c0: ad7a 963d 4349 143e 3c83 723c 88cb 813c
000003d0: dc7c 78be fc36 693e ed6e f1bd 6a93 ccbe
000003e0: 3f89 eb3d adb9 4f3e a480 3b3d ebe6 b63e
000003f0: 4694 3b3d 1480 7dbe 0ec7 9dbe beb6 1d3e
0.275794 -0.17145649 0.25165325 -0.19114286 -0.03438739 0.23254906 -0.15455867 -0.11438217
-0.12161349 0.23169577 0.43305838 0.36827844 -0.3865624 -0.21414085 -0.20325792 0.0030404027
-0.28210428 -0.060540415 -0.12090261 -0.22839502 0.038166985 0.011013579 -0.0815294 -0.223533
0.20042267 0.03562946 -0.25444442 -0.3021256 0.583878 0.19403173 -0.16038355 -0.15541652
-0.13851483 0.18577892 0.16469745 -0.14041048 0.21382031 0.16827352 0.4682431 0.06687736
0.28327996 0.0031493402 0.26412287 0.2587002 0.019344667 -0.25054985 -0.15047485 0.3841915
-0.23648398 0.15181793 0.17517328 -0.26199502 0.3628375 0.15132967 -0.15372439 -0.20181897
0.14609553 -0.012813961 0.1887964 -0.09169447 -0.010190595 0.038228653 -0.13081673 -0.33991602
-0.12204325 0.068520255 0.28738204 -0.31983063 0.14200883 0.38695395 -0.07706283 -0.021036373
0.08016896 0.13497114 -0.13541348 -0.09649225 0.25682762 0.14794739 -0.19568042 0.13394664
0.2208988 -0.11384088 0.06325928 -0.40108654 -0.2723118 0.043632638 -0.1590925 0.16176397
0.13277714 0.1349142 -0.05106607 -0.0009126654 0.18171035 0.022844367 0.23451701 -0.12895428
0.1907295 0.09942346 -0.24546987 -0.20088091 -0.1895537 -0.10568593 0.20623219 -0.1913653
-0.08358095 0.05013452 0.23113179 -0.1045718 0.08412869 0.16592567 -0.09606774 -0.11009223
-0.011047851 -0.13689457 -0.15555124 -0.10376187 0.03263094 -0.14983313 0.00565021 -0.43912956
0.25571942 0.20315763 0.18466751 0.4791988 0.030572845 0.26433367 -0.20679267 0.075999685
0.016690515 0.2886068 -0.2504177 -0.42612597 -0.20874089 0.34638345 0.03137247 0.20045874
0.11834361 0.072774455 -0.11549267 -0.020763759 0.056965236 0.16510545 -0.20917197 -0.1052019
-0.37307525 -0.19217348 0.22628787 0.27615267 0.07681403 0.19016595 0.15449674 0.052489784
0.52785987 -0.09974962 -0.24626924 -0.08457243 0.36475947 -0.024385614 -0.110435896 -0.14431739
-0.054031577 -0.21547768 -0.33103025 0.2737079 0.4959371 0.12961586 -0.23900372 0.031752594
-0.18683606 0.2890736 -0.17993063 -0.085669264 0.047842976 -0.42772275 0.054522242 0.2583094
0.12435291 0.053537615 0.3577753 0.035782162 -0.047514312 0.114373066 -0.119950704 -0.27403522
-0.015704088 -0.05802659 0.043888275 0.10185509 0.03245109 0.2766233 0.5062742 -0.2264783
0.029640183 0.32439986 0.15589337 0.09119064 0.28687432 0.19925183 0.23058322 -0.16575556
-0.22482423 -0.21092907 -0.0878125 0.057688996 -0.08499773 -0.083593205 0.06775425 -0.11319869
-0.077756904 -0.057427783 0.20899044 0.41536993 0.30909547 -0.14100802 -0.25251532 0.058142655
0.35224405 0.13005035 0.13423185 0.28534266 -0.15101963 -0.12928614 0.24111347 0.20415577
-0.18963633 0.0031070374 -0.23025486 -0.08789316 -0.19919606 -0.05113491 0.13369863 0.077507444
0.110257275 -0.12034564 0.42589054 0.2801793 0.21623859 0.059426878 -0.3644345 -0.37424102
0.07347617 0.14481072 0.0148017965 0.015844122 -0.2426638 0.22774881 -0.117887355 -0.39956218
0.11500787 0.20285673 0.045776978 0.3572305 0.0457957 -0.24755889 -0.3081593 0.15401742

12.bias f4 [50]
00000000: b68f 7b3e a8ac 413d 8364 87be 46d5 4f3d
00000010: d35d 2a3e 175a 4fbe 8a62 7fbd cd15 3cb9
00000020: 62e4 663e 8617 26be 4348 f5bd ac14 13be
00000030: c1ec 023e d9ba fa3d 2a96 0cbd ca1e 843d
00000040: 6bb5 c33d 82a7 91bd e622 2d3e 0519 003e
00000050: cfd8 21bd 3ca8 443d fe7f 8fbd 46ec 04be
00000060: 6381 3bbe c80a a13d 80de 143e d443 84be
00000070: 83f5 473e 2e70 5d3e a287 9c3d 618a 34bd
00000080: ec2c 803e 2f22 913e 6c46 453e 6a04 8cbc
00000090: 8ac1 12be 5b88 21bc bdfa b0be 5347 24be
000000a0: d0eb c23d 97c6 8a3e 5181 cb3c 4131 083e
000000b0: 6f98 c6bd bcba a5bc 6977 e13d 6309 c9bd
000000c0: 0fd5 39bc 7846 20be
0.2456654 0.0472838 -0.26443872 0.050740503 0.16637354 -0.2024921 -0.062349834 -0.00017937199
0.22548059 -0.16219911 -0.119766735 -0.14363354 0.12785627 0.122426696 -0.034322895 0.06451185
0.09556087 -0.07112028 0.16907844 0.12509544 -0.039513405 0.048012003 -0.070068344 -0.12980756
-0.18311076 0.078633845 0.14538002 -0.25833 0.19527249 0.21624824 0.076430574 -0.04407728
0.25034273 0.28346393 0.19265145 -0.017091949 -0.14331642 -0.00985917 -0.34566298 -0.16042833
0.09517634 0.27104637 0.024841936 0.13300039 -0.09697043 -0.020230643 0.11009104 -0.098162435
-0.011342301 -0.15651882

13.weight f4 [26, 50]
00000000: 6a6c 9f3e bbe9 2abe 0257 03be 49d2 903e
00000010: 9a5c 9e3e c528 acbd f894 9dbd b645 a3be
00000020: 1ce7 7a3e 2298 f4ba dc83 3e3e 955b 24be
00000030: 1b86 dd3d cec4 a13e ef51 99be a056 f33d
00000040: ef3a d1bd 356a ecbd cda8 203e 15bf 8c3c
00000050: fda3 353e 6f89 a9be 09fb bbbe 8002 04be
00000060: f4b9 59be 2ca4 623e 8c8b 85bb 032e 753e
00000070: 042f 1d3d dd68 0ebd 6211 73be dab0 76be
00000080: 8084 263e a6f2 2b3e 581d 23be 1436 e93d
00000090: a692 55be f7c9 56be 1e5a 863e 6f1e 93be
000000a0: f146 92bd 203b b6be 1d16 89bc 3cd9 3ebe
000000b0: 8f7e 9a3d a145 f8bd 3249 2fbe c4a0 bf3b
000000c0: f9a3 083e ac67 2cbe 4fcf 9ebe f589 8dbe
000000d0: 1d7c 0ebe 2882 ccbb e0d2 1cbe 3a68 713d
000000e0: 7982 863e df47 853e 7be3 98be 2d21 7bbe
000000f0: e65c 7a3e 887b 513e 4eef 9ebe 95c0 b6bd
00000100: 0c09 83be 1e14 a1bd 26cc 133d 77b1 9dbe
00000110: 218b 473e 1e5a 123e 72b8 6d3e ae2c ad3e
00000120: ac4e 8dbe 62a8 a6be 0836 a13e 390e 9a3e
00000130: 82a1 3e3d dd54 2bbb 9270 e33c d73d 70be
00000140: 0aa4 9b3e 202e b7be 14fd 29bc 3c83 673e
00000150: bb9f 103a b00e 9c3e 61cc 4c3e 49a6 8c3e
00000160: 24d5 31be 4b68 92be 55bf eb3e c49b bb3e
00000170: feb1 8a3e fd0a 853d f2b7 20bd 6603 8dbe
00000180: eb5b 92be 70f9 49bd 92de 46be f00a 763a
00000190: c249 18be 40f7 a03e 06ba 753e 0ebd 4fbe
000001a0: 9f75 bcbc bd32 9b3d 8eb7 303e 974e 0cbd
000001b0: 70d7 3e3e 28bf 993e 28d4 a5be 018b 51be
000001c0: c70a adbe c959 813e adc1 02bd 0e33 893e
000001d0: cd00 6bbe 9ed4 383e 78c7 8e3e c875 1abd
000001e0: 983c 9fbe 721a c0bd 9047 28be 7e01 fe3d
000001f0: d8fa f5bd 0a0b 8bbd 1dbb 63be 7b8e fabd
00000200: 0ab6 023e caad 43be 8092 8e3c 9412 963e
00000210: 24a8 adbe 403a b9be d09a 15be 6328 14be
00000220: a43f 963e b8bc 29be 6e2d 893e a78b 35be
00000230: 0b4f 4d3d 982d 803e 073a a63e 9635 1fbd
00000240: 9f8a 0bbe fdc9 14be 991f 16be a5ea a23d
00000250: 56d9 49be 2490 fa3c 829c cc3e 0ef5 5e3d
00000260: 2f72 cfbe 4daa 57be 77a5 35bd dbf6 1fbe
00000270: d4f6 563e 2b68 c23e f3b7 1c3e 7153 87be
00000280: 8618 67be e548 5f3d 21f1 f83d 35a9 b7bd
00000290: 594a 07be 5c4d 98be 5e3f 87be 8e73 aa3d
000002a0: c1ce e43e 1bbd 203e 1221 593e 13d6 2ebd
000002b0: f200 143e 66e6 843e 5065 e63b 7ebe b43e
000002c0: 72eb cf3d 292d c43d 3c32 ae3e 4c83 ac3e
000002d0: c53b 07be 1018 5f3d a5ab 1b3e 9073 0a3e
000002e0: ef93 babd 0804 90be 85b0 5b3e 5841 2d3c
000002f0: 2902 27be b6c4 2d3e c681 8d3e c8bd a73e
00000300: f40e bcbe 7a50 423e d83e 383e 2306 a8be
00000310: d987 03be 17dc 643e a1fd acbd fc33 1abe
00000320: 6f52 bcbe fd02 a83d 5ef4 283e fbef fb3d
00000330: 44e8 65bd bc33 f63d d8a4 54be 9a6a cabd
00000340: 8dca 343e 7c66 ba3e 7cea ab3e db07 9f3c
00000350: 0ccd 84bd da82 d3bd 1383 a1be db79 f53d
00000360: a62b 8bbe 9d84 913e 6bbe d3bd 8d0d b7be
00000370: 7fcd 76bd 4e3b c23e 2e7a e6bd ab4d 90be
00000380: 35b6 a0be 6bc9 ea3d 386a d03d 7dc6 193e
00000390: bac0 0abe 4d03 3bbd c6d8 59be a02e ce3d
000003a0: b577 cdbd fc00 963e d133 69bd a998 643d
000003b0: eb5a 523c eca8 c7bc 7b78 953e beed 9c3e
000003c0: 798b 9ebe 6f46 8e3e 9550 babe 7bd5 8c3d
000003d0: 9665 8abe c32f 95bd 6c11 94be f423 ac3d
000003e0: a97c b0be d7fa 793e 66eb 3d3e 8541 8ebe
000003f0: ea15 3d3e e579 243d 36ca a7be 4b12 ab3e
0.311374 -0.16690724 -0.1282616 0.28285435 0.30930024 -0.08406214 -0.07694429 -0.31889123
0.24502224 -0.0018661062 0.18604988 -0.16050561 0.10816594 0.31595463 -0.29945323 0.11881757
-0.10216319 -0.11543695 0.15689392 0.017180959 0.17738338 -0.33112666 -0.36714962 -0.12891579
-0.21262342 0.22132939 -0.004075473 0.23943333 0.038374916 -0.034767974 -0.237371 -0.24090901
0.16261482 0.16791782 -0.15929163 0.11387268 -0.20856723 -0.20975481 0.2624063 -0.28734156
-0.07142437 -0.35591984 -0.016734177 -0.18637556 0.075436704 -0.12122656 -0.17117766 0.005848022
0.133438 -0.16836423 -0.3101754 -0.27644315 -0.13914533 -0.006241102 -0.15314817 0.05893729
0.26271418 0.26031396 -0.29861054 -0.24524374 0.244495 0.2045728 -0.3104195 -0.08923451
-0.2559284 -0.07865165 0.036083363 -0.30799457 0.19486667 0.1429219 0.23214892 0.3382315
-0.27599084 -0.3255034 0.31486535 0.30088976 0.046540745 -0.0026143112 0.027763639 -0.2346109
0.3039859 -0.35777378 -0.01037528 0.22608656 0.0005516966 0.30479956 0.1999984 0.27470616
-0.17366463 -0.28595194 0.46044412 0.36642277 0.27088922 0.064962365 -0.039237924 -0.27541655
-0.28585753 -0.049310148 -0.19420841 0.0009385785 -0.14871886 0.31438637 0.23996744 -0.20286962
-0.023005305 0.07578037 0.1725752 -0.034254637 0.1863687 0.30028653 -0.32388425 -0.20463182
-0.33797285 0.25263813 -0.031922985 0.26796764 -0.22949524 0.18049857 0.27886558 -0.03770998
-0.31100917 -0.09380044 -0.16433549 0.12402628 -0.12010735 -0.06789215 -0.22239347 -0.12234207
0.12764755 -0.19109264 0.017403841 0.2931105 -0.33917344 -0.36177254 -0.14609838 -0.14468531
0.2934543 -0.16575897 0.26792473 -0.17729054 0.05012421 0.25034785 0.32466146 -0.038869463
-0.13627099 -0.14530177 -0.14660491 0.07954911 -0.19711813 0.03058631 0.39963156 0.05443292
-0.40516803 -0.21061058 -0.044347253 -0.15621512 0.20992595 0.379701 0.15304546 -0.26430848
-0.22567949 0.054512877 0.12155367 -0.089678206 -0.13211955 -0.2974652 -0.26415533 0.083228216
0.4468899 0.15697138 0.21204022 -0.042684626 0.14453486 0.2595703 0.0070311204 0.35301584
0.101523295 0.09578926 0.340227 0.33693922 -0.13206394 0.054466307 0.15202196 0.13520646
-0.09110247 -0.28128076 0.21454056 0.010574661 -0.16309418 0.1696957 0.27638072 0.3276198
-0.36730158 0.18976012 0.17992723 -0.32817182 -0.1284479 0.22349583 -0.084468134 -0.15058893
-0.36781642 0.08203695 0.16499469 0.12301632 -0.05612971 0.12021586 -0.20766008 -0.09883614
0.17655392 0.36406314 0.33577335 0.019412925 -0.06484422 -0.10327692 -0.31545314 0.11986133
-0.2718174 0.28421488 -0.10339054 -0.35752526 -0.06025457 0.3793587 -0.11253773 -0.28184256
-0.31389013 0.11464199 0.101765096 0.15017124 -0.13550082 -0.045657445 -0.21274099 0.10067487
-0.10032598 0.29297626 -0.05693418 0.05580965 0.012839059 -0.02437254 0.29193482 0.30650133
-0.30965784 0.27788112 -0.36389604 0.06876656 -0.2703063 -0.072845004 -0.28919542 0.08405295
-0.34470108 0.24412094 0.18546829 -0.27784362 0.18465391 0.04015531 -0.32771462 0.33412394

13.bias f4 [26]
00000000: c78a 613e 0a3d 883d c317 aebd 5ed6 033e
00000010: 4740 1c3c 5190 7cbe 670f 2d3e 2c44 203e
00000020: 6993 e7bb ab72 e13d d354 2fbd a836 813d
00000030: cedd efbe 7f20 733c 98f0 1cbe b4b5 1dbd
00000040: 382e ffba 2606 a53e 3983 8fbe a729 75bc
00000050: 7e66 863d c787 233d e634 96be a8fc 34be
00000060: 5a30 5c3e 3e4f babe
0.22025596 0.06652267 -0.08500626 0.12874743 0.009536809 -0.24664427 0.16900407 0.15651006
-0.007067133 0.11008199 -0.042805504 0.06309253 -0.4684891 0.014839291 -0.15326154 -0.038503364
-0.001946873 0.32231253 -0.28029802 -0.014963544 0.065625176 0.03992441 -0.29337233 -0.17674506
0.2150282 -0.36388582
