model_2.pth (torch, 261707 bytes, 22 tensors)

0.weight f4 [6, 1, 5, 5]
000000 a4 81 76 bd 52 de e0 3c 90 a3 58 be 75 97 80 bd
       -0.06018223 0.02744976 -0.21156144 -0.06278888
000010 7e e2 23 3e a0 d7 a1 3c a8 a9 ec bd b8 d4 04 bd
       0.16004369 0.019756138 -0.11555797 -0.032429427
000020 ed 98 2f be d4 1b f3 3d 74 e3 1f 3d fe d2 d7 bc
       -0.1714818 0.11870542 0.039035276 -0.026345726
000030 7c 44 92 be 64 e2 8e be fe 2b 96 bd c4 38 d5 3d
       -0.28567874 -0.27907097 -0.073326096 0.10411218
000040 ef af e8 3d 1b b9 01 3e d6 fd 3a be df c2 3e be
       0.11361682 0.12668268 -0.18260893 -0.18629025
000050 8c 12 91 3d a5 a4 3b 3e af 8a 91 3d 98 ad 5c 3e
       0.07083616 0.18324526 0.0710653 0.21550596
000060 aa c0 dc bd d0 f7 41 3e a9 7b 6a 3e 73 c3 43 bd
       -0.10778935 0.18942189 0.22898735 -0.047793817
000070 85 9b da bd d1 bd ae be 14 92 45 bc 6f cc 3a bb
       -0.10674194 -0.34129193 -0.0120587535 -0.00285032
000080 a2 fa a3 be 47 03 95 be 6e 86 53 be 10 69 7b be
       -0.32027155 -0.29104063 -0.2065675 -0.24551797
000090 53 c2 a1 be d8 2e 1f be 9b 15 38 be a5 7d ff 3c
       -0.3159357 -0.15545213 -0.17976992 0.031187842
0000a0 7d 40 f4 bd 6b 10 83 be 9b 49 01 be 0f b5 37 be
       -0.11926363 -0.25598463 -0.12625735 -0.17940162
0000b0 64 f6 40 bd a6 8c 71 bd d7 2f 80 3d a2 71 1c 3d
       -0.047109976 -0.058972023 0.06259125 0.038194306
0000c0 54 e4 44 bd 3a 46 bf 3d 3a a4 a6 3d d0 27 12 3e
       -0.048069313 0.093395665 0.081367925 0.14273
0000d0 c1 41 59 3d 61 8b f0 3c b5 6c ec 3d 25 9e fc bd
       0.053041223 0.029363336 0.11544172 -0.12334851
0000e0 59 91 f0 3c dd a8 f9 bd 17 cb 92 bd d2 b2 88 bd
       0.029366182 -0.12190411 -0.071676426 -0.06674732
0000f0 b9 ab 48 3c 39 58 1a bc c4 2e 15 be 5e c7 0d 3e
       0.012247973 -0.009420448 -0.14568621 0.13845584
000100 be 25 3e 3e 4f 52 00 be fb 53 f6 bd f9 3e d8 3c
       0.18569085 -0.12531398 -0.12027737 0.026397215
000110 ba 2d 87 3e ff 94 95 3e 0c 7f 89 be 64 fd 60 be
       0.26402074 0.29215237 -0.26854742 -0.21971661
000120 fc 95 8b 3d b8 75 9d 3e 0b 23 6a 3e 17 11 cf 3d
       0.068157166 0.30753875 0.2286493 0.101106815
000130 ae 3d e3 3c 1a 93 00 be 79 34 82 3b e6 7d 27 be
       0.027739372 -0.12556115 0.0039735404 -0.1635662
000140 b3 71 5c be 6f da 4f 3e 30 6f 6d 3e 6e d6 5c be
       -0.21527748 0.2029817 0.23186946 -0.21566173
000150 be 5b 64 bd cf 17 78 bd a6 cb 33 3d 07 a2 65 3d
       -0.055751555 -0.06056958 0.043895386 0.056062724
000160 8a 9b 6d 3d 6a 69 80 be 18 bc 45 bc 65 70 fa 3d
       0.05800966 -0.25080425 -0.012068771 0.12228469
000170 e0 21 76 3e 96 c7 fa 3c 5c 64 a0 be 8d ab 21 be
       0.2403636 0.030612748 -0.31326568 -0.15788098
000180 d5 a2 2f 3e 44 06 2d 3e 55 e7 28 be d4 2b 46 be
       0.17151959 0.16896921 -0.16494496 -0.19352657
000190 67 b9 85 3e d5 18 57 3e cb ae 9f bd f2 c4 01 be
       0.26118013 0.21005566 -0.07797011 -0.12672785
0001a0 32 cc b0 bd c9 66 98 3d f0 9a 6c be 20 02 bf be
       -0.08632697 0.0744148 -0.23105979 -0.3730631
0001b0 67 9b 02 be d4 4e 08 3e a9 c0 60 3c 14 14 96 3c
       -0.12754594 0.1331132 0.013717809 0.01832012
0001c0 be 9a 55 be 29 99 5d 3e 0d b4 26 3e b7 cd fa bd
       -0.2085981 0.21640457 0.16279621 -0.12246268
0001d0 80 65 9e bd ab 9a 95 3d 97 e7 df 3d 5b 9e 70 bc
       -0.07734203 0.07304891 0.10932844 -0.014686192
0001e0 42 cc 4d bb 34 79 15 bc 43 f7 93 bc 24 a4 24 3e
       -0.0031402265 -0.009123135 -0.01806224 0.1607824
0001f0 d0 c2 57 be 8c cf aa bd a1 fc 12 be c3 32 4f be
       -0.21070409 -0.08340368 -0.14354183 -0.20234208
000200 13 18 10 be bf ad 5d be 19 89 ce bc 5e b3 4a bd
       -0.14071684 -0.2164831 -0.025211858 -0.049487464
000210 37 94 3a be e8 45 20 bb df a9 f8 3d 34 20 61 3d
       -0.18220602 -0.002445573 0.12141775 0.054962352
000220 9e b8 c8 3d e0 d2 f6 3d 5f 23 09 3e fe 7d 26 3e
       0.09800838 0.1205194 0.13392399 0.16259
000230 f1 ff 37 3e 4c 21 48 3e 82 d9 8a 3e e1 fc f5 3c
       0.17968728 0.19543952 0.2711907 0.030027809
000240 21 e0 17 be e5 75 6b be 20 03 09 3d f9 2c c1 bd
       -0.14831592 -0.22994192 0.033450246 -0.09432406
000250 a3 53 0d be 22 21 d2 bd
       -0.13801436 -0.10260226

0.bias f4 [6]
000000 99 dc dd bd f8 1c 5c be 0f 21 88 bd 8a f8 12 3e
       -0.10833091 -0.21495426 -0.066469304 0.14352623
000010 f8 47 5a 3e a7 dc 0a bd
       0.21316516 -0.033901837

1.weight f4 [6]
000000 b7 b4 90 3f 65 bb 94 3f 24 53 3d 3f a9 3f 88 3f
       1.130515 1.1619688 0.7395499 1.0644428
000010 0e dd 85 3f 16 f7 62 3f
       1.0458086 0.88658273

1.bias f4 [6]
000000 9d 9f 31 be a0 58 95 bc 2b 08 81 be ac c5 53 3d
       -0.17346044 -0.018230736 -0.25201544 0.051702186
000010 5b fe 03 bd c3 2a 19 bd
       -0.032224994 -0.037394296

1.running_mean f4 [6]
000000 36 ed d6 bd 05 31 95 be ca bb d1 bc fe 90 b6 3d
       -0.10494463 -0.2913896 -0.02560224 0.08914374
000010 dc c4 5d 3e ae 8a ac bd
       0.21657127 -0.084248886

1.running_var f4 [6]
000000 c8 69 2c 3f 60 fd 87 40 a4 42 93 3f 7c d2 0f 3f
       0.6734891 4.2496796 1.1504712 0.5618055
000010 4d 6e b0 3e 13 b4 fa 3e
       0.34459153 0.4896551

4.weight f4 [16, 6, 5, 5]
000000 fb 91 e7 3d 4a 4a 02 be e7 df c8 bd 25 1b 6e bd
       0.113071404 -0.12723652 -0.09808331 -0.058131356
000010 12 77 61 bb 28 1d 32 3e 37 65 73 bc d5 49 4f be
       -0.0034403247 0.17393935 -0.0148556745 -0.20243008
000020 f7 33 0f bd dc 13 04 3e dc 50 e0 3d b0 f9 32 3e
       -0.034961667 0.12898201 0.10952923 0.1747806
000030 06 f9 2d bd 7a ed b7 bd 4e 02 1b 3e ce 62 b9 3d
       -0.042473815 -0.08980842 0.15137598 0.090520486
000040 3d 12 16 3e 6a e0 cf 3d ab 57 6a be ea 00 76 bc
       0.14655395 0.101502255 -0.22885005 -0.015014866
000050 a6 61 e8 3d 91 6c 11 be 8a 4d f3 3d a3 b3 f6 bd
       0.1134675 -0.14201571 0.11880024 -0.12045982
000060 0c 9c 5a 3c 86 6f b6 3d 89 91 14 3e 94 06 a9 bd
       0.013342869 0.0890799 0.14508642 -0.08253208
000070 74 7b ff bd 7a eb d5 bd f0 09 63 3d 1d c9 14 3d
       -0.12474719 -0.10445304 0.0554294 0.03632461
000080 de 72 39 be 0c 51 22 be 96 5d 37 bd 02 b0 d9 3d
       -0.18110225 -0.1585123 -0.044766985 0.10629274
000090 6e 89 ad bd 48 fa 56 be 2c 7f 69 be 65 1c 08 be
       -0.08473478 -0.20993912 -0.22802418 -0.13292082
0000a0 34 00 b9 3d 50 f2 71 3d 25 7e 16 be 25 02 b2 bd
       0.09033242 0.059068978 -0.14696558 -0.08691815
0000b0 00 cb 5c bd 73 b8 3a 3e 68 46 a0 3d 1d bc 9c bc
       -0.053904533 0.18234424 0.07825929 -0.019132668
0000c0 f3 fb 88 bd 8b e0 c5 3c 78 ca 95 bd db 6d 13 3e
       -0.066886805 0.024154922 -0.073140085 0.14397375
0000d0 f1 64 a2 3c 76 c5 03 3d 45 ac 9e bd 0b 1b 16 be
       0.019823523 0.032170735 -0.077477016 -0.14658754
0000e0 c1 51 a3 3c 9a 4d 50 bc 81 c1 bd 3c 40 09 e8 bd
       0.019936444 -0.012713814 0.023163559 -0.11329889
0000f0 c8 a9 7e be f3 83 17 be a9 58 f8 3d 86 e9 1f 3c
       -0.24869454 -0.14796428 0.121262856 0.009760266
000100 e1 b5 30 bc 85 44 85 bd bc f5 5d bd a9 d8 9b bd
       -0.010785551 -0.0650721 -0.05418943 -0.07609684
000110 60 ac 6d bd d1 83 0b 3e 91 05 87 bd fb 51 fd 3c
       -0.058025718 0.13624503 -0.065928586 0.03092288
000120 61 b8 ba bd fa 86 3a bd b0 a6 34 3b 84 cf 27 3e
       -0.09117199 -0.04553888 0.0027565174 0.16387755
000130 1e 96 01 3e 06 00 22 3d 5d 78 ec 3b 88 f0 9c bd
       0.12654921 0.039550804 0.007216497 -0.07663065
000140 ef d8 38 3e cc 55 ed 3d cf f9 c7 bd 8e 9d 02 bd
       0.18051504 0.1158863 -0.09764444 -0.031888537
000150 d3 82 2d bc ff e1 cc 3d 29 52 69 3e a7 c6 ac bd
       -0.010590273 0.10004043 0.22785248 -0.084363274
000160 9c 8c 84 bc 19 dd de bd fc 9a 26 3b 0a eb 05 3e
       -0.016180329 -0.10882015 0.0025421968 0.13077942
000170 dc 83 df 3c 46 16 c6 bd 39 ae 88 bd 5f 5e ac bd
       0.027284555 -0.09672217 -0.06673855 -0.08416437
000180 cd 87 9b 3d 06 39 dd 3c 56 e1 1e be 07 9d 48 bc
       0.07594261 0.02700473 -0.15515646 -0.0122444695
000190 94 dc 92 bc ea 45 cf 3c dd 12 3a be c0 6f 99 bd
       -0.017927445 0.025301892 -0.18171258 -0.07492018
0001a0 57 ee a0 3d a3 fc f8 3d 6d e3 18 3e 7c 92 bd 3d
       0.0785796 0.12157562 0.14930506 0.09256455
0001b0 86 97 41 3d 04 24 88 3d 7a 2f c9 3d 25 0c 0c 3e
       0.047263645 0.066474944 0.098235086 0.13676508
0001c0 2e 2f dd 3d a9 85 22 3e e5 9e 1d bd ce de 11 ba
       0.108000144 0.158713 -0.03848161 -0.00055645115
0001d0 bd 11 fa bc 93 53 26 3e 7f f2 c3 3b 5c 94 fe 38
       -0.030526036 0.16242819 0.0059798355 0.00012139298
0001e0 79 5c f3 bc 25 86 77 bc 3e 0c d3 bd 94 5b aa bd
       -0.02970718 -0.015107666 -0.103050694 -0.083182484
0001f0 9b de e7 3c 7e 6b d1 3c 73 c9 36 be ee 99 8d bd
       0.028304389 0.025563952 -0.17850284 -0.069141254
000200 ec d3 7e bd f3 c2 40 3d 2f f8 c2 3d b7 6a d9 bd
       -0.062213823 0.047060918 0.095199935 -0.10616057
000210 25 2e 80 be b7 f7 db 3d 09 f0 d8 3d 04 8f 0d 3d
       -0.25035205 0.10740607 0.10592658 0.03456022
000220 e6 0b 30 be dc f1 79 be e7 cb 87 3d 6a 70 e7 3d
       -0.17192039 -0.24408668 0.06630688 0.11300738
000230 ed ce 0c 3d 5a 60 68 be d2 d2 85 3c d1 df 97 bc
       0.034377027 -0.22693005 0.016335879 -0.018539341
000240 c3 88 cc 3d 1b 15 4b bd 92 6e f9 bd 09 6b 27 3d
       0.09987023 -0.049580675 -0.12179293 0.04087356
000250 5c 9f 05 bc 13 e5 80 3d d2 bf cc bc 05 80 f0 3d
       -0.00815567 0.062936924 -0.02499381 0.11743168
000260 86 0b ab 3d 1f c8 d3 bc 51 1e 63 bd 1f b2 06 3e
       0.08351807 -0.025852261 -0.055448834 0.13153885
000270 03 2e 10 3e a2 80 89 bc 25 50 88 bd 48 12 3d bd
       0.14080052 -0.01678497 -0.06655911 -0.046160012
000280 e4 45 1c 3d 9a 85 49 3d c7 7a 82 3d 29 45 c7 3d
       0.03815259 0.049199678 0.06371074 0.09729988
000290 b4 5a c1 3c 79 d0 b4 bd e2 22 cf bd d6 50 25 3d
       0.023602821 -0.088288255 -0.10114075 0.040360294
0002a0 82 cd 14 3e 38 56 12 3d 79 1b 43 bd 64 b6 e1 3d
       0.1453152 0.035726756 -0.04763362 0.110211164
0002b0 75 86 1a 3e 58 6f 25 3d 2a 7f 9b bd 31 40 13 bc
       0.15090354 0.04038939 -0.07592614 -0.008987472
0002c0 a1 5d 3b 3e ac 2c 17 3e 45 66 d6 3c 22 8b 66 3d
       0.18297435 0.14763135 0.026171813 0.05628503
0002d0 6e 0c 5a 3d 8d f4 18 3e 70 a0 36 3e 5e a6 89 3d
       0.05323451 0.14937039 0.1783464 0.06721185
0002e0 28 d0 d4 bd 38 a7 b6 bc 7c 32 06 3e a1 c6 b0 3d
       -0.10391265 -0.022296533 0.13105196 0.086316355
0002f0 c8 5e 3f bd 01 7d 16 3d 6d b5 1b 3e 10 ca 1f 3e
       -0.04672125 0.036740307 0.15205927 0.15604424
000300 e3 c0 08 3d 3a 27 d3 3d da b4 99 3d c8 bd 1d 3e
       0.033387076 0.10310216 0.07505198 0.15404427
000310 9e 31 8f 3d 40 b5 cd 3d 46 0c ba 3d 4e 3e 38 3e
       0.069918856 0.10044336 0.09084372 0.17992517
000320 7e c5 47 bd e9 68 ad 3c a4 2e d4 bc 50 af e8 3d
       -0.048772328 0.02116819 -0.025901146 0.11361563
000330 a1 d2 02 3e 3d 64 f4 bd 81 e0 4b be 20 1d 94 3d
       0.12775661 -0.119331814 -0.1990986 0.07232118
000340 8f 86 b9 3d f7 e3 1e 3e c5 f1 2e be c8 36 25 be
       0.09058868 0.15516649 -0.17084415 -0.16134179
000350 6d 76 11 3d 42 60 75 3c 3e bb c5 3c 02 75 c6 3d
       0.03551333 0.014976563 0.024137136 0.09690286
000360 24 f3 d0 bb f0 fe 45 3d 09 f7 94 3c 32 2a 96 bd
       -0.006376641 0.04833883 0.018184202 -0.07332267
000370 97 e1 49 3e be 0f 27 3e 37 44 42 3e 5f c7 2a 3e
       0.19714962 0.16314599 0.18971334 0.16677617
000380 a8 44 de bd 10 4b 99 bd 65 c2 72 3c b5 1c 68 3d
       -0.10852939 -0.0748502 0.014816855 0.056668002
000390 f6 2c 46 3e 23 48 46 3e 08 b6 a4 3c b6 1d 82 3d
       0.19353089 0.19363455 0.02010633 0.06353323
0003a0 0a 7f cd 3d f5 3b 64 3e be 0f 55 3d 9e b3 f6 bd
       0.100339964 0.22288497 0.052016966 -0.12045978
0003b0 c0 ad 60 be 43 99 d3 bd 1c 6b 93 bc 5b 7f 20 3c
       -0.2194128 -0.10331967 -0.01799541 0.009795989
0003c0 df ef de bd 9c 9f ff bd 5b 2b 08 be 6e 0d 76 3d
       -0.108855955 -0.12481615 -0.13297789 0.0600714
0003d0 f8 89 f2 3c 7a a4 ff bd 2f f0 06 be 13 18 71 3d
       0.029606804 -0.12482543 -0.1317756 0.05886085
0003e0 5f 9b 41 bd 05 6e 69 bd 09 00 87 3d 00 84 2f 3e
       -0.047267314 -0.05698969 0.065918036 0.17140198
0003f0 12 fa 78 bd 14 44 0a bd 8c c3 f9 bd ee 51 d0 3c
       -0.06078536 -0.03375633 -0.12195501 0.025429692

4.bias f4 [16]
000000 c7 b4 bb bd 38 2f dc 3d 79 8b 91 3d ef 48 46 3d
       -0.0916534 0.10751194 0.071066804 0.0484094
000010 4e c3 75 3e 86 2d 5b 3d d5 fb 3b 3d e1 ce 8c bd
       0.24000284 0.05351021 0.045894463 -0.068753965
000020 d7 fe 01 3d a8 f5 a5 bc e5 78 2a bc ba 79 d1 3c
       0.031737175 -0.02025874 -0.0104048 0.025570739
000030 be 2c 97 3e 2e 20 3e bc 47 58 0f 3c 73 f8 1b bd
       0.29526323 -0.011604352 0.008749074 -0.038078737

5.weight f4 [16]
000000 a6 49 83 3f 0d 55 78 3f 9a d2 64 3f c9 1d 60 3f
       1.0256851 0.9700478 0.8938385 0.8754545
000010 55 11 5e 3f 66 df 6f 3f 9a 0a 89 3f f0 1c 67 3f
       0.86745197 0.93700254 1.070636 0.9027853
000020 34 59 64 3f 0e e6 83 3f f8 fa 72 3f d4 d8 65 3f
       0.89198613 1.0304582 0.949142 0.8978398
000030 44 6e 81 3f f4 00 77 3f d2 d3 82 3f 88 d2 4d 3f
       1.0111775 0.9648583 1.0220892 0.8039937

5.bias f4 [16]
000000 76 2a 9a be f9 00 d5 be a4 1b bc be 0e fc da be
       -0.3011052 -0.41602305 -0.36739838 -0.42770427
000010 9b c2 4c be 5d cc ac be bb 06 bd be 54 38 e1 be
       -0.19996111 -0.33749667 -0.36919197 -0.43988287
000020 58 2d 48 be ba 36 a6 be e7 d8 04 bf 54 11 c8 be
       -0.19548547 -0.32463628 -0.51893467 -0.3907572
000030 46 58 b2 be 8c 1a 54 be 77 74 1f bf d0 80 67 be
       -0.34832972 -0.20713252 -0.62287086 -0.22607732

5.running_mean f4 [16]
000000 69 99 e4 be 27 a2 34 3f 9d 97 42 bf fa 16 45 3f
       -0.44648293 0.70559925 -0.76012594 0.76988184
000010 f9 27 c0 3e ae 09 4e be 14 f6 bd be 6a 51 5d bf
       0.37530497 -0.2012088 -0.37101805 -0.86452353
000020 e7 a3 5b bf 5e ee a6 be 3b 26 5c bf 86 f5 16 bf
       -0.8579697 -0.32603735 -0.85995835 -0.5896839
000030 9c 45 60 3e 20 5f 1e bf a2 a0 53 bf 71 c5 d3 be
       0.21901554 -0.618639 -0.8266698 -0.41361573

5.running_var f4 [16]
000000 9d 51 05 3f ac e5 46 3f 07 dd fa 3e c9 00 0d 3f
       0.52077657 0.776942 0.48996755 0.55079323
000010 88 86 70 3e 39 62 5e 3f f4 52 92 3f bf c9 e4 3e
       0.2348882 0.86868626 1.1431565 0.4468517
000020 a9 ca 32 3f 86 0b 4e 3f de 67 25 3f ca 40 59 3f
       0.69840485 0.80486333 0.64611614 0.84864485
000030 93 d4 40 3f 6a 13 5e 3f 51 15 bf 3e 94 69 34 3f
       0.7532436 0.86748374 0.3732095 0.704736

8.weight f4 [120, 16, 5, 5]
000000 b1 eb 95 3b a4 32 bf 3d 76 5e b4 be 12 43 d0 be
       0.0045752157 0.09335831 -0.35228318 -0.4067617
000010 e8 75 38 be 11 9b 79 bc 47 2a 07 bd 50 bd c6 3c
       -0.18013728 -0.015234725 -0.032999303 0.024260193
000020 d0 78 08 be 37 f9 e4 bd c2 e2 4d 3b f1 87 8e 3c
       -0.13327336 -0.111803465 0.0031415676 0.017398806
000030 da cf 26 3e 06 a3 c5 bb 16 51 90 3b 70 3d 17 3b
       0.16290227 -0.006031397 0.0044041974 0.002307739
000040 e1 79 fa bc 03 58 55 3e 23 ad 56 3c 93 17 73 bc
       -0.030575695 0.20834355 0.013102802 -0.0148371635
000050 55 f2 4e bd 69 cb 0e bd 2c 53 76 3d 2a 8a 0f 3e
       -0.050524075 -0.034861956 0.060137913 0.14017549
000060 b0 e4 b6 bd 02 20 a1 bd 5b 67 89 3d 9e 40 02 3e
       -0.089303374 -0.07867433 0.067091666 0.12719962
000070 1c 65 5d 3d 06 06 ff 3d c1 6a 01 be 99 7e 6b be
       0.054051504 0.12452321 -0.1263838 -0.22997512
000080 08 5e 21 be 60 71 20 bd 0c 0d c5 3c bd af 43 3d
       -0.15758526 -0.039170623 0.024054073 0.04777502
000090 bb ca 05 be 5a be 01 be 52 95 bb bd c7 ba 48 bd
       -0.13065617 -0.1267027 -0.0915934 -0.04900625
0000a0 bf 7f 88 3d 0b 74 b1 3d f7 ef 37 bd 55 c0 ec 3b
       0.06664991 0.086647116 -0.044906583 0.007225076
0000b0 c8 5e 13 bc 85 f9 9e 3d a0 b0 c6 bb c6 ff ed bb
       -0.008994766 0.07762436 -0.006063536 -0.0072631566
0000c0 13 e7 0a 3d 58 60 9b 3e 01 0f 2a be 35 20 ef bd
       0.033911776 0.30346942 -0.16607286 -0.11676065
0000d0 71 a9 96 bd 4d 68 00 be cd 0d 37 3d 7b f4 c1 bd
       -0.07356537 -0.12539788 0.044690896 -0.09470459
0000e0 74 9e c6 bd 6d 8b 90 3a 6e b9 ba b9 0a ce cf bc
       -0.09698191 0.001102788 -0.0003561484 -0.025366802
0000f0 3c 81 31 be 1c 7b d2 3c 57 bd f7 3d 67 5a 75 3d
       -0.17334455 0.025693469 0.120966606 0.059900668
000100 6d 29 0c 3b 73 04 1a 3c 32 79 0c bd b6 9c 34 3d
       0.0021386996 0.009400475 -0.03429527 0.044094764
000110 0a da 2e 3d c2 6b 30 3e 40 88 14 3e 2d 8d 48 3e
       0.042688407 0.17228606 0.145051 0.19585104
000120 e7 f9 ab bd 79 c0 97 bd 41 7b 2b 3d c1 a1 2f bd
       -0.083972745 -0.07409758 0.04186559 -0.04287887
000130 58 3b a7 bd e6 17 5c bd 59 24 8c be 58 f5 3a be
       -0.08165616 -0.05373373 -0.2737148 -0.18257654
000140 80 48 9a 3c 9b 09 24 be 61 f3 38 bd b6 1a 5e bd
       0.018833399 -0.16019289 -0.04515398 -0.054224692
000150 11 93 25 be 56 c9 42 bc e8 6c 35 be 2b 41 f6 bc
       -0.16169383 -0.011888823 -0.17717326 -0.030060371
000160 c1 21 a6 bd cb e2 0e be 3c b4 cf bd e0 0b 2d 3d
       -0.08111907 -0.13953702 -0.10141799 0.042247653
000170 10 23 ad 3d b0 42 1e 3e d2 c4 1c be ff dd 07 be
       0.08453953 0.15455127 -0.15309456 -0.13268279
000180 94 88 f3 3b 70 6e dc 3b 20 30 3d ba c2 d6 8c be
       0.007432053 0.0067270324 -0.0007216949 -0.27507597
000190 44 03 e0 3d 7a 2b 08 3c 81 10 78 bc 1a a4 9c 3d
       0.10938123 0.008311147 -0.015140654 0.076484874
0001a0 4a 8b e4 3d 13 71 36 3e 5c a4 7c 3d 5d 36 c5 bb
       0.1115938 0.17816572 0.061680183 -0.0060184435
0001b0 23 ae e5 3a 35 94 10 bd c3 ba 4d 3c 5e 2e 80 3d
       0.001752321 -0.03529759 0.0125567345 0.06258844
0001c0 a6 b5 e3 ba d3 4a b0 3d e0 bf b4 bd 54 08 a2 bb
       -0.0017372861 0.086080216 -0.0882566 -0.0049448404
0001d0 47 2e cb 3c ba 95 eb 3c e7 ef 06 3e 6d 3f 04 3c
       0.02480234 0.028757919 0.13177453 0.0080717625
0001e0 c1 9a 13 3d e7 31 d0 bc 97 77 b4 3d ba a3 80 bc
       0.036036257 -0.02541442 0.088118725 -0.01570307
0001f0 9d 2b f9 3d df 71 4a be c1 15 93 bd 1d ff 62 3c
       0.12166522 -0.19770001 -0.071818836 0.013854769
000200 82 8d 9d 3d d4 eb d1 bd ca 15 0a be a2 fd bc bd
       0.07693006 -0.10250059 -0.13484874 -0.09228064
000210 47 38 47 3c c1 d3 4b bd 15 d7 14 be 8b 1b 35 be
       0.012159414 -0.04976249 -0.14535172 -0.17686288
000220 dd 28 cb 3d 63 45 a1 bd 3c 2e ff bc 0a fd 05 3c
       0.099199034 -0.078745626 -0.031149976 0.008178005
000230 57 2c 26 be e3 41 a9 bc db cc 20 be 1a 88 d2 bd
       -0.16227852 -0.0206613 -0.15703146 -0.102798656
000240 92 27 11 3d 64 46 8a bd 48 c3 85 3c 93 c1 e7 bd
       0.035438128 -0.06751707 0.016328469 -0.11316218
000250 80 54 63 be 80 06 cf bd 79 5a ed 3c 04 e2 1a be
       -0.22200203 -0.10108662 0.028973805 -0.1512528
000260 a7 5d c2 3c ac 36 7c 3d 36 12 3d bb 01 31 4f 3d
       0.023726298 0.061575577 -0.0028849966 0.050583843
000270 a1 d4 16 3d 61 da 81 bd 7b 58 cb bc 89 65 24 bd
       0.036823872 -0.063404806 -0.024822464 -0.040135894
000280 56 1e 37 3e c4 2b f5 bd 85 0a 14 be ab 11 cc bd
       0.17882666 -0.11971238 -0.14457138 -0.099643074
000290 1f 02 24 bd 8c a5 8d 3d 9f 52 94 be 60 73 93 bd
       -0.040041085 0.06916341 -0.28969285 -0.071997404
0002a0 87 8f 12 3d a8 16 ba bd 4a 04 08 bc fc 7f 5f be
       0.03578141 -0.090863526 -0.008301804 -0.21826166
0002b0 08 29 66 3d 22 b8 7b 3d 5d 51 be 3c 88 5e 4b be
       0.056191474 0.0614549 0.023232156 -0.1986028
0002c0 89 58 c1 bc 2f da 07 bd 39 ec e8 3d a9 fe e6 3d
       -0.023601787 -0.03316706 0.11373181 0.11279041
0002d0 e7 bb 2b be 31 1a 70 3c d7 3f 75 bd 5c 30 39 39
       -0.16770898 0.014654682 -0.059875336 0.0001766099
0002e0 66 38 4c 3d ba 21 ec bd 6f 28 a2 bd f9 bc a7 bd
       0.049858473 -0.1152987 -0.07917868 -0.081903405
0002f0 99 fe 98 bd 67 e3 02 be 49 5a f6 bc df b1 3e bd
       -0.07470436 -0.1278206 -0.030072348 -0.04655635
000300 c6 98 f0 bc 2b f4 2f bc 0c a3 33 3d e8 cf 2a 3e
       -0.029369723 -0.0107393665 0.043856665 0.16680872
000310 8a 31 08 3e ac fe 2a bd ce 23 1a ba 6d db 21 3e
       0.13300148 -0.04174678 -0.0005879969 0.1580636
000320 72 91 d5 3c c2 1c 39 3e 17 05 6d bc 67 58 a3 3c
       0.02607033 0.18077376 -0.014466546 0.019939614
000330 be 24 43 3d 16 3b 77 bc f4 f4 b5 bc cb 86 08 3e
       0.047642462 -0.015089771 -0.02221153 0.1333267
000340 ba 60 2d bc 30 63 12 bd 8d ef 4c bd 2f 6e 54 3d
       -0.010582143 -0.035739124 -0.05003314 0.05186289
000350 0b 6e e8 3d 49 75 9d bd 76 e2 13 bd cf d1 17 be
       0.11349114 -0.07688386 -0.03610464 -0.1482613
000360 98 83 07 be ed 40 1b 3e 8f ec 9d 3d 6b d3 98 3d
       -0.13233793 0.15161486 0.077111356 0.074622
000370 0c 00 e0 bd c8 95 78 be d5 8a bc 3d f6 f6 ae 3d
       -0.10937509 -0.24275887 0.092061676 0.08543198
000380 32 75 96 3c ba 4c a3 bd 32 ac 33 3b 99 26 99 3d
       0.01836643 -0.07973619 0.0027415869 0.07478065
000390 a6 4e e7 3d a1 ab d0 3d 7d 74 8b bd 2d 24 00 be
       0.11294298 0.101889856 -0.06809328 -0.125138
0003a0 af 27 16 bd 9e 1d 09 3e d7 54 ee 3d 56 87 92 bb
       -0.03665894 0.13390204 0.11637276 -0.0044716997
0003b0 28 b4 40 bd d0 5b 88 bd 9d 1a 10 bc 85 ef b2 3d
       -0.04704681 -0.06658137 -0.008795408 0.08737091
0003c0 36 86 70 bc db 2a 21 3e b7 0f 55 bd 08 b7 4d 3d
       -0.014680436 0.15739004 -0.05201694 0.05022338
0003d0 2e 7f db 3d 73 8d 2f 3e a1 81 48 3e 36 35 d0 bc
       0.10717617 0.17143802 0.195807 -0.025415998
0003e0 5e 8e 8e bd 78 d8 65 3e f6 af 9d 3d 98 a5 db 3d
       -0.06960748 0.22445858 0.076995775 0.10724944
0003f0 f7 56 62 3c b1 77 09 3e 27 5f 97 3d 98 5f 7a 3d
       0.013814679 0.13424565 0.07391196 0.06112632

8.bias f4 [120]
000000 94 95 2c bc 2a 4e 38 3d d2 57 07 3d ff b2 ee 3b
       -0.010533709 0.044996418 0.033042736 0.0072845216
000010 d5 dc 0b 3d 1c 84 03 bd c7 d9 2c bc 20 f3 8b bc
       0.03414615 -0.03210841 -0.010549969 -0.017083704
000020 be 35 0a 3d 68 c5 c5 3c f7 a0 1b bd 8d dc 2e bb
       0.03374266 0.024141982 -0.037995305 -0.0026681751
000030 d0 22 20 3d 03 9c 5d 3d 54 53 f2 3c 49 91 25 3c
       0.0390957 0.054103862 0.02958075 0.010105439
000040 44 0e 04 bd b2 12 7c bc 64 bc 38 bc 09 b7 88 3b
       -0.032240167 -0.015385317 -0.011275385 0.00417221
000050 ca 83 04 bd 19 e1 1c 3d ce 3e 69 3c 3d 90 38 3c
       -0.032352246 0.038300607 0.014236165 0.011264858
000060 05 eb 14 bd b0 f5 bb 3c fb 19 2f 3c a0 57 be 3c
       -0.036356945 0.022944301 0.010687347 0.023235142
000070 a9 b5 3e 3d 21 9c 2b bc dc 6d 06 bd 76 d1 43 bd
       0.046559963 -0.010474236 -0.032819614 -0.04780718
000080 f8 f1 5c bd 2f bb 48 3d 9f 73 ce bb 3b 4c a6 3c
       -0.053941697 0.049006637 -0.006300404 0.020300021
000090 79 47 1c 3c 80 59 8c 3b 33 c0 74 bc d7 66 0c bd
       0.009538525 0.00428313 -0.014938402 -0.034277763
0000a0 7c 21 d2 bb 11 d2 a3 3b 10 c4 d0 39 5f 6a 69 3c
       -0.006412683 0.004999407 0.0003981893 0.014246552
0000b0 f3 4d 64 3c 41 18 df 3c cc 13 94 ba 3f 86 32 3d
       0.0139346 0.027233245 -0.0011297404 0.04358506
0000c0 85 21 09 bd e2 56 27 bd 76 e0 7a b8 5d e2 19 3d
       -0.033479232 -0.040854342 -5.981369e-05 0.037569392
0000d0 33 cc 20 3d af a5 c4 3c 62 2c 74 3d 7b 9c 86 3c
       0.03925724 0.024004785 0.05961264 0.016432038
0000e0 33 15 85 bc ce a0 c7 bc d9 bd bf 3c 10 38 09 ba
       -0.01624546 -0.02436867 0.023405956 -0.0005234489
0000f0 38 82 6e 3b b2 c5 4f ba 3f ea dd bc 63 88 f0 bb
       0.0036393534 -0.0007925882 -0.027089236 -0.0073404773
000100 cb 2f 64 3c 34 97 95 bc c8 be 5b bc 39 30 d7 3c
       0.01392741 -0.018260576 -0.013412185 0.026268112
000110 3e ed f5 b7 75 5e fd 3b 1e 8b 02 bd 1c 04 41 3d
       -2.931675e-05 0.0077322074 -0.031870954 0.04712306
000120 24 ae 33 bd be 60 b8 bc 76 e5 df 3c 0b ff a5 3c
       -0.043867245 -0.022507068 0.027331095 0.020263216
000130 9e 9e 23 bb 72 fb 4d bd cc 36 9a bc 83 77 93 3d
       -0.002496637 -0.050288625 -0.018824957 0.072005294
000140 e4 69 ed 3c 79 1f 1f 3d 97 90 6b 3d 57 c1 0a bb
       0.028981157 0.038848374 0.05751094 -0.0021172368
000150 7a b5 ff bc 6a d1 d8 bb 41 13 09 bd 6f ca eb bb
       -0.031214464 -0.006616761 -0.033465628 -0.007195763
000160 28 8b bb 3c fd 44 36 3d 80 52 66 bc 2a b3 43 3c
       0.022893503 0.044499386 -0.0140577555 0.0119445715
000170 d7 81 b8 3b 90 eb bd 3c 74 8b 74 3c 6a 75 97 38
       0.0056307125 0.023183614 0.014925826 7.222111e-05
000180 bd 0d 4b bd c3 42 89 bb 66 04 0f bd 70 3a c8 3c
       -0.04957365 -0.004188867 -0.034916304 0.024441928
000190 ea 5d 6e 3b 53 b5 fc 3c c3 c7 3a bc 31 f6 f8 3c
       0.0036371895 0.03084818 -0.011400166 0.03039083
0001a0 4f e3 38 3c 44 e2 d3 3c 42 d7 29 bb 0e 15 91 3c
       0.011284663 0.025864728 -0.0025915657 0.017710235
0001b0 24 2d 39 3d 92 8c 52 3d 3c 51 00 bd 02 0e 3f bd
       0.045209065 0.05140359 -0.03132747 -0.04664422
0001c0 f4 09 ba bc fb 49 ee 3b 7a e6 45 bd 0a 85 b8 ba
       -0.022709824 0.0072720028 -0.048315503 -0.0014077735
0001d0 1b c1 12 3d d9 42 6d 3c 10 98 de 3b 81 14 44 3d
       0.03582869 0.01448127 0.0067930296 0.047871117

9.weight f4 [120]
000000 24 0b a9 3f 4c 71 9d 3f 14 d5 a9 3f 96 89 94 3f
       1.3206525 1.23002 1.3268151 1.1604488
000010 17 2f 90 3f 16 e6 8f 3f 39 4f a0 3f d9 87 a6 3f
       1.1264371 1.1242092 1.2524177 1.3010207
000020 98 ff 9f 3f 63 da a5 3f d2 6c a4 3f 17 a5 b0 3f
       1.2499876 1.2957271 1.2845709 1.3800381
000030 11 c1 97 3f ae 9f a7 3f 32 1b ad 3f 89 6b a0 3f
       1.1855794 1.3095605 1.3523924 1.2532817
000040 7c c8 a5 3f 03 40 a6 3f ff bd a6 3f 96 e1 9f 3f
       1.2951808 1.2988285 1.3026732 1.2490718
000050 5f 02 a0 3f 9c 57 a2 3f b5 ef 9b 3f 2d 52 9d 3f
       1.2500724 1.2682986 1.2182528 1.2290703
000060 a3 4b a5 3f c9 8f 95 3f 13 2e b1 3f 92 cd 9c 3f
       1.2913707 1.1684505 1.3842186 1.2250235
000070 ee 70 a1 3f 4a 07 a7 3f 53 dc aa 3f 8d e9 a3 3f
       1.2612588 1.30491 1.3348488 1.2805649
000080 73 64 a9 3f 56 87 b5 3f 1d 6f 92 3f 6d be a0 3f
       1.323378 1.4181926 1.1440159 1.2558113
000090 22 24 9a 3f fb 7c 9c 3f a2 f2 9c 3f fa fb 9a 3f
       1.2042277 1.2225641 1.2261546 1.2108147
0000a0 cd 1b a9 3f ed dc 98 3f 17 0d 94 3f 34 9f a7 3f
       1.3211609 1.1942421 1.1566495 1.309546
0000b0 4b 6b b0 3f 12 e9 9f 3f b1 82 9c 3f 25 61 9d 3f
       1.3782743 1.2493002 1.2227384 1.2295271
0000c0 bc 20 a6 3f db 08 a8 3f 02 58 b0 3f a0 ab 97 3f
       1.297874 1.3127702 1.3776858 1.1849251
0000d0 4b ef a2 3f e8 61 98 3f 57 20 a2 3f 24 94 a5 3f
       1.2729276 1.1904879 1.2666119 1.2935834
0000e0 42 35 a5 3f 7e 23 a8 3f a0 db 92 3f c7 e3 a3 3f
       1.2906878 1.3135831 1.1473274 1.2803887
0000f0 22 b2 9c 3f df ee ad 3f 2a b8 96 3f 0e 4f a6 3f
       1.2241862 1.3588523 1.1774952 1.2992876
000100 a9 f5 96 3f 0b 19 9e 3f dd b6 ae 3f 38 f8 8e 3f
       1.179372 1.2351393 1.3649555 1.11695
000110 3c 76 a7 3f 14 21 96 3f 45 ab 94 3f a2 e0 a7 3f
       1.3082957 1.1728845 1.1614767 1.3115427
000120 e9 02 9e 3f a1 50 a0 3f 4e 83 95 3f 56 0f 95 3f
       1.2344638 1.2524606 1.1680696 1.1645305
000130 63 e0 94 3f de 46 9b 3f 5f 01 a9 3f 00 46 a0 3f
       1.1630977 1.2131002 1.3203543 1.2521362
000140 08 83 a3 3f e0 05 98 3f d2 97 a1 3f 8f 7a 9b 3f
       1.2774363 1.1876793 1.2624457 1.2146777
000150 bc d1 af 3f b3 1e 98 3f 0b 5b a1 3f a3 01 9d 3f
       1.3735881 1.1884369 1.2605909 1.2266124
000160 8c 9a a1 3f cd ea a1 3f 4d c7 9c 3f 2c 6f 96 3f
       1.2625289 1.264978 1.2248322 1.1752677
000170 38 22 9a 3f f4 26 9c 3f f9 20 9a 3f 89 e0 b9 3f
       1.2041693 1.2199388 1.2041312 1.4521648
000180 38 d0 ad 3f c4 14 91 3f de 58 ab 3f 3d 2b 9d 3f
       1.3579168 1.1334462 1.3386495 1.227882
000190 33 cd 93 3f f8 75 a3 3f c8 4f a7 3f 86 79 a0 3f
       1.1546997 1.2770376 1.3071222 1.2537086
0001a0 fd 01 a5 3f 52 6e 97 3f d4 c9 98 3f 36 71 9c 3f
       1.2891232 1.1830542 1.1936593 1.2222049
0001b0 8d a9 9d 3f 75 64 98 3f ff 1d ac 3f a0 f8 a3 3f
       1.2317368 1.1905657 1.3446654 1.2810249
0001c0 19 ad a0 3f 7e a9 92 3f a3 50 98 3f f4 ed 9b 3f
       1.2552825 1.1457975 1.1899608 1.2181993
0001d0 6a d9 95 3f 1d 82 a7 3f e4 8f 94 3f 6d 5d 91 3f
       1.1706975 1.3086582 1.1606412 1.1356636

9.bias f4 [120]
000000 10 db 88 3b 07 a9 6a bd ff 52 86 3d 71 e2 e9 bd
       0.004176505 -0.057290103 0.06558799 -0.114201434
000010 f2 54 cf 3a bf dd 7c bd 0f 8c 48 3c c9 58 44 bd
       0.0015818162 -0.06173491 0.012240424 -0.047936235
000020 e1 3c b4 bc ea 8e 88 bc af 2b f7 bc ae b2 bd bc
       -0.022001686 -0.01666971 -0.030172197 -0.02315649
000030 d3 32 f4 bc 87 27 f4 bd d5 55 a1 3c 19 85 94 3c
       -0.029809391 -0.11921602 0.019694248 0.018129872
000040 42 cc a6 3c d0 06 db bd 29 30 10 be 7e f1 8a bd
       0.02036107 -0.10694659 -0.14080872 -0.06784342
000050 c2 3d c3 3a 1d b0 0a be a5 45 9b bc f9 f9 86 bd
       0.0014895725 -0.13543744 -0.018954108 -0.06590647
000060 51 55 3e bd e1 dd 0a 3b dd b1 74 bc fe f7 ad bd
       -0.046468083 0.002118938 -0.014934984 -0.084945664
000070 05 e2 3f bc cd 95 74 bd a7 bf 69 bd 3d 8b f0 bd
       -0.011711602 -0.059713174 -0.05706754 -0.117453076
000080 1e 42 a2 3c 4f 20 65 bd e9 83 99 bd 9b 5d 88 bd
       0.019806918 -0.055939015 -0.07495863 -0.06658479
000090 5e 57 7b 3c a4 ce 4a 3d c3 4a 17 be e5 e6 21 3c
       0.015340654 0.049513474 -0.14774613 0.00988171
0000a0 88 59 ce bd c6 8f f0 3c 7b bb b1 3c d8 64 90 bd
       -0.100756705 0.029365432 0.021695843 -0.070504844
0000b0 dd 78 2f bd c2 38 1c 3e e8 5d 04 bd 99 d9 c5 bc
       -0.042839874 0.15256026 -0.03231612 -0.02415161
0000c0 17 47 c0 bd 07 5c 6d bc 17 73 23 3d 1e b7 32 bd
       -0.09388559 -0.014487273 0.03990468 -0.043631665
0000d0 69 96 97 bd 4b 34 49 bd 75 ac 47 3d fb c5 37 bd
       -0.07401735 -0.049122136 0.048748452 -0.044866543
0000e0 2f 83 ae bd 59 19 49 bd 2f 4e 40 bc 40 c6 81 bd
       -0.08521115 -0.04909644 -0.01173739 -0.06336641
0000f0 55 9b 61 bc 42 f2 4b bd 2f 52 ac bc 8b 28 91 bd
       -0.013769944 -0.049791582 -0.021035282 -0.07087811
000100 62 46 cd 3c 8e 7c cf 3c 2a cf 24 3d 9c cf 93 bd
       0.025057975 0.025327947 0.04023663 -0.07217333
000110 dc 37 47 3c 66 35 0c be ed fd 72 bd 1e df 99 bd
       0.012159314 -0.13692245 -0.059324194 -0.07513259
000120 36 21 27 be b1 40 b7 bd ed 43 05 be c4 0a 58 3d
       -0.16321263 -0.08947886 -0.13014193 0.052744642
000130 53 e9 82 3c 91 35 71 bd 79 1c fe 3c 6e 2d bc 3c
       0.015980398 -0.058888976 0.031019436 0.022970881
000140 58 c4 7e bc 82 ea 26 3d cf 89 64 bc 5a c0 10 be
       -0.015549742 0.040750988 -0.013948872 -0.14135876
000150 bc d1 84 3d 4f ce e5 bd 9b 2a c2 3c 85 08 84 bd
       0.06485316 -0.11220991 0.023701956 -0.064469375
000160 ec 64 34 bd e7 e5 24 bd 4a 4e 05 bd 0f b4 19 3b
       -0.04404156 -0.040258314 -0.032545365 0.002345327
000170 15 fa 9d 3a 7d e9 64 3d 16 d8 ca b9 80 a6 98 3b
       0.001205268 0.055886734 -0.0003868944 0.00465852
000180 83 3f 53 bd 28 8a 6c bc 3c da 48 bd 86 86 e7 bd
       -0.05157424 -0.014437236 -0.04903625 -0.11304955
000190 ef 6b 9f bc 53 57 74 bd 9d f2 7d bc 5d fa d1 bc
       -0.019460646 -0.05965359 -0.015499738 -0.025632078
0001a0 1f fb 23 be 9e 2d e3 bd 34 0f df bc d5 e8 27 bd
       -0.16013764 -0.11092685 -0.02722893 -0.04099353
0001b0 a0 95 a3 bc f6 d8 d8 bc 57 e7 13 be 80 39 f2 bd
       -0.019968808 -0.026470643 -0.14443718 -0.118273735
0001c0 77 a1 82 bd f6 68 3f bd 20 5a 70 bd 5e aa 7d bb
       -0.06378453 -0.046730958 -0.0586797 -0.0038706283
0001d0 b1 ce 78 bd de 66 d7 bd 3c f6 e3 bd a2 10 d9 bd
       -0.06074399 -0.10517667 -0.1113095 -0.105988756

9.running_mean f4 [120]
000000 ea a7 0e 3f 72 a2 30 3d e6 70 05 3f 9d 8f 4e 3d
       0.55724967 0.04312367 0.52125394 0.05042993
000010 4e f3 b7 3e d5 40 e8 3e 71 2f 71 bd 46 a3 93 be
       0.35927814 0.45361963 -0.058883134 -0.28835505
000020 ab 16 20 3f 78 e0 5c 3e 48 a4 8d be 73 7f 11 3f
       0.6253459 0.21570003 -0.276644 0.568351
000030 48 32 07 bf 18 78 da 3d 9f e5 85 bf 23 79 1d be
       -0.528111 0.10667437 -1.04607 -0.15378241
000040 ef ea 4f bf 8b f0 1b bf ca d3 09 be 1d 10 05 bd
       -0.81217855 -0.60913914 -0.13459697 -0.03248607
000050 c0 c7 e3 bd ac 41 3c bb 62 f5 dc 3e 80 30 09 3d
       -0.11122084 -0.0028725667 0.43155962 0.03349352
000060 d7 74 43 bf 3c cf 17 bf c6 e7 fb be 1a 2b 0b bf
       -0.7635016 -0.5930059 -0.49200267 -0.5436264
000070 ba e5 22 3e 13 e4 93 3f 8f e4 05 bf f7 68 29 bf
       0.15907946 1.1553978 -0.5230188 -0.6617579
000080 1a 87 56 3d b3 ae 26 3f 43 b6 9b 3e b2 3b 45 3f
       0.052374937 0.6511032 0.30412492 0.7704421
000090 39 1e 3a bf 1b b7 b0 be 80 fc d0 3a c1 0a a8 3e
       -0.72702366 -0.34514698 0.0015944391 0.32820705
0000a0 81 30 87 be 20 8f c6 bd ce b2 dc 3c 54 93 a9 bf
       -0.26404193 -0.09695268 0.02694073 -1.3248086
0000b0 72 24 f2 3f 46 50 5b be 95 30 da 3d 53 10 0d be
       1.8917372 -0.2141734 0.106537975 -0.13775758
0000c0 70 ac 09 3f fb a7 a7 be 51 09 b4 be ed 13 a3 3f
       0.53778744 -0.32745346 -0.35163358 1.2740456
0000d0 7e 60 38 3f 60 61 30 3f 85 e6 b1 3c 04 1a 21 be
       0.72022235 0.6889858 0.021716366 -0.1573258
0000e0 de e9 7b be 33 e0 a1 3f ee 7c 3b 3f a9 3c 44 bf
       -0.24600932 1.2646545 0.732375 -0.7665506
0000f0 01 85 29 bf 61 2c cc be 38 c1 62 bf 13 40 55 3f
       -0.6621857 -0.39877608 -0.8857608 0.83300894
000100 70 6f 41 bf c9 ab 11 3f b2 29 43 bc c7 1e 95 bf
       -0.75560665 0.5690275 -0.011911796 -1.1650017
000110 fe 04 21 3f 71 80 ee 3e fc a9 0e bd c0 71 20 3e
       0.6289824 0.46582368 -0.03483008 0.15668392
000120 1e 2e dc 3e c2 25 d3 bc 5e 60 30 bf dc 4c cf bc
       0.43003935 -0.02577484 -0.68897045 -0.025305204
000130 56 4d a6 3e 4e 94 f3 be 0d ab e6 3c 7c 03 99 bd
       0.32480878 -0.47574085 0.028157735 -0.07471368
000140 e5 65 8a 3d 9f 6d 56 3d ce 6a 64 bf 61 a5 4b 3f
       0.06757716 0.052350637 -0.8922547 0.79549223
000150 17 ca 0f bf 41 ff 7e bf 26 a5 81 bf 4b 01 b1 be
       -0.5616774 -0.99608237 -1.0128524 -0.345713
000160 f7 26 91 3f 0f ae 38 3f 6f 77 09 3f 0f bb 81 be
       1.1340016 0.7214059 0.53697866 -0.25338027
000170 1c 99 2f 3f 77 cb 28 bf e6 9e 93 3e 1e 3e 34 be
       0.68593 -0.6593546 0.28832167 -0.17601821
000180 d3 64 14 bf e7 df 3e be f5 85 45 bf 9d 01 ed 3e
       -0.57966346 -0.186401 -0.7715753 0.46290293
000190 42 b1 49 3f d1 ba 28 be db 69 1a 3d 23 6f 1a 3f
       0.787861 -0.16477515 0.037698608 0.6032583
0001a0 4f 8b 15 40 6c e2 6c bf be 4f f8 3d af 77 55 3f
       2.3366277 -0.9253299 0.121245846 0.8338575
0001b0 af c1 e3 bf 61 78 8a 3f 60 76 19 3f 2f 6a b7 be
       -1.7793483 1.0817987 0.5994625 -0.358232
0001c0 26 ed ab 3e 2a 31 5f 3c a2 73 a0 bf ec 0c 32 bf
       0.33579367 0.0136225615 -1.2535288 -0.6955097
0001d0 81 fb 96 be 42 88 78 bf 20 37 3c bf f6 5d eb 3d
       -0.29488757 -0.9708291 -0.73521614 0.11492531

9.running_var f4 [120]
000000 2b a7 85 3f 34 13 2c 3f a9 97 53 3f 59 b1 86 3f
       1.0441641 0.672168 0.8265329 1.0522872
000010 b3 11 a8 3f fa 85 89 3f e0 41 5b 3f 77 4a 48 3f
       1.3130401 1.0744011 0.8564739 0.78238624
000020 b6 bb 99 3f 50 ab 3f 3f a6 dd 69 3f d7 e3 5a 3f
       1.201041 0.7487078 0.91353834 0.85503906
000030 5f b5 82 3f 31 9f 62 3f 2e d1 80 3f d6 95 5c 3f
       1.02116 0.88524157 1.0063837 0.8616613
000040 9e 5f 75 3f c7 de 82 3f fd 12 7f 3f e2 a3 5f 3f
       0.95849025 1.0224236 0.9963835 0.8735944
000050 be 04 60 3f 8b 1c 76 3f 5e c3 aa 3f bf 5f 68 3f
       0.87507236 0.96137303 1.3340871 0.90771097
000060 b0 bd b5 3f e3 cd 51 3f 1a 4c 8b 3f ed b5 9a 3f
       1.4198513 0.81954783 1.0882599 1.2086769
000070 07 29 31 3f 1b 73 63 3f dc 74 5f 3f e2 d9 3f 3f
       0.6920323 0.8884751 0.8728769 0.7494184
000080 6f 7a 85 3f 21 22 7d 3f 58 db b6 3f 8e fc 2d 3f
       1.0427989 0.988802 1.4285688 0.6796349
000090 e5 db 2e 3f 6e 18 33 3f b9 9d 42 3f d4 b2 41 3f
       0.6830428 0.6995915 0.76021916 0.75663495
0000a0 5f ba 79 3f 22 20 2e 3f 39 28 63 3f 41 a7 82 3f
       0.97550005 0.6801778 0.8873325 1.0207292
0000b0 5b 6f 5a 3f 2f 46 90 3f 43 74 84 3f 7b b3 39 3f
       0.85326165 1.1271418 1.034798 0.7253949
0000c0 4a f4 54 3f ba a6 40 3f c9 80 7d 3f f1 37 5a 3f
       0.83185256 0.75254405 0.99024636 0.8524161
0000d0 a1 ff 86 3f 5b 02 66 3f ee b3 7e 3f d5 d6 76 3f
       1.0546762 0.89847344 0.994933 0.9642156
0000e0 df 09 43 3f ae ef 66 3f eb a4 64 3f 28 7f 8f 3f
       0.7618694 0.9020947 0.89314145 1.121068
0000f0 10 e4 4e 3f 44 77 68 3f 85 89 5f 3f 3f f3 5e 3f
       0.80816746 0.90806985 0.87319213 0.87089914
000100 e5 b6 3d 3f 21 4c 9e 3f 29 36 95 3f db 72 7d 3f
       0.741072 1.2366983 1.1657153 0.9900338
000110 fd 54 3e 3f d0 c0 76 3f 29 81 8d 3f ee 98 5c 3f
       0.7434843 0.9638796 1.1055042 0.8617085
000120 79 d9 28 3f 5e 7e 51 3f d5 c5 81 3f 28 b4 6c 3f
       0.65956837 0.81833446 1.0138499 0.92462397
000130 b1 c5 40 3f 20 15 64 3f 62 d8 96 3f ca 6b 8b 3f
       0.75301653 0.89094734 1.1784785 1.089227
000140 5f b8 76 3f 36 7c bf 3f bb 3f 4c 3f 09 5b ab 3f
       0.9637508 1.4959781 0.79784745 1.3387157
000150 f0 29 7b 3f 7c 61 a7 3f 8c 73 86 3f d3 83 4b 3f
       0.98110867 1.3076625 1.0504012 0.7949802
000160 be 25 6c 3f 81 b3 67 3f fd 07 3c 3f df 40 b8 3f
       0.9224509 0.90508276 0.7344969 1.4394797
000170 24 2b 8b 3f 22 20 3e 3f 28 c6 3d 3f 56 45 5b 3f
       1.087254 0.7426778 0.7413049 0.85652673
000180 7d fd 58 3f 6b 56 13 3f 2a aa 4b 3f 20 44 5b 3f
       0.8476179 0.5755374 0.79556525 0.85650826
000190 b1 11 73 3f 3a 51 5e 3f f6 21 87 3f 2d 0b 81 3f
       0.9494887 0.8684269 1.0557239 1.0081536
0001a0 46 10 92 3f 33 be 6a 3f 03 61 a4 3f 29 43 67 3f
       1.1411216 0.9169647 1.2842106 0.90336853
0001b0 ad cd 87 3f e1 47 32 3f df d8 4c 3f f2 1b 63 3f
       1.0609642 0.6964093 0.8001842 0.88714516
0001c0 fb ef 3d 3f 8b b1 6a 3f d8 20 54 3f 7e b4 5d 3f
       0.74194306 0.9167716 0.82862616 0.86603534
0001d0 c5 57 86 3f 9d 7f 2d 3f 86 04 58 3f b4 d5 96 3f
       1.0495535 0.6777285 0.843819 1.1783967

12.weight f4 [84, 120]
000000 51 b0 c7 bd 42 d1 8c 3e f2 4b 1b be 22 64 0c be
       -0.097504266 0.275034 -0.1516569 -0.13710073
000010 24 fa a8 3d f3 ba cd bd bc a0 58 be fa 7f 6b 3e
       0.082508355 -0.10045423 -0.21155065 0.22998038
000020 bf cd 20 3d 20 34 56 3c 7b aa 01 3e df b1 f3 bd
       0.039258715 0.013073951 0.1266269 -0.118991606
000030 e3 20 09 3e ad 17 2c bd 80 e8 57 bc 9c f2 86 bc
       0.13391452 -0.042014766 -0.013177991 -0.016473107
000040 bd fc ea 3c ca b8 91 3c 3e fa 83 bd 7c 81 c7 bd
       0.028684968 0.01778831 -0.06444214 -0.09741494
000050 f1 c2 f7 3a f9 35 22 3e c9 64 e5 bd dc 92 1a 3d
       0.0018902702 0.15840901 -0.11200864 0.037737712
000060 6f 70 a6 be 4f 07 51 3e a9 6e cf bd 78 78 7b 3e
       -0.32507655 0.20412944 -0.101285286 0.24557674
000070 8f c8 34 3d 97 ca 55 bc ad 05 46 3e b0 fd 83 3e
       0.04413658 -0.013048789 0.19338103 0.25779486
000080 8f f9 17 be 1f b0 1a 3e 71 eb 75 bd 5a bc 97 3e
       -0.14841293 0.15106247 -0.060038988 0.29635888
000090 94 37 8a bd 62 04 1d bd c1 02 d8 bd 5d 7a db 3c
       -0.06748882 -0.038334258 -0.105474 0.026791746
0000a0 5b e2 42 3e 49 19 14 be 71 7e 4f bd 94 ec 57 3e
       0.1903166 -0.1446277 -0.050657693 0.21086341
0000b0 d1 ba b7 3d 6c 7c ca bd 9a db 87 bd 14 ec 96 3c
       0.08971179 -0.09887013 -0.066336825 0.018423118
0000c0 58 3f f6 bd 34 ba a2 3d 94 d2 2f be aa 62 09 3c
       -0.120238006 0.07945672 -0.17170173 0.00838534
0000d0 cc 4f 0e be cb 8c a0 bd f0 99 9f 3d 67 00 98 bd
       -0.13897628 -0.07839354 0.07793033 -0.07421952
0000e0 7f 55 1c be 8a 55 af bd ee c0 08 3e 71 79 84 3e
       -0.15266989 -0.08561237 0.13354847 0.25873902
0000f0 a7 dc 92 3d 96 00 aa bd 45 ba 07 3e a4 f3 16 be
       0.07170992 -0.08300893 0.1325465 -0.14741379
000100 85 25 5e 3e 1c 3b eb bd 6e 50 8f bd 54 7e 65 bd
       0.21694 -0.114858836 -0.069977626 -0.05602868
000110 9f d6 9f bc 54 e1 98 bd c1 25 d5 3d 09 19 f6 bd
       -0.019511519 -0.07464853 0.104075916 -0.12016494
000120 28 db d5 bd 09 4a 32 bd 0b 90 10 3e f7 f6 4f 3d
       -0.10442191 -0.043527637 0.14117448 0.050772633
000130 15 19 8e 3d c3 79 0b be 3a 2b ff bc f7 91 a8 3d
       0.06938378 -0.13620667 -0.031148542 0.082309656
000140 80 c4 38 bd 2f 5b cd 3d 42 7f 96 3d 36 ab f3 3d
       -0.045109272 0.100271575 0.07348491 0.1189789
000150 d1 e7 3e 3d b9 34 21 be 29 86 64 be c6 1b 1a bd
       0.046607796 -0.15742768 -0.22316803 -0.037624143
000160 4b ba a9 bd e8 cf a4 3d b0 8e a7 be 1c 23 b0 3d
       -0.08287486 0.080474675 -0.3272605 0.086004466
000170 53 39 d1 3c 2c 54 76 3e 72 a8 f8 bd e9 da 5a bd
       0.02554003 0.24055547 -0.121415034 -0.053431425
000180 c9 b4 60 3e 38 5a 2d be fe 6e 96 be 0c d4 7d 3e
       0.21943964 -0.16928947 -0.29381555 0.2478792
000190 70 1e 1b 3c 5b 82 77 be a4 b3 3c 3e fc fd 80 3e
       0.009467706 -0.2417082 0.18427902 0.25193775
0001a0 a5 a3 6b 3e 01 ac 8e 3e 17 da 67 bd e8 c6 29 be
       0.23011644 0.27865604 -0.05660447 -0.16579783
0001b0 6b de 5b 3e 74 2f 42 3d 4d 27 17 3d c7 95 13 be
       0.21471564 0.047408536 0.036902715 -0.14412604
0001c0 7b 65 b1 bd 6f ca ee bc 2f e5 93 be dd 76 16 3c
       -0.08661934 -0.029149262 -0.2888579 0.009183613
0001d0 3b f9 3c be 1e a1 82 3d 3c 01 da bd 3f f5 1d be
       -0.18454449 0.06378387 -0.10644767 -0.15425585
0001e0 54 1f 66 be c2 ff 03 3e ea 8d 6c ba cf c6 51 3d
       -0.22472888 0.12890533 -0.00090238324 0.05121499
0001f0 57 f6 20 3d f4 38 37 3e 0f 9b 42 bd a9 36 37 bd
       0.039297428 0.1789282 -0.047511157 -0.044729862
000200 61 0f 8e 3d 1c 71 7f 3e db f2 c4 3c f7 cc a5 bd
       0.06936527 0.24945492 0.024041584 -0.080957346
000210 6a c1 57 3d 10 12 d4 3d 2e 3a a9 3d 70 dd e3 bc
       0.05267469 0.10355008 0.0826305 -0.02781555
000220 be e7 8c 3d d9 d1 44 3d 52 88 27 be d9 1f 9a 3d
       0.06880139 0.04805169 -0.16360596 0.07525606
000230 6a 7c 96 3d ad f9 b7 3d 43 1c 0a be 9f fd 06 3e
       0.07347949 0.08983169 -0.13487343 0.13182686
000240 4f e5 2c be f9 62 1e 3d 34 c9 92 3c c4 1b e4 bd
       -0.1688435 0.038668606 0.017918207 -0.111381084
000250 9f 0e 92 3e 68 35 a8 3d c2 80 87 3d bd 0e 91 3e
       0.2852678 0.082133114 0.066163555 0.28331557
000260 3a e0 f1 3d 12 cc 69 be e6 2d 1b 3d 02 51 44 3e
       0.11810346 -0.22831753 0.03788557 0.19171527
000270 43 a7 aa 3e 1e 53 f0 3c 7e 16 80 3e 28 b7 8c be
       0.33330736 0.029336508 0.2501716 -0.27483487
000280 24 93 0b bd 5a e5 14 bd d2 4a ef 3c 4b a3 12 3e
       -0.03407587 -0.03635154 0.029210482 0.14320104
000290 96 bd 76 3d db ba 91 3d 08 7d 31 be 92 bd 29 3e
       0.060239397 0.07115718 -0.17332852 0.16576222
0002a0 ac a7 8a bd 49 be ee 3c 76 a7 e3 bd cb bb 8d 3e
       -0.06770262 0.02914347 -0.11115925 0.27682337
0002b0 94 4f 8e be ba 00 85 bc e8 8f 9a bd 5d ad 2d 3e
       -0.27795088 -0.016235698 -0.07546979 0.16960664
0002c0 ea d6 63 3e 54 41 a0 be bf 9d 66 3e 30 ac 89 be
       0.22249952 -0.3129984 0.22521113 -0.2688918
0002d0 cf 53 38 bd aa 7b 95 3d 3a a6 b3 bc a0 e3 63 bd
       -0.0450018 0.07298978 -0.021929849 -0.055637002
0002e0 8d 6d ab 3b c5 75 25 bd f0 4f 8e 3d b7 18 f4 bd
       0.0052315653 -0.040395517 0.069488406 -0.119187765
0002f0 b0 cd 46 be dc af 39 bd ae f7 0d 3e 6b db 5c be
       -0.19414401 -0.04533373 0.13864014 -0.21568076
000300 2f 18 d6 bd cb 8e 9b 3d 10 d4 2d be ff 72 1c 3e
       -0.104538314 0.07595595 -0.16975427 0.15278243
000310 7b f0 4f bc 6c 05 26 3e 14 ad 21 3e f6 5c 8c 3d
       -0.012691612 0.16213006 0.1578868 0.068536684
000320 23 f1 18 bd ee c3 f7 bd 7e a4 3a 3d a8 c0 6d bd
       -0.03733934 -0.120979175 0.04556703 -0.05804506
000330 9c d5 5b 3d 0b e7 73 be 18 60 93 3d 33 77 b1 3d
       0.05367051 -0.23818605 0.07196063 0.086653136
000340 05 0a 7d bb 5f 33 2a 3b 81 f9 38 bd 92 c8 a7 3d
       -0.0038610708 0.002597056 -0.04515982 0.081925526
000350 e1 1f 3d 3c a5 63 53 bc bb 4b 87 3d 49 1d 82 bd
       0.011543245 -0.012902175 0.06606241 -0.06353242
000360 d5 f9 57 bd fc 89 66 3d 4f 48 e5 3d bc e5 3f 3d
       -0.052728493 0.056283936 0.111954324 0.04684995
000370 33 d9 ef bc 9f dd 24 be 4e 9f 43 be 80 f8 59 be
       -0.029278373 -0.16100167 -0.19103739 -0.21286201
000380 bf 3a 9f 3e 8f 7a c5 bd 81 1c 86 bd 60 b6 c6 3d
       0.31099507 -0.09642517 -0.065484054 0.09702754
000390 9d 62 18 bd fc 2e b6 bd a6 d0 a1 3e e9 c9 56 3d
       -0.03720342 -0.0889568 0.316045 0.05243865
0003a0 f5 4c e5 ba c6 3f 8c bd 7b ac 01 be 69 8d a8 3c
       -0.0017494248 -0.06848101 -0.12663452 0.020575242
0003b0 7c 67 8b 3d 64 01 1b be 3a f1 94 3d 26 5e e7 3c
       0.068068475 -0.15137249 0.07272573 0.028243136
0003c0 b0 1a 1c bd 1e 12 57 3e 31 41 4b 3e 87 21 ba bc
       -0.03811139 0.21003005 0.19849087 -0.022721065
0003d0 29 46 42 be b8 76 e6 ba fc 8c 83 3d 41 ae 52 be
       -0.18972076 -0.0017582988 0.06423375 -0.20574285
0003e0 5d a3 fa 3d 0b 62 d6 3d f7 d3 21 3e 1f c9 6b be
       0.1223819 0.10467919 0.15803514 -0.2302594
0003f0 38 e2 95 bd c5 2e c3 bc 2e 3f be 3c 9c 28 4c bd
       -0.073185384 -0.023826012 0.023223486 -0.049843416

12.bias f4 [84]
000000 fd 31 35 bd e6 67 97 3c e6 d3 65 3d 9f 6e 4b 3c
       -0.044237126 0.01848216 0.056110285 0.012416511
000010 f2 28 b0 bd 6e 28 99 bc 89 d3 02 bd 3b a9 31 3d
       -0.0860156 -0.018696036 -0.031940017 0.04337428
000020 5c 86 6f 3d 01 49 15 3d b4 2e 01 bd 60 cb 91 3d
       0.058477744 0.036446575 -0.03153868 0.07118869
000030 11 d1 15 3d 5e 91 fb 3b a5 17 14 3d 63 9f 91 bd
       0.036576334 0.007677241 0.03615536 -0.07110479
000040 58 23 18 bd df 94 8e bd 17 3b 80 3c 36 1b a0 bd
       -0.03714308 -0.06961989 0.015653176 -0.0781769
000050 b1 74 61 3d 79 5f 9d 3d d8 b1 ef 3c 89 0b 89 3d
       0.055042926 0.076842256 0.029259607 0.06691653
000060 74 30 b7 3d 32 42 ac bc dc 9e a4 bd c5 97 15 3d
       0.089447886 -0.021027658 -0.080381125 0.03652169
000070 b4 0e 83 3d 0a 1e df 3b a5 c0 9d bc 9a 72 85 bd
       0.06399289 0.006809001 -0.0192569 -0.06515999
000080 67 a2 03 bd aa ab 9e 3d b5 ab 1b bd d7 4a b2 3c
       -0.0321373 0.07747586 -0.03800555 0.021764202
000090 0f 3d 8a 3d 56 97 db 3d 7f fb 89 bd df eb 90 bd
       0.06749927 0.107222244 -0.06737422 -0.07076239
0000a0 d7 3d d9 3b b4 1b 90 3a be 30 ad bd 8a 94 8c bc
       0.0066296863 0.0010994584 -0.084565625 -0.017160673
0000b0 04 34 e8 bd 9b a5 9f 3b 82 da 37 3d 10 51 88 bb
       -0.11338046 0.0048720366 0.04488612 -0.004160054
0000c0 0c e7 8c 3d 31 f3 e8 bd be 93 68 3d cf ad fe bd
       0.06880006 -0.1137451 0.056781523 -0.12435495
0000d0 1a 13 83 bd 53 b4 19 bd 79 79 56 bd 68 16 62 bc
       -0.06400128 -0.037525486 -0.05236194 -0.013799287
0000e0 ac dd 0b 3e e7 eb a8 3d c0 fa 76 bc d6 b6 b4 bd
       0.1365878 0.0824812 -0.015074432 -0.08823936
0000f0 32 29 59 3d e6 66 ba bd 6e 29 04 bd 1e 4d 71 bc
       0.053017803 -0.091016576 -0.032266073 -0.014727859
000100 55 ad 83 bd 34 d3 a6 3d de 27 a2 bc 81 e3 92 3b
       -0.06429545 0.081457525 -0.0197944 0.004482687
000110 ed 33 a3 3c 32 d3 d4 bc 91 51 ec 3d 82 e9 58 3c
       0.019922221 -0.025979612 0.11538995 0.013239266
000120 5b 2c 37 bd 1f 94 38 bd c1 ad b9 ba 22 35 49 bd
       -0.044720035 -0.045063134 -0.0014166163 -0.049122937
000130 df c4 43 3d 86 57 da bc c4 e3 16 bd ed e2 23 bd
       0.047795173 -0.026653063 -0.036838308 -0.040011335
000140 0e f3 b6 bb 3f fa dd bc 38 dd f6 3d b5 3d 69 bd
       -0.0055831736 -0.027096866 0.12053913 -0.056943614
