model_3.pth (torch, 261707 bytes, 22 tensors)

0.weight f4 [6, 1, 5, 5]
00000000: 878d 093e b964 793e 37d4 1cbe 6abc 76be
00000010: 24b4 1fbe 5bcf 353e 434a 3a3d 6aac 993d
00000020: dd53 0fbe 759e 4ebd e57b c83d 8ebd 7c3d
00000030: bf44 4abe e9d5 27be 3cf9 ebbd 769c 963d
00000040: 123e ec3d a764 953d 98b5 3dbe df3f 03be
00000050: a410 df3d 1c73 663e d48d 89bc b120 b53d
00000060: 188f dbbd 07c7 173e fe79 3f3e ec10 23bd
00000070: ff0c 813c 9a72 1bbd 4cdc d9bc e571 e4bb
00000080: 4d9e 89be ee0e 9abe 0661 92be 7a5b 6ebe
00000090: 89ce ddbe 5e71 b2be 4727 56be 5863 0b3c
000000a0: 222a 93bd 1569 53be 6ce5 69bd 71e5 d4bd
000000b0: 7466 fabc c3b2 5cbd 3298 173e ae67 153e
000000c0: 447d 8f3d 5ff6 323e 4318 583e b691 823e
000000d0: 1880 d23d d07a c13c 5b07 1c3e d96a a4bd
000000e0: d9ee 643d 402d 0ebe 096b 3ebe 3c29 28be
000000f0: 2a60 a03d 7e46 8f3d 6554 90bd 1536 0a3a
00000100: a151 3bbd dab5 8abd 2215 953a a460 4a3e
00000110: 3ad1 333e 5442 3cbb 6fad 78be f60c 14be
00000120: d263 513e 7538 b83e 953b 1f3e 37b8 eb3d
00000130: 0d1a 203d af0d b4bd 540f 9a3d b29a 8dbe
00000140: 44b7 5abe 5d78 383e d2c6 803e cbd6 d1bd
00000150: 6235 22be 7464 86bd 65e3 9ebc 97b8 133d
00000160: e4bb 163e 80a1 d5be cc32 b0bc ae16 233d
00000170: e871 483e 0bc2 a43d 90ce bbbe a5f6 14be
00000180: b593 003e b007 1c3e 235e 0fbe 7237 79be
00000190: 23d7 973e 111e 703e 66c7 a6bd cb3c 13be
000001a0: 067d f8bd e5d2 a93d 1863 7dbe 90f0 a7be
000001b0: f344 2abd fa3a d13d 04f9 b7bc 6f05 67bc
000001c0: 0f3b 00be 9299 363e deb7 df3d cc77 1bbe
000001d0: 8c35 f3bc e77d 113e 57fd 513d 74be 143d
000001e0: b8f1 7cbd 82a9 91ba 9dca 65b9 1e87 0b3e
000001f0: 3fdf 54be 6667 cbbc 03c7 4dbd 40f0 eabd
00000200: f877 f7bd 4746 39be 0572 b33c a60f ba3b
00000210: 903d 2abe 44b1 b4bc c772 303e 8b29 f83c
00000220: 921a 3f3d 2626 e33d 318f 503e c775 8b3e
00000230: 7d8b 283e 4cca 143e 386b 8e3e 5dbe 833d
00000240: b003 b1bd 02da 65be 1b42 25bd 7112 1ebe
00000250: b349 36be 5ed5 08be
0.13432895 0.24354829 -0.15315329 -0.24095312 -0.15596062 0.17754881 0.045480978 0.075035885
-0.13996835 -0.050444085 0.09789256 0.06170421 -0.19752787 -0.16390194 -0.11522147 0.07354061
0.115352765 0.072945885 -0.18526304 -0.12817334 0.10891846 0.22504848 -0.016791262 0.08844126
-0.10720652 0.14822017 0.1869888 -0.03981106 0.015753267 -0.03795109 -0.026594304 -0.006971585
-0.26878586 -0.30089515 -0.28589648 -0.23277083 -0.43321636 -0.34852117 -0.2091342 0.008507572
-0.071857706 -0.20645554 -0.05710356 -0.10395325 -0.030566432 -0.053881418 0.14804152 0.14590332
0.070063144 0.17476796 0.21103005 0.25501794 0.10278338 0.023618132 0.15237181 -0.08028192
0.055891845 -0.13884449 -0.18595518 -0.1642198 0.07830842 0.06995867 -0.07047347 0.0005272341
-0.045732144 -0.06772967 0.0011374096 0.19763428 0.17560282 -0.0028726058 -0.2428491 -0.14458069
0.20448235 0.35980573 0.15550072 0.115097456 0.039087344 -0.087916724 0.07522455 -0.27657086
-0.21358973 0.18014665 0.25151688 -0.10246047 -0.15840676 -0.06562129 -0.01939554 0.03606471
0.14720112 -0.41724777 -0.021508597 0.03981655 0.19574702 0.08044823 -0.36681032 -0.14547212
0.12556346 0.15237308 -0.14000754 -0.24337557 0.29656324 0.2344897 -0.08143501 -0.1437866
-0.12133221 0.08292178 -0.24744833 -0.32800722 -0.04156966 0.10216327 -0.022457607 -0.014100417
-0.12522529 0.1783202 0.10923742 -0.15182418 -0.02968862 0.14208184 0.051266994 0.036314443
-0.06175396 -0.0011113139 -0.00021914621 0.13625762 -0.20788287 -0.024829578 -0.05023862 -0.11471605
-0.12083429 -0.18093215 0.021904955 0.005678135 -0.16625047 -0.022057183 0.17231284 0.030293247
0.0466562 0.110912606 0.20367123 0.27238294 0.1645946 0.14530295 0.27816176 0.06432793
-0.086432815 -0.22446445 -0.040346246 -0.15436722 -0.17801552 -0.13362643

0.bias f4 [6]
00000000: 04a9 7cbd beeb 66bd 535f 4dbd 3626 743d
00000010: bb11 5c3e 13a5 2fbd
-0.061684623 -0.056377165 -0.050139736 0.059606753 0.21491139 -0.042882036

1.weight f4 [6]
00000000: 6551 d63f 66f3 da3f c114 883f 2350 b13f
00000010: 46c8 b73f 56a2 d33f
1.674359 1.7105529 1.0631334 1.3852581 1.4357994 1.6533916

1.bias f4 [6]
00000000: e7c3 3cbf e214 4cbf e0f7 333f 8ddc 73bf
00000010: 2b90 83bf b279 c43f
-0.73736423 -0.79719365 0.703001 -0.9525841 -1.0278372 1.5349638

1.running_mean f4 [6]
00000000: 96b1 5fbd f9c7 babd 188c 26ba 14ad 84bc
00000010: 4b94 5a3e c179 98bd
-0.05461272 -0.09120173 -0.0006353273 -0.016195811 0.21345632 -0.07445098

1.running_var f4 [6]
00000000: 865c 773f 18f3 5440 266c 283f 74a1 573f
00000010: d8c3 943e a34c c03e
0.96625555 3.3273373 0.6579002 0.8423073 0.29055667 0.3755847

4.weight f4 [16, 6, 5, 5]
00000000: 2a18 58be 8348 bcbe e7ed 5bbe 4c44 ecbc
00000010: f42c 9c3c 6089 69bd 4d03 78be 3411 a2be
00000020: 09ba c1bd afd8 f23c d697 0a3d 6e22 1b3d
00000030: 527d 50be ab54 d1bd 8730 003e 3158 943b
00000040: e861 2b3e 6377 903d 04b8 0cbe 170b 8f3c
00000050: f42b dfbd fd06 69bd f9d9 103e fabf fbbd
00000060: 1c7f 89be 928d cdbd 0f02 5ebc 4a3b 79bc
00000070: 566f 793d 9888 c43d bc56 51bd d2b4 9abb
00000080: 0d7c 44bd 18d2 183d afbd 883d eec2 4abd
00000090: f748 d9bc 9983 793d f73e 98bd 877c b1bd
000000a0: f71f bfbd dde7 723d 411a 313d 1630 313d
000000b0: 9f9f 06bd 0a8a c93d ca74 713c 5961 be3d
000000c0: a21c c63d d2c9 813d f643 cebd 8ea5 1d3d
000000d0: 3c4f aa3d f467 d03d f3a6 073d 1950 b7bd
000000e0: 3917 33bd e1e7 0dbc 0d67 683d 340a 2fbc
000000f0: 8e0e c2bd bbb5 89bd 3762 893d 860d 613d
00000100: 0657 763d bfa8 073d b789 ea3c c715 84bd
00000110: 56d6 4fbd 789b 173e bbac 3dbe 29b5 3bbc
00000120: e4ea bebd b39e c6bd ad40 813d 9d7d 863d
00000130: d099 fa39 9149 1c3d 8e24 423d 2df2 47bd
00000140: edfa 973d 9436 b1bd d8b9 c9bd 800f 9bbd
00000150: 7547 40bc b513 d73d cd3c 61bd 9917 adbd
00000160: 51f0 96bd 7170 d0bd 4c78 8e3d 51e7 89bd
00000170: fb10 42bc fcc3 92bd 4b88 a7bd ed86 193d
00000180: 2159 d63d 9ff6 1e3d 1718 98bd 4362 64be
00000190: fbb0 4c3d 34f8 cc3d 1243 f1bd f7cd 06be
000001a0: 41d2 cbbd bff2 ac3c 5a5c 5a3e 0af5 933e
000001b0: 42ae 003e cd44 6abd 932e 1dbd b1d2 023e
000001c0: 73f5 5a3e ee5f 473e d419 8ebd 292a b53d
000001d0: 1423 093d 7a3a 1c3e a9dc de3d 4827 73bd
000001e0: 84e1 bc3c f88f 8a3d 907d c13d 5f2d 5c3d
000001f0: 9695 c1bd aac5 67bc 080a debc 5b1e 313e
00000200: 0bcb a13d fbdc 693d be20 583d 743a 70ba
00000210: 41e1 e5bb c0fb 11bb ceb0 a7bd 54cd e93e
00000220: 9fcf 5d3e 71f4 583b 0586 c6bd e49a 0dbe
00000230: 38eb fd3e c27b 2c3e d6d0 493c 2e12 16be
00000240: 0ae8 8cbd ad7c 9a3e f954 dd3d ee67 c8bd
00000250: 24d0 14be 5b8c 38be 544d 013e 3886 883d
00000260: 9f0d fa3d 73a8 aa3d 957b bebc 01dc 4abd
00000270: d753 afbd dc05 bbbc 19a0 bb3d 32bb a53d
00000280: 6f38 98bd e5f2 cabd 6811 653c 402e 183d
00000290: 21f1 373d cb74 6d3c 5b27 03bd a055 0a3e
000002a0: 4af2 213e d100 193e e4a9 be3d 663e 01bd
000002b0: d0c9 483e 3006 3e3e a553 833d 001d b93c
000002c0: 2488 fb3d 2c6f 133e c6e3 103d 57c2 183d
000002d0: 779f 3a3e de62 213e c364 603e a97b 4e3e
000002e0: 6ff3 81bc 1568 083e 18e9 253e 31dd 353e
000002f0: 2de0 963d 9434 9f3d 9486 2d3e 16bc f03d
00000300: 2925 bd3d 1e8e 303e 483f 353d 1371 063e
00000310: 5a7a c13b fba8 033e cdbb 1a3e 8aa2 263e
00000320: 285d 8d3b 45e9 1e3e f505 fdba b663 96ba
00000330: 6c1e e5bb 50d3 94bd 2102 903d 4e6d 1a3e
00000340: 0be7 163e 34d4 323e 3b91 943d 0975 d4bc
00000350: 4d30 223c d289 ff3d d73f 933d 8934 cc3d
00000360: a96a ce3c b811 a4bc 24f4 11bc adbd bc3d
00000370: f338 d43d 2c25 613e 7161 673e 6aa9 263e
00000380: 1a17 1c3e 95ec 26bd 79ef ebbc 7ac5 ab3d
00000390: 27da 8e3b c2c4 a53d 1651 593c 2d6f 1b3a
000003a0: f29d aabb de8d 183d 40c4 3f3d d862 0b3c
000003b0: e760 89bd 4cd8 68bd ca2d 62bd 2af1 e83d
000003c0: bedb 9b3d 0fdc 0abd 7787 e1bd 66d8 c33b
000003d0: b6e5 933d da36 903c 3a5a acbd 5606 573d
000003e0: 7d67 b73c b3d7 1abb 6fb4 323e baf3 b43c
000003f0: adc4 eabd b027 c53d 43d7 e23c 8243 8eba
-0.21102968 -0.36774072 -0.21477471 -0.02884116 0.019064404 -0.057015777 -0.24220009 -0.3165375
-0.094593115 0.029644338 0.03383621 0.03787463 -0.20360306 -0.10221227 0.12518512 0.004527115
0.16736567 0.07054021 -0.13742071 0.017461343 -0.10897055 -0.05689143 0.1414565 -0.12292476
-0.2685479 -0.10036768 -0.0135502955 -0.0152118895 0.060897194 0.09596366 -0.051108107 -0.0047212625
-0.047969867 0.037309736 0.06676804 -0.049502306 -0.02652405 0.060916517 -0.074338846 -0.0866633
-0.09332269 0.059303153 0.04323793 0.04325875 -0.03286707 0.09840782 0.014737317 0.09295911
0.0967343 0.06337322 -0.10071556 0.038487963 0.08315894 0.101760775 0.0331182 -0.08950824
-0.04372332 -0.008661241 0.056738902 -0.010683585 -0.09475432 -0.067241155 0.06708186 0.054944538
0.060141586 0.033119913 0.02863012 -0.06449466 -0.050741516 0.148054 -0.18522923 -0.011456766
-0.093221456 -0.09698238 0.06311164 0.065669276 0.00047798315 0.038156096 0.047398143 -0.04881494
0.07420907 -0.08652988 -0.098499 -0.07571316 -0.011735787 0.10501806 -0.054989625 -0.084517665
-0.073700555 -0.101776965 0.069565386 -0.06733573 -0.011844869 -0.07166287 -0.08180293 0.03748219
0.10466219 0.038809415 -0.0742647 -0.22303109 0.04997347 0.100082785 -0.11780371 -0.13164507
-0.09952212 0.021111844 0.21324292 0.28897887 0.12566474 -0.05719452 -0.038374495 0.12775685
0.21382694 0.19470188 -0.0693852 0.08845932 0.03348072 0.15256682 0.10881931 -0.059363633
0.023056753 0.06765741 0.09447777 0.053754207 -0.094523594 -0.014146248 -0.027104393 0.17296736
0.079000555 0.05709551 0.0527656 -0.00091639836 -0.0070153777 -0.0022275299 -0.0818802 0.45664465
0.21661232 0.0033104683 -0.09693531 -0.13828617 0.4959352 0.16844085 0.012317857 -0.14655373
-0.068801954 0.30173245 0.10807223 -0.09785448 -0.14532524 -0.18022291 0.12627155 0.06666225
0.12209629 0.083329104 -0.023252288 -0.04952622 -0.08560913 -0.022829942 0.091613956 0.08092345
-0.07432639 -0.0990961 0.013981201 0.037153482 0.044907693 0.014493178 -0.032019954 0.13509226
0.15815082 0.14941718 0.09309748 -0.03155365 0.19608235 0.18557048 0.06412438 0.022596836
0.12281826 0.14397877 0.03537347 0.037294712 0.18224894 0.15760371 0.21913438 0.2016436
-0.015863148 0.13320954 0.162022 0.17760159 0.07366977 0.077737 0.16945869 0.117546245
0.09235603 0.17241713 0.044249803 0.13129072 0.005904478 0.1285743 0.15110703 0.16272941
0.0043140836 0.15518673 -0.0019304143 -0.0011473808 -0.006992152 -0.07266867 0.07031656 0.15080759
0.14736573 0.17463762 0.07254263 -0.025934713 0.009899211 0.12477459 0.07189911 0.09970958
0.025197344 -0.02002798 -0.008908305 0.09215865 0.10362425 0.21986836 0.22595765 0.16275564
0.15243188 -0.040752966 -0.028800713 0.08387275 0.004359502 0.08094169 0.013263961 0.0005929347
-0.005206817 0.03724467 0.046818018 0.008507453 -0.06707936 -0.0568469 -0.05521945 0.113741234
0.07610272 -0.03390127 -0.11012166 0.0059767244 0.07221548 0.01760428 -0.08415647 0.052496277
0.022388214 -0.0023627102 0.17451642 0.022088874 -0.11463294 0.096267104 0.027690535 -0.0010853859

4.bias f4 [16]
00000000: 8186 09be 5f08 1b3e a36a 693d 5728 cabd
00000010: 8ac0 fbbd 706e 473d bfe5 4f3e 3529 eebd
00000020: fd23 e43d fc21 533e 652e f3bd 79f0 943d
00000030: 5cab 2ebd 2ae6 e9bd 3900 303e ecc0 7fbd
-0.13430215 0.15139912 0.056986462 -0.098709755 -0.12292583 0.048689306 0.20302485 -0.11628953
0.11139677 0.20618433 -0.118740834 0.07272429 -0.04264389 -0.114208534 0.17187585 -0.062439844

5.weight f4 [16]
00000000: 8086 0d40 adb9 c73f ec72 fc3f 34ea c73f
00000010: a35f c83f 0bb0 3740 80bc f53f 1e13 d93f
00000020: 3f4c 1440 b8a5 bd3f d713 923f 3b3f 4140
00000030: 0341 1d40 6d71 e13f 332f cf3f 692d ef3f
2.2113342 1.5603539 1.9722571 1.5618348 1.5654186 2.8701198 1.9198151 1.6958959
2.3171537 1.4816198 1.1412305 3.0194843 2.457093 1.761274 1.6186279 1.8685733

5.bias f4 [16]
00000000: b09a aabe e6d3 56bf a73e 5f3f f8c8 773f
00000010: 34b9 a5bf c8c8 373f cecd a9bf d2c1 e0bd
00000020: f962 183f 290e 89bf 6cdc 0ebd 926d 593e
00000030: ae4c 4dbd ad94 063f 4573 963e 7ce4 8dbf
-0.33321142 -0.8391708 0.87204975 0.9679103 -1.2947145 0.7179074 -1.3265932 -0.10974468
0.5952602 -1.0707446 -0.03487818 0.21233204 -0.050121956 0.5257061 0.2938482 -1.1085353

5.running_mean f4 [16]
00000000: 849e 513e de3c 2b40 1021 423f 3bfd 2ec0
00000010: ceb5 4440 48cb 80bf fec3 1cc0 2c3d d73f
00000020: 28aa 113f fcbb dc3f e629 e9bf 2f3e 82bf
00000030: e940 a3bf 7bce 6bc0 6ed9 a3bf 8a7b bfbe
0.20470625 2.67559 0.758317 -2.734206 3.0735965 -1.0062037 -2.4494624 1.6815543
0.5690026 1.7244868 -1.8215911 -1.0175227 -1.2754184 -3.6844776 -1.2800729 -0.3739894

5.running_var f4 [16]
00000000: 6d37 4f3e 7639 bb3d 401d 713d ae0e b53d
00000010: 02c5 dd3d 4655 783e 6564 1b3e 05f7 f43d
00000020: d7d0 063d 6fad 383e 905d c33d 2eb7 a03e
00000030: 9096 903e e383 883d 0212 963d 68e5 153e
0.20235987 0.09141819 0.058865786 0.088406906 0.10828592 0.24251279 0.15175016 0.11961178
0.03291401 0.1803491 0.0953933 0.31389755 0.2823987 0.066657804 0.073276535 0.14638293

8.weight f4 [120, 16, 5, 5]
00000000: 33f1 53be d0cf 51be 1ea7 edbd 9565 00be
00000010: 6c54 2ebe 6f02 6cbd a15a 40be 5c9d e2bd
00000020: 4169 23be b4ba 03be c172 bd3d e2bf af3b
00000030: cbd2 bd3d 27e8 6f3d 9bdc adbb 5f83 463d
00000040: 86f3 4d3d ea70 8abb a1ee 14bd 02d5 153b
00000050: e62d 813d 1631 8cbd 6e7e d9bd c594 8dbc
00000060: 1b9c 14bb 3215 a6bd d987 093e 882a d93d
00000070: 7b16 bf3d 9abf 68bc ea80 28bb 554c acbc
00000080: 4e7c e83c 2858 cb3d e64f 833d ebb2 20be
00000090: 2a95 2cbc 3fbf 47bd d78a 2ebe 4e5e 33bd
000000a0: 66c3 be3d 03a4 983d 5bb2 37be 4e92 55be
000000b0: d64e 82bd 3ea7 26be 8922 06be f32b bbbd
000000c0: 8489 9ebd 6568 63bc 4d1c ebbd a7ed 203d
000000d0: e137 033d f751 433d da70 db3d 53a6 2dbe
000000e0: 2a53 0e3c 20fd 453d 31e6 183d 6361 da3d
000000f0: 5722 2abe 584d 143d 64bf 493d c337 99bd
00000100: 20b5 bbbd 2a7a 29bd d2e5 133d 7e62 d1bd
00000110: 886f 86bd c4e7 cc3d a081 b33d 7218 453e
00000120: 3d03 183d e26c a4bd 8944 b53d e29a bd3d
00000130: 485e 17be 39cc 84bd 317a 0c3d a32b 8a3b
00000140: 036f 3cbe 1712 0abe 25f9 11be d5ee 623d
00000150: 53f1 19bc 3d84 70bd 7237 083d 8ee2 be3a
00000160: e5db 1d3e 854c fc3d 033c 803e ec63 963d
00000170: f21b 933d 105c 503e fc70 7dbd 5e9e 0e3e
00000180: 25be 1e3e a062 053d 6cbc 243d cdaa aebd
00000190: 46ab b93c ee38 12bc 0bca 853c b9e7 be3d
000001a0: 3b5f 43bd 7f78 8a3c ca9b 4bbd b1d0 cbbd
000001b0: 5985 94bd 441b afbd c2e9 4d39 0668 de3d
000001c0: c72c b03c fa11 eabc 2b79 39be 032a 1d3d
000001d0: 347e f9bd e919 b9bb 4c98 253e 2f64 4d3d
000001e0: 1a90 40be c651 8ebe ced8 3fbd 7b13 b13c
000001f0: 89e9 033d 9d80 c2bc f49f 133d d050 e2bd
00000200: 92f8 00bd e156 16bd a4db 643c 58b7 abbd
00000210: 2ed8 12bd 2990 813d 25c8 ba3d 5720 5abc
00000220: e7e1 4fbe d2e2 113d 28e8 82ba b076 2f3c
00000230: 6bf6 99bd 7e2d 993b 2d37 c23c 50c2 9dbd
00000240: e25d 88bc ffb2 8ebd 1ec6 e23d 49bf ac3c
00000250: 60c2 e9bd 8f8f a03d a6c8 9d3c dd95 12be
00000260: 7be4 66bd 2c8e 98bd b09a 53bd aefe b9bd
00000270: 69ff 133d d08c 1abd 3ab8 f8bd 38d8 05be
00000280: 3cac 263e e986 323e 0214 babd df07 e7bd
00000290: bacb 393d 0ac3 193e 009d 22b9 bc9e 6ebc
000002a0: b4b3 e6bc d497 013d 805f 253d b43c 46be
000002b0: 5955 633d 9524 97bc cc75 06be dfeb 98bd
000002c0: 1b7f ed3c 76fc 46bb d9a3 263e 6854 2c3e
000002d0: fd19 82bd a57b b2bd 7c51 a4bb e3e3 0b3e
000002e0: 31d5 5d3b f288 71be ba9c b5bd aa4a d53d
000002f0: 9190 863d 2d32 b8bd 2cd4 22be 7848 d53a
00000300: 4e25 0e3e 711d 65bd b851 883d d407 8fbb
00000310: 114f 063c 6195 d03d a973 1a3e 9c72 0d3d
00000320: c78d 9ebd b067 78bd 9bb6 083e aa66 0f3e
00000330: 6b23 503e ce9a 733d 5994 383e 81f4 303e
00000340: 1e1b 003d 870c 303e 2394 9a3d 63ae d23d
00000350: 7b73 c5bd bc6d 33be 305a 64bd e95b 3fbd
00000360: 5ebc 35be 7a56 96be 611f 88be 1764 e2bd
00000370: 9ee9 5dbe 82b6 05be d4d2 81bd 74c5 59bd
00000380: 4cd9 d4bd d5a5 613d c0bd 39bc 1765 3b3e
00000390: 3e2b 28be 8177 2bbe 2b19 4fbd ef6a 11bd
000003a0: 3f38 7c3d 4916 18bd 3f94 30bb e23a 2cbd
000003b0: 0312 d23d 03fd 94bd 96c8 183d 3dc5 5abd
000003c0: e697 313e 59a4 eabb e626 83bd e32d c5bd
000003d0: 3b08 86ba 1958 26be 5587 a0bd 325f 27bc
000003e0: 3441 16bd 6b15 66bc 05cb 45be 8ae9 0b3d
000003f0: e61e 95bd f2f8 e2bd 7cb1 b2bd 220d b7bd
-0.20697479 -0.2048943 -0.11604141 -0.1253875 -0.17024392 -0.05761951 -0.18784572 -0.1106517
-0.1595812 -0.1286419 0.09250403 0.0053634504 0.09268721 0.058571007 -0.0053058392 0.04846513
0.05028107 -0.004224886 -0.036360387 0.0022862558 0.063075826 -0.068453 -0.10619818 -0.017282853
-0.0022676054 -0.081095114 0.13430728 0.10603815 0.0933046 -0.014205838 -0.0025711604 -0.021032492
0.028379586 0.09928924 0.06411724 -0.15693252 -0.01053361 -0.04876637 -0.1704515 -0.043791108
0.09314613 0.07453158 -0.17939131 -0.20856592 -0.06362693 -0.16274735 -0.13099112 -0.09139242
-0.07741073 -0.01387987 -0.11480007 0.039289143 0.032035712 0.04768559 0.10714884 -0.16957979
0.00868682 0.048337102 0.037328903 0.10663106 -0.16614662 0.036206573 0.04925479 -0.07481339
-0.09165406 -0.04137627 0.036107846 -0.10223864 -0.06564242 0.10005143 0.087649584 0.19247606
0.037112463 -0.0802858 0.08850963 0.09258057 -0.14782059 -0.06484265 0.03429622 0.0042166277
-0.18401723 -0.13483463 -0.14255197 0.05540355 -0.009395915 -0.058719862 0.033256 0.0014563368
0.15415914 0.123192824 0.25045785 0.07343277 0.071830645 0.20347619 -0.06187533 0.139276
0.15502222 0.03256476 0.040218756 -0.085286714 0.022664677 -0.008924706 0.016331693 0.09321541
-0.04769824 0.01690316 -0.04970912 -0.09951914 -0.072519965 -0.085501224 0.00019637405 0.10859685
0.021505727 -0.028573025 -0.18112628 0.038370144 -0.121822745 -0.0056488407 0.16171378 0.05014437
-0.1880497 -0.27796763 -0.04683762 0.021615734 0.03220514 -0.023742968 0.036041215 -0.1105057
-0.031487055 -0.036703948 0.013968382 -0.083845794 -0.035850696 0.063263245 0.09120206 -0.0133133745
-0.20301019 0.035616703 -0.0009987401 0.01070945 -0.075177036 0.0046746125 0.02370795 -0.07703078
-0.01664633 -0.069677345 0.11072944 0.021087306 -0.11414027 0.07839882 0.019260716 -0.14314981
-0.05637024 -0.07448992 -0.051661193 -0.090817794 0.03613225 -0.037731946 -0.121445134 -0.13070762
0.1627664 0.17434277 -0.090858474 -0.11280798 0.045360304 0.15015808 -0.00015508011 -0.014564212
-0.028161861 0.031638935 0.04037428 -0.19359094 0.055501316 -0.01845006 -0.13130873 -0.07466864
0.028991273 -0.003036288 0.1627344 0.16829073 -0.06352613 -0.087149896 -0.0050145965 0.1366115
0.0033848996 -0.23587397 -0.08867784 0.10414632 0.065705426 -0.08993945 -0.1590125 0.0016272208
0.13881418 -0.05593628 0.066562116 -0.004364947 0.008197562 0.10184742 0.15083183 0.03453313
-0.07741886 -0.06064576 0.13350908 0.14004007 0.20326011 0.059473805 0.1802534 0.17280771
0.03127586 0.17192279 0.07547786 0.10287168 -0.09641167 -0.17522329 -0.055750072 -0.04671851
-0.17747638 -0.2936285 -0.2658644 -0.11054247 -0.21671149 -0.13057902 -0.063390404 -0.05316682
-0.103930086 0.05508979 -0.011336744 0.18300281 -0.16422746 -0.16744806 -0.05056111 -0.03550237
0.061577078 -0.037130628 -0.002694383 -0.042048343 0.10257342 -0.07274821 0.03730067 -0.053410757
0.17343101 -0.007160705 -0.06403904 -0.09627893 -0.0010225842 -0.16244544 -0.078383125 -0.010215567
-0.036683276 -0.014043192 -0.19315727 0.034158267 -0.07281284 -0.11082639 -0.08725259 -0.08938052

8.bias f4 [120]
00000000: e727 0bbd ba4b 2b3d 4a73 0d3d 6ac3 063c
00000010: f811 0b3d 4153 c3bc 9405 1cbd 9686 e0bc
00000020: 3373 a33c 5585 c53c e5a7 1fbd 4e81 9bbc
00000030: 1d73 9e3c b345 5e3c 7f5a 85bb 0501 90bc
00000040: 8128 a6bc 5255 84bd f625 0a3c 1991 d3bc
00000050: 407a 38bb c361 7c3d aa56 3d3c 3054 213c
00000060: bc69 23bd c0ca d03c f953 3e3d 73fa 373d
00000070: be41 0d3d 7ad8 8bbc 7da6 5bbd 8b65 5abc
00000080: 5a9c 4fbd aa15 843b a816 80bc 55ef 923c
00000090: 4ee6 dfbb 73ca 40bc 834f d13c 82b0 4cbd
000000a0: ed06 5abc 5ae3 21bc 8d09 47bc 1689 8d3c
000000b0: 26db d33b 9058 823d 56b2 2cbc ab1a 033d
000000c0: 16a8 27bd 6431 1dbd c38d 71bb a4be 1e3d
000000d0: 9ec0 553d a3b6 b43c 01a8 1d3d 720b 693b
000000e0: 646f bdbc 6cd8 1f3c 126f 0f3c 3b0c 953c
000000f0: 766d e33c 41cd 07bc 6394 12bc 950f be3c
00000100: 3ffc 713c 8c30 1e3c 79b0 98bc d329 e73b
00000110: 0a17 ee3b 7ac4 c93c 3a97 85bd 963d 053d
00000120: 0b96 f3bc 77c8 44bd 7b8e 473d 4ece 983c
00000130: d335 6a3c a145 2dbd 32e2 1abd 7455 573d
00000140: 6452 793c 0218 cf3c fcda 623d 9ebf 633c
00000150: 9f0c 14bd 7655 693c 4570 1fbd 52cf c238
00000160: 7913 d23c 5dc8 6f3d 6b98 933c dc36 f53c
00000170: 6481 583b cced ff3c 8ecb 993c 8df8 083d
00000180: 7f69 d9bc d2c7 c43c 2588 4bbd 252a b93c
00000190: 499b 2f3c 05fb d03c b524 20bd 682f 573d
000001a0: b4b8 983c 0cc8 333d 519a 25bc 10d5 e03c
000001b0: 5ca9 2f3d 72b2 183d 3753 04bd 5e05 66bd
000001c0: e0f7 32bd 6ef4 8d3c be68 d5bc 89af be3c
000001d0: fbb1 c63c 302c a43c 7ab8 a63c c3d0 9e3d
-0.0339736 0.041820265 0.034533776 0.008225301 0.033952683 -0.02384341 -0.038091257 -0.027407926
0.019952392 0.02411143 -0.038978476 -0.018982556 0.019342 0.013566422 -0.004069626 -0.017578611
-0.020282986 -0.06461586 0.008431902 -0.025826024 -0.0028149039 0.06161667 0.011556307 0.009846732
-0.039895758 0.025487304 0.0464668 0.04491658 0.034486525 -0.017070998 -0.053625572 -0.013329874
-0.050686218 0.004030903 -0.015635803 0.017936388 -0.0068328744 -0.011767018 0.02555061 -0.04997302
-0.013307315 -0.009880865 -0.012148273 0.017277282 0.0064653335 0.06364548 -0.0105405655 0.032007854
-0.040931784 -0.03837718 -0.0036858178 0.038756028 0.052185647 0.022059744 0.0384903 0.00355598
-0.023124404 0.009756189 0.008754509 0.018194309 0.027762156 -0.008288682 -0.008946511 0.02320079
0.014769613 0.009655129 -0.018638836 0.0070545464 0.00726593 0.02462982 -0.06522985 0.032529436
-0.029734632 -0.04804274 0.048719864 0.018653061 0.014295059 -0.04230273 -0.037813373 0.05257173
0.015217397 0.025280003 0.05538462 0.013900666 -0.03614485 0.014241567 -0.038925428 9.289257e-05
0.02564405 0.05854069 0.018017014 0.029933386 0.0033036107 0.03124132 0.01877382 0.03344016
-0.026539562 0.024021063 -0.049690384 0.022603104 0.010718175 0.02551032 -0.039097507 0.052535444
0.01864276 0.04389195 -0.010107593 0.027445346 0.042886123 0.037279554 -0.032305922 -0.056157462
-0.043693423 0.017328467 -0.026050922 0.023277061 0.02425479 0.020040601 0.020351637 0.07754662

9.weight f4 [120]
00000000: 6c3a 1f40 9e6c 3740 6178 1840 d03c 3040
00000010: b0a6 1140 8d02 2a40 7c75 3540 fb70 0740
00000020: 035a 3440 de6a 0f40 001d 1b40 0eba 1f40
00000030: c605 1040 9771 2740 c45c 2540 1c02 2840
00000040: 9bd2 3940 045b 2f40 8dc2 2640 1112 1c40
00000050: e469 1b40 d218 2140 03c1 0b40 5abe 0640
00000060: 6e1c 2540 18a5 2840 58bd 3740 f69d 1740
00000070: 16de 2240 e401 2c40 6f27 1740 7c2b 2d40
00000080: 8ffe 0440 dbbe 2940 861f 1540 abcf 0440
00000090: 8314 1840 f210 2440 0350 2040 b07b 3640
000000a0: 15fe 1140 7161 2b40 2fc5 1c40 c5d6 2d40
000000b0: 2945 2140 fa8e 1440 0eec 2840 6c64 3240
000000c0: 2539 2940 036a 2a40 d8cc 2940 a527 2240
000000d0: c073 0640 3d64 2f40 974a 1040 faf3 1c40
000000e0: a803 2b40 df26 4940 b456 2040 4667 3540
000000f0: 67c2 0f40 0b84 2f40 26b0 1540 9432 1a40
00000100: 1d77 2840 ae1d 2b40 8c57 3340 d2ec 0640
00000110: 1323 1440 b837 5740 72a1 1c40 0890 1d40
00000120: 47be 1240 df4c 0c40 b6c7 0440 4a88 1940
00000130: 9bc6 1940 d24b 3840 02fd 2d40 57ed 1c40
00000140: fe29 4b40 6a2f 0f40 41b0 4540 6089 1b40
00000150: ae93 2240 92a5 4240 9e77 4340 4066 3840
00000160: c3ff 2240 e56a 2740 37bf 3f40 24c8 1440
00000170: ca56 2840 6dc8 2640 a9ad 3b40 127f 2140
00000180: b850 2240 d42a 3740 69f2 2140 3ad0 2a40
00000190: 8ced 0d40 d809 2640 948e 1140 60fc 4a40
000001a0: 1859 2840 67a7 1d40 703d 2b40 937e 4440
000001b0: e0f5 2a40 c288 1d40 dc76 3640 7b76 2d40
000001c0: 6bed 1d40 8ca3 0b40 756e 0b40 a9b8 2040
000001d0: 251e 2440 3118 3d40 6c0b 2a40 a0cc 2c40
2.4879408 2.8660045 2.3823473 2.7537117 2.2757988 2.6564057 2.8352957 2.1162708
2.8179939 2.2408977 2.423645 2.4957309 2.2503524 2.616308 2.583787 2.6251287
2.9034793 2.7399302 2.6056244 2.4386027 2.428338 2.51714 2.1836555 2.1053681
2.5798602 2.6350765 2.8709316 2.3690162 2.544805 2.6876154 2.3617818 2.705779
2.078037 2.652274 2.330049 2.075175 2.376252 2.5635343 2.5048835 2.8512993
2.281133 2.6778224 2.4495351 2.7162335 2.5198462 2.3212266 2.6394076 2.7873793
2.6441128 2.6627204 2.6531277 2.5336697 2.1008148 2.740493 2.2545526 2.4523911
2.6720982 3.1429975 2.505292 2.8344283 2.2462404 2.7424343 2.3388762 2.409337
2.63227 2.6736865 2.8022184 2.1082044 2.3146408 3.3627758 2.4473538 2.461916
2.2928636 2.1921918 2.0746894 2.3989434 2.402747 2.8796277 2.7185674 2.451986
3.174438 2.237269 3.0888827 2.4302597 2.5402637 3.0413556 3.0541759 2.8812408
2.5468605 2.6158993 2.9960458 2.3247156 2.6302972 2.605983 2.9324744 2.5233808
2.5361767 2.861989 2.5304205 2.6689591 2.2176237 2.5943508 2.2743273 3.1716537
2.6304379 2.4633424 2.6756248 3.0702255 2.671257 2.461472 2.8510046 2.7103565
2.4676158 2.181857 2.1786168 2.5112708 2.5643399 2.9546015 2.6569471 2.6999893

9.bias f4 [120]
00000000: 7cd7 3cbd 30c3 4c3e a1bf 623e 1d2f e4be
00000010: 7bab 24be 506c a53d bef0 fcbc 2b4b 25be
00000020: aef1 ccbc f183 2cbe 5e4e 4dbe 3504 8cbe
00000030: 72fa 43be ba2d 19bd 6587 2fbc ec25 5bbe
00000040: 9259 11be 4fd6 8abe 8d7d 3abe 26f7 2bbe
00000050: 70ed 64be 64c1 393d 3417 f03a 1cd1 d8bd
00000060: 882e 0ebe 8dcc ee3c 909d 08be ec19 8dbe
00000070: 6ce2 cdbe 1950 c9be d5fc 3abe e45d fabe
00000080: 42d6 f7bd a844 30be c4c9 41be e17c 38be
00000090: c732 b7bd acef 4c3c 52a4 403e ba47 323e
000000a0: 5755 3abd 8e96 763d e134 033e ca6e 6bbd
000000b0: 270a 68be 1c95 bf3d 8671 38be f7a7 23be
000000c0: 0134 70be 8acc 643e 3688 33be ec37 a5be
000000d0: 36e6 80be 5c4a 24be 79e0 54be bb2e c6be
000000e0: 364d e23d d35f c8be a859 423d d2eb 0dbe
000000f0: 8598 813d 24dc 423c d7d2 85be 3a1a 143e
00000100: ab5f 03bf 9749 72be f0c9 60bd 480d f4bd
00000110: cf42 8bbe 9b65 bebd f652 21be 4c82 e5bc
00000120: ea26 9ebe 9414 babd efc1 41be 8308 99bc
00000130: ed2a 74be 5699 8b3d 3873 9cbe 7e72 1bbe
00000140: 404c 04bf 1f0d 363c 7904 99be 5312 0dbe
00000150: f397 fd3d 4ebb 14bc 3fb9 0bbe 752d 0e3e
00000160: 1bff 2dbe 6361 c4bd 0ecd 0ebe 8667 e5bd
00000170: f363 ffbd 9852 4dbe ee78 9d3e c1d0 9abe
00000180: d4e6 86bc be01 2d3d b579 673d 61f6 8dbe
00000190: d9d3 86bb 180d 08be 99c8 a7be ac8a 66be
000001a0: 545b 893c 70b5 19be a2b1 eebc e07f 91be
000001b0: c3aa 533e f50f 303c 41a1 b33e 71b3 00bf
000001c0: 46ac c7be 078a 2dbe 2b8a d8bd 4797 e03d
000001d0: 2424 eabe 2fe2 da3d 6c59 9fbd c6ce 5abe
-0.04610394 0.19996333 0.22143413 -0.44567195 -0.1608104 0.080772996 -0.030876514 -0.16141956
-0.025017586 -0.16847207 -0.20049426 -0.2734696 -0.19138506 -0.037397124 -0.010713433 -0.21401185
-0.14194325 -0.2711663 -0.18211956 -0.16793498 -0.223562 0.045350447 0.0018317462 -0.105867594
-0.13884938 0.029150272 -0.13341355 -0.2755884 -0.4021181 -0.39318922 -0.1826051 -0.48899758
-0.12101413 -0.1721369 -0.18924624 -0.18016388 -0.08945232 0.012508314 0.18812683 0.17410174
-0.045491543 0.060202174 0.1281314 -0.057478704 -0.22660123 0.09354612 -0.18012056 -0.15982042
-0.23457338 0.2234365 -0.17532429 -0.32269228 -0.25175637 -0.16043991 -0.20788755 -0.38707528
0.11049883 -0.39135608 0.047448784 -0.1385949 0.06327919 0.011893306 -0.2613742 0.1446313
-0.5131785 -0.23660885 -0.054880083 -0.11916596 -0.27199408 -0.092967235 -0.15754303 -0.028016232
-0.30889064 -0.09085956 -0.18921636 -0.018680817 -0.238445 0.06816356 -0.30556655 -0.15180394
-0.5167885 0.011111527 -0.29886225 -0.13776521 0.12382498 -0.00907786 -0.13644885 0.13884528
-0.16991846 -0.095888875 -0.1394541 -0.11201386 -0.12470236 -0.20051038 0.30756325 -0.30237392
-0.01646749 0.04223799 0.056512553 -0.27727035 -0.0041146097 -0.13286245 -0.3277023 -0.22513837
0.016767181 -0.15010619 -0.029137436 -0.28417873 0.20670609 0.010745992 0.35083964 -0.50273806
-0.38998622 -0.16947185 -0.105732284 0.10966354 -0.45730698 0.10687672 -0.07780728 -0.2136794

9.running_mean f4 [120]
00000000: fb45 bb3e 8040 a7bf 842f 4b40 1c79 83bf
00000010: b633 2bbe 3d4b 09bf d62f c6bf e0a4 f5bf
00000020: c268 6c3e ed04 e13f 6876 123e 9bc3 6340
00000030: 4fa1 bcbf ea19 a43e 5232 293e 9cbd b23f
00000040: 2162 19bf c1ee 713f 3752 82bc 9778 42bf
00000050: 4192 993f 9f1f 8bbe 3cae 603f 62c9 af3e
00000060: c2bd a7bf a24f 4b3f d360 2bc0 a6c0 18bf
00000070: 63d5 a2be bd41 d93f d7eb 09bf 1280 39bf
00000080: 2bcf 1340 3f2d 4abf 837c 6f3f b1c1 333e
00000090: 92a3 06c0 103a df3f 07d3 33c0 d2a0 c6bf
000000a0: f803 bd3f 9f81 28c0 303e 38bf e57c 2dc0
000000b0: 36e0 6b40 65c9 853e 800a 0f3f ee54 9a3f
000000c0: a59b 80be 5976 3cbf 31bb 0ebf d4f3 c9bf
000000d0: 2469 1640 a172 a3bf a14d 173d 1807 bc3f
000000e0: 86cd 67bd 65aa 8240 e47a efbe 0550 bfbe
000000f0: c990 a3be c455 f63f f0a8 9a3f 6e97 ed3f
00000100: c596 ed3f 841d 8940 e063 873f ca54 cd3f
00000110: 1002 053f efaa 893f ed2b 843f d220 01c0
00000120: dd8b 4f3f 4785 f7bf 04d6 83c0 90b0 54bf
00000130: 2a83 67bf 8e0d 12c0 2e64 e23e 69bd 86c0
00000140: 06aa 0c3e 8d3b f83e 7321 60be cb0f 733f
00000150: aea3 be3f 5f46 a8be f636 563e 409c bbbe
00000160: 3fc3 c4bf d9e1 c2bf da10 8240 6d8c debf
00000170: a49b 46bf 39cb c53e efb8 87be a7bf d33f
00000180: 4722 023f 6cc0 e3be 5510 17bd 8ffb 8f3d
00000190: 48ca 1c3e 6b63 f9bf cb3d 4f40 a8f1 5d3f
000001a0: e61a c5be f2df 9dbf 58fb 3bbf f28d 783f
000001b0: d4db 28c0 628c 74c0 b2e7 93be 3f55 9f3e
000001c0: b248 2bbf b80b 4a3f 143f 993f 8e38 94bc
000001d0: a186 903d 7797 17c0 91e6 b9be 0997 b03f
0.36576828 -1.3066559 3.1747751 -1.0271335 -0.16718945 -0.5363043 -1.5483348 -1.9190941
0.23086837 1.7579628 0.14302981 3.5588138 -1.4736727 0.3205102 0.16523102 1.3964114
-0.5991536 0.94504935 -0.015908344 -0.75965255 1.1997758 -0.27172562 0.8776586 0.3433333
-1.3104784 0.79418385 -2.6777847 -0.5966896 -0.31803426 1.6973187 -0.5387549 -0.72461045
2.3095195 -0.7897529 0.93549365 0.17554356 -2.1037335 1.7439594 -2.809755 -1.5517828
1.4766836 -2.6329114 -0.7196989 -2.710748 3.6855597 0.26130214 0.55875397 1.2057168
-0.25118747 -0.73618084 -0.5575438 -1.5777535 2.3501673 -1.2769357 0.036939267 1.4689665
-0.056592487 4.0833 -0.46773446 -0.37365738 -0.319464 1.9244924 1.2082806 1.8561838
1.8561636 4.284853 1.0577354 1.60415 0.5195627 1.075529 1.0325905 -2.0176282
0.8107279 -1.9337548 -4.119875 -0.83081913 -0.90434515 -2.2820773 0.44217056 -4.2106214
0.13736734 0.48482934 -0.2188776 0.94945973 1.4893701 -0.3286619 0.20919403 -0.36642647
-1.5372084 -1.5225173 4.064557 -1.7386605 -0.7758124 0.3863161 -0.2650828 1.6542863
0.50833553 -0.44482744 -0.03688081 0.07030403 0.15311539 -1.9483465 3.2381465 0.86696863
-0.38497084 -1.2333968 -0.73430395 0.9709159 -2.6384172 -3.8210683 -0.28887707 0.31119725
-0.669078 0.7892413 1.1972375 -0.018093374 0.070569284 -2.3686197 -0.3630872 1.3796092

9.running_var f4 [120]
00000000: be23 473f 5e81 103f 95a9 113f fae2 133f
00000010: 428a 273f b35d 6e3f 0398 f83e cff9 103f
00000020: a58b 443f 3cc0 163f 0cc0 b43e 0999 303f
00000030: bbf7 3b3f f779 053f 3d8c 3c3f b9bd 273f
00000040: a23b 5b3f 5ea7 383f fc2a 0a3f 35bd f03e
00000050: adea 363f a39a f43e 3d19 493f 3a90 e53e
00000060: 41e8 1c3f c771 5e3f 726e 063f 6fe9 433f
00000070: fe31 3f3f a0ba 1f3f 2fb3 113f db79 0e3f
00000080: f915 163f 026d 1c3f 4af9 2b3f 75be ff3e
00000090: 8753 da3e 9ba8 ee3e dfb5 3c3f 5527 6b3f
000000a0: bc45 fc3e 6f11 033f 0456 273f a138 433f
000000b0: 2548 8f3f 9ded 0c3f 0690 4f3f 4150 603f
000000c0: 41d8 563f b9ad 3d3f 8f1b 0f3f 2c24 543f
000000d0: b832 0c3f 05db fa3e c231 243f dbf0 bd3e
000000e0: 3b47 623f 6ee9 323f 3bd3 5f3f 424d 163f
000000f0: cd35 203f 4a05 7f3f e523 1c3f 350a 983e
00000100: 956f 673f 7941 253f 5ab7 2e3f 8148 c13e
00000110: 4adc ff3e 5a28 4e3f a740 583f 58b8 f53e
00000120: 264e 213f 6411 1c3f 3118 513f 274e 003f
00000130: 86b6 f93e dcd2 523f cb84 4a3f 5727 d83f
00000140: a7a4 7e3f fa29 643f ab5f 243f b4de 3c3f
00000150: 59ab 323f a4ec 7b3f 6189 6d3f d3c7 2a3f
00000160: 7499 0d3f 1deb 173f 6777 283f 2375 763f
00000170: 46b4 6d3f bb1c de3e f280 033f 8241 1b3f
00000180: c372 903f ed8a 633f 716c 553f e24d e93e
00000190: 446a 283f 0e80 923f e170 873f 642a 693f
000001a0: c450 653f ff9e 043f f0b6 3a3f 6863 2a3f
000001b0: f306 053f 32f8 8a3f 59f4 283f a4c6 183f
000001c0: db5a 203f c26f 233f c00b 783f 9390 e73e
000001d0: 3fb4 0f3f ce30 303f 3f9b 583f 4600 183f
0.77788913 0.564474 0.56899387 0.57768214 0.6544534 0.93111724 0.48553476 0.5663118
0.7677558 0.58887076 0.3530277 0.68983513 0.7342488 0.5213923 0.73651487 0.6552387
0.8563787 0.7213038 0.5397184 0.47019354 0.71451837 0.47774228 0.78554136 0.448366
0.6129189 0.8689236 0.52512276 0.76528066 0.7468566 0.6239414 0.5691404 0.55654687
0.5862728 0.6110383 0.6717726 0.49949995 0.4264185 0.4661301 0.73715013 0.9185689
0.49271953 0.51198477 0.65365624 0.76258284 1.1193892 0.5505007 0.8107914 0.8762246
0.8392373 0.74093205 0.55901426 0.82867694 0.5476489 0.48995224 0.64138424 0.3709782
0.8838994 0.69887435 0.8743169 0.58711636 0.62582093 0.99617445 0.6099227 0.29695287
0.90404636 0.6455303 0.6824852 0.3775063 0.49972755 0.8053032 0.8447365 0.47992206
0.6300987 0.60964036 0.8167754 0.5011925 0.48772067 0.82352996 0.79108876 1.6887006
0.9946999 0.8912655 0.6420848 0.7377732 0.69792706 0.9840796 0.9278775 0.6671116
0.55312276 0.5934313 0.65807194 0.96272486 0.928532 0.43381295 0.5136863 0.6064683
1.1285022 0.8888386 0.83368593 0.45567232 0.6578715 1.1445329 1.0581323 0.9108031
0.89576364 0.5180511 0.7293539 0.6655793 0.5196373 1.0856993 0.65997845 0.596781
0.62638634 0.63842404 0.9689293 0.4522749 0.5613441 0.6882447 0.84611887 0.5937542

12.weight f4 [84, 120]
00000000: 5233 76be 8a62 bd3e c8eb 15be 5c06 90be
00000010: 8c7c 073e 161f 13be 68f6 6cbe 94a5 0f3e
00000020: 9304 9a3d 8851 40bd e47e a33e c177 f5bd
00000030: 391a 783e c131 8e3e 43b3 0abe 11cc c23d
00000040: b0a4 0c3e 5991 6fbc 9236 76be 2aa3 be3c
00000050: fee9 cfbd 98b5 f53c 7560 21be 4e36 a93d
00000060: f552 1cbe 15da 2f3e 14c8 623c b4fe 2b3e
00000070: cf51 a63c 9a0b 4e3d 5930 843d 9bce 4e3e
00000080: a43f 08be ab6f c83e b34b c4bd 831d 613e
00000090: f610 68be 9b2a b1be 5b7b b63d ebeb 4f3d
000000a0: 92e4 6a3e 929c 48be f1f5 17bd 6455 4d3d
000000b0: 0f70 0b3e 5f06 8cbe 77e5 ef3c 795d 133e
000000c0: b9ba c23d a36c a53b 0234 96be 78d9 1d3d
000000d0: 9d13 3fbe 2a40 813c 4f67 683e e80f 86bd
000000e0: fc9b 47be 2ca5 8fbd 6064 503e 83c6 873e
000000f0: a6a3 043e c220 df3d 473a a13d 9ec5 35be
00000100: 231a a13e 16c6 66bd 8c25 55be 01d8 4fbe
00000110: 8407 e7bd a2ef 2b3d 433e c13e 57a7 38be
00000120: b291 163c c282 92bd 5079 023e c2e7 d23d
00000130: 63dd abbb 0a43 803d 04a9 2ebe b1a7 04be
00000140: a519 883e eb8a 803d 03d9 8dbc b15f dd3d
00000150: 6e4e a13d 3983 6fbe 9590 4ebe 201a ed3d
00000160: a0f4 93bc b103 1b3d 7d13 fdbe 9f94 273d
00000170: 3a1d 9f3d 8157 833e 91e1 91be d582 343e
00000180: 6e35 a33d b5a1 85be 5160 bfbe e0c2 393e
00000190: 3a6d c33d 126a 74be f70c 253e 06e8 893e
000001a0: 630e 1f3e da9c a33e d2ca 943d f334 a9be
000001b0: d691 c73e bfa4 da3d e111 babd 52ac b53d
000001c0: 237b b2bd 7645 8ebc d0e3 6abe da76 ebbd
000001d0: 1855 95be eb7d e5bd 34e3 e4bd 81f4 25be
000001e0: 450b f4bd 3431 c63c 02cf 45bd fed6 633e
000001f0: 0347 b8bd 3301 483d fd65 c33c a4d4 82bd
00000200: e828 f73d c93e 713e dbcf 97bd 04b0 04be
00000210: 0706 373e 999f 453e db6f fb3d 2722 d33c
00000220: ab03 7b3e 5cab 6d3e fe0b 1cbd 1926 563e
00000230: 934d e7bd a374 e93d dfbe 273d cff7 d73d
00000240: 2707 3ebe c5c0 04bd a1a6 953d 8461 813d
00000250: bcf4 ae3e eb74 ddbd a20f 633e 8fa5 293e
00000260: 896b 83bd 74c2 52be f0ea fa3d 24f3 f93d
00000270: 4d40 2f3e a313 b2bd c225 703e a3f3 09be
00000280: f8c4 b43d 1d49 84bd cd79 7f3d 3083 463e
00000290: bfa1 aa3d c442 4e3b 3b26 90be 6b25 b83d
000002a0: 7927 553d 38ac 30be 4417 ccbd 3ed5 0a3e
000002b0: f041 3ebe d2cb 283e c31c f9bd 2f73 fcbd
000002c0: bb23 ad3e 78ba 7dbe c1b5 b03e 52b5 0cbe
000002d0: eb01 8a3d e610 49be 8bef 19bd a3ad e0bc
000002e0: 9dca c83b 53fc 3fbd c89c 093d 5b99 23be
000002f0: df9d 40be 6aad 28be a87d 7d3e 9239 62be
00000300: bf41 66be 1b4a 3d3e 738e 1fbe ed62 5c3e
00000310: 56ca e13d 5152 223e efa7 6fba 0fba ab3d
00000320: 823a 3bbe f0a8 23be 843c 23be d41b 0ebe
00000330: 4c36 cebd 42b6 63be e020 773d ff86 b83c
00000340: 673d 84bd c901 c13d d71f d73c 82a2 313e
00000350: 2453 173d 490a 593e fb7d db3d a5d3 39be
00000360: 8a47 88bd 648b 5cbe 78cc bb3e e860 a8bc
00000370: 22d5 94bd 470c 2dbe 21fc 8bbe 6f04 87be
00000380: ada0 f03d 0073 c23d 6218 5a3c 2b06 af3d
00000390: 5e86 ba3d 7dab 6ebd be81 07be 58fd a53d
000003a0: 3c37 5cbd 90f3 4c3d bc74 0dbe 062b 683c
000003b0: b985 623e 5fa9 0fbe 276a 7f3e aa85 31bd
000003c0: a584 39bd 56dd 7a3e a091 dabc 7f8d 49be
000003d0: 7f1a 26be e879 493e aa29 523e 3520 3bbe
000003e0: b106 933e 99c5 bb3a 5a7d 6b3e e098 b7bd
000003f0: 2190 90bd 33f9 40be 3bd3 82be a8df debd
-0.24043015 0.36989242 -0.14640725 -0.28129852 0.13231105 -0.14367327 -0.23140872 0.14028007
0.07520404 -0.046952754 0.31932747 -0.11985732 0.24228753 0.27772334 -0.13544945 0.09511579
0.13734698 -0.014622056 -0.24044254 0.023271162 -0.10152052 0.029993817 -0.15759452 0.08262311
-0.1526602 0.17173035 0.013841648 0.1679638 0.020302681 0.050304033 0.06454534 0.20196001
-0.13305527 0.39147696 -0.09584751 0.21983914 -0.2266272 -0.34602818 0.08910247 0.0507621
0.22938755 -0.19590977 -0.037099782 0.050130263 0.13616966 -0.2734861 0.029284222 0.14391126
0.09508271 0.005048351 -0.29336554 0.038537472 -0.18659826 0.015777666 0.22695659 -0.065460026
-0.19493097 -0.07013926 0.2035079 0.2651864 0.12953052 0.1089492 0.07872444 -0.17751166
0.31465253 -0.056341253 -0.20815104 -0.20297243 -0.1128073 0.04197658 0.37742814 -0.18032585
0.00919001 -0.07153846 0.1274159 0.102981105 -0.005244897 0.06262787 -0.17056662 -0.12954594
0.26582065 0.062764965 -0.017315393 0.10809267 0.078762874 -0.23389901 -0.20172341 0.115772486
-0.018060982 0.037845317 -0.4942893 0.04091322 0.077692464 0.25652698 -0.28492406 0.17628033
0.07969175 -0.26099935 -0.3737817 0.18140745 0.09542318 -0.23868588 0.16118227 0.26934832
0.15532832 0.31955606 0.072652474 -0.3304821 0.38978451 0.10675954 -0.090854414 0.08870758
-0.08714893 -0.017367106 -0.22938466 -0.114972785 -0.29166484 -0.112056576 -0.11176148 -0.16206552
-0.11916212 0.024193384 -0.04829312 0.22249982 -0.089979194 0.04882927 0.023852343 -0.06388214
0.12068349 0.23559107 -0.07412692 -0.1295777 0.17873393 0.19299163 0.12277194 0.025773121
0.24513118 0.232099 -0.038097374 0.2091297 -0.11294093 0.113992 0.040953513 0.105453126
-0.18557416 -0.0324104 0.073071726 0.06317428 0.34171093 -0.10813316 0.22173932 0.16567062
-0.06416995 -0.2058199 0.12251842 0.122045785 0.17114373 -0.08695152 0.23451903 -0.13471846
0.08826631 -0.06459258 0.062372018 0.19385982 0.08331632 0.00314729 -0.28154168 0.08991512
0.052039597 -0.17253196 -0.09965375 0.13557908 -0.1857984 0.16484001 -0.12163689 -0.12326657
0.33816323 -0.24778163 0.34513667 -0.13741043 0.06738647 -0.19635352 -0.03758196 -0.027426546
0.006127669 -0.046871495 0.033596784 -0.15976469 -0.18810223 -0.16472402 0.24754965 -0.22092274
-0.22486018 0.184853 -0.15581684 0.21522112 0.11024921 0.15851714 -0.00091421505 0.08385097
-0.18284038 -0.15982413 -0.15941054 -0.13877803 -0.1006895 -0.22237495 0.060334086 0.022525309
-0.06457024 0.094241686 0.0262603 0.17347148 0.036944523 0.2119533 0.10717388 -0.18147142
-0.0665427 -0.21537548 0.36679435 -0.020554021 -0.07267214 -0.16899215 -0.27340797 -0.2637057
0.117493965 0.09494591 0.013311477 0.08546098 0.0910766 -0.058269013 -0.13233086 0.08104962
-0.053763613 0.050036967 -0.13814062 0.014170414 0.22121324 -0.14029454 0.24942838 -0.043340363
-0.045292515 0.24498495 -0.026680768 -0.19682883 -0.16221045 0.1967541 0.20523706 -0.18274005
0.28716043 0.0014325856 0.22997037 -0.089647055 -0.070587404 -0.18845062 -0.2555178 -0.10882503

12.bias f4 [84]
00000000: 88bc 6bbd 03ed 07bd b107 a83d fb4e 0a3d
00000010: 0e60 35bd c27c 53bd f575 6ebd 612f 583d
00000020: 142f 913c a59d dc3c 2235 5bbd 6caa 993d
00000030: 8dae ea3c 335c c8bc 98e2 3d3d 212b 82bd
00000040: ce0c 3abd 8631 9fbd 2cde d83c eb3d b4bd
00000050: 979e 183d f661 9a3d ceb8 643c 912c 3a3d
00000060: 8e2c 913d 655e 953b 6697 81bd daf0 833d
00000070: 2a31 693d e552 323a c06c 193c ec6b 91bd
00000080: c013 38bd c670 3f3d 5116 8abc 18ac 5f3d
00000090: e7fd 703d 8f83 8b3d d2ea a2bd 4724 73bd
000000a0: dfa0 4c3c 9200 b53c cd1b b7bd 44c9 c9bc
000000b0: 0283 a8bd 027b b9bc 4617 533b f4e4 b83a
000000c0: 0525 8b3d 8b35 9ebd c501 363c 9600 bdbd
000000d0: e441 8abd 9b57 79bc 9595 99bd ba81 ba3c
000000e0: 061b b73d 6889 5d3d f4ec 753c f2b1 a2bd
000000f0: c674 8c3d 6f3d 8fbc 6f69 ffbc 3acb 163c
00000100: e7e9 13bd ce01 773d 3b95 d0bc d2a4 373d
00000110: eec6 14bc 6a49 2fbb 5fed 9a3d ca77 0e3c
00000120: e657 55bd 8dd8 85bd c4a5 aebc 4aba 84bd
00000130: 040c 5a3d 75d4 23bc 60ac 65bd e91e 2ebd
00000140: 7246 00bc 02a1 e9bc 0cdd b93d 971a 84bd
-0.057552844 -0.033185016 0.08204592 0.033766728 -0.044281058 -0.05163265 -0.05821796 0.05277956
0.017722644 0.02693064 -0.05351747 0.075032085 0.028647685 -0.024458027 0.046358675 -0.063558824
-0.045422368 -0.07773118 0.026473127 -0.088008724 0.037260618 0.07538216 0.0139600765 0.045452658
0.07088576 0.004558372 -0.06327705 0.06442423 0.056931652 0.00068025134 0.009364307 -0.071006626
-0.04494071 0.04673841 -0.016856344 0.05460748 0.05883589 0.06812202 -0.07954945 -0.05936077
0.0124895265 0.022094999 -0.089408495 -0.024632104 -0.08228113 -0.022641663 0.0032209917 0.0014106319
0.0679417 -0.07725056 0.01110882 -0.092286274 -0.06750849 -0.015218641 -0.07499234 0.022766937
0.08940701 0.05408612 0.015010107 -0.079440966 0.0685821 -0.017485349 -0.031178204 0.009203726
-0.03611174 0.060304455 -0.025461784 0.04483492 -0.009080632 -0.002674664 0.07564806 0.008695552
-0.05208578 -0.065354444 -0.021319278 -0.06480844 0.053234115 -0.009999384 -0.056072593 -0.042509947
-0.0078292955 -0.028519157 0.090753645 -0.06450384

13.weight f4 [26, 84]
00000000: 3065 5ebe 3069 183e ffab 8f3d 7dd2 be3d
00000010: 948f aebd 60dc 68be b057 7d3e 69d2 c5bc
00000020: 205b c9be a597 bf3c bd27 92bd e8e6 2f3e
00000030: cf1b 4b3e 8fbe 74be 1f9c 27be 7450 ec3d
00000040: 974f ff3d 9586 4bbe a683 b1bb fa23 073e
00000050: 12ba f33d fee2 8dbe 5c1e b6bd 7901 e63d
00000060: b5dd ab3e b9ab a93e 3f5e 8bbe 86d6 633e
00000070: fffe 673e 2729 a2be bc0f 903e 81f0 b13e
00000080: f734 253e 216d bbbe 14a0 073e ee16 acbe
00000090: 88e3 0b3e 6170 9a3d 6e23 39bc cbed 75be
000000a0: 75b2 743d f3c5 43bb 55a6 153e 1436 503c
000000b0: 3fd8 edbd af43 27be d76a 2dbe 92a8 f43d
000000c0: b01e 6a3d 5401 adbe c915 97be 412f 09bc
000000d0: a830 203f 5afe 66be e71a 733c da7a eabd
000000e0: 57bf 72be 96ef e73d 6398 6c3d 4c96 723d
000000f0: f8ab 143e 04fb f33c 8f8e f23c 6cb6 b53e
00000100: 4436 2b3e 1e65 00be a54b 623e 1ceb d23d
00000110: aa22 883e fcc5 f4bc 5a76 0c3e 16ae 6f3a
00000120: 0ef5 113e 2fc1 45be e9e9 88be a948 563e
00000130: 5855 07be 8bfa 403d b560 03bf 12d6 a8bd
00000140: 9360 2e3e e157 b23d bbec 70be 7ae9 803c
00000150: aa05 193e d4c3 523e 347e 4fbd 0ca8 11bf
00000160: 9169 7abe 88c8 993e 45df 4b3e 17f0 943e
00000170: 05d4 74be 954c 433e 3818 e13c 9ff6 89bd
00000180: 501d 1bbe e740 983e 0742 c23e fc6e 21be
00000190: 93a8 1cbe d706 d3bd 5c90 24bf 11b4 6a3e
000001a0: d5ea 963d 458d 5d3e 84a3 b63d e166 e2be
000001b0: 8b14 92bc 269c 8ebd 9a1a a53d 9f84 99be
000001c0: 52ad 0e3d 1247 e6bd 052b 9dbe 79b4 dd3d
000001d0: f82d 083e aaba a83e 452a d73e 234c 693e
000001e0: 1fad 7a3d dcb5 943e 4fae ef3c 726f 84be
000001f0: 7b5c b1bc 9557 de3d 6430 e13e 4a9c 863e
00000200: d54c a1be b08b d7bc c368 523e 5f03 4dbe
00000210: 0124 25be c681 e13d 7814 703d 9754 88be
00000220: bfea c9bc 7fe2 1bbe f7e7 b03e 535e cf3e
00000230: 71a0 3b3e 8dc1 913e b148 b5be f84b 4e3c
00000240: c82b 13be 3f96 97be 6f40 12be 934b 72be
00000250: 83f5 2c3e 87f2 c63e 7887 cd3d 699f e6be
00000260: 99d7 7f3e 06e9 8abd 6113 4f3e 7f03 81be
00000270: ca38 ebbe 30bd a1bd b5de 673e 7a92 613d
00000280: 8407 58bc 9dc4 d03d a8b1 c43e 8b39 fbbc
00000290: 000c 29bd 5162 a23d 86d8 17be a9bd 06bd
000002a0: 17ab 8cbd b15e dc3d ed0e 993e 0c11 22be
000002b0: 8ef2 fd3e 01b9 13be e89a acbd 4ab6 8c3e
000002c0: 61e5 353e 43b5 ccbe 1ba9 183e bb07 283e
000002d0: 4ba6 be3d 220e 9a3e cf22 71be 248b bbbe
000002e0: 12ac a23e 3201 213b 0340 dc3e 86dc 2fbd
000002f0: d0b3 a13e 1b1a 31be e6f6 93be a130 4dbe
00000300: 3515 87be 5b50 2b3d 5f72 163e bc94 4d3e
00000310: dd47 aebc 18b9 233e 53d2 c63d fab8 573e
00000320: 1489 5bbe 1f8a 14be 34f1 cc3d 15f0 87be
00000330: 7360 dabe c9bb 31be 5c78 613e 2b36 3c3e
00000340: 1d62 ecbd 5b96 883d 588d 21bb 7215 d7bd
00000350: 9e73 4fbe 86e6 5d3e 97b9 e73c 616f 93be
00000360: 1b13 af3e 2934 023f 4a63 653e 652b 573e
00000370: f4aa 39be 8284 dd3d bf1f 16be a9ba 243e
00000380: e9e3 e3bd 4e94 11bf 4908 183e 0bc0 36be
00000390: db4a d53e a38a 53be 58f0 82be c1c0 aa3d
000003a0: 9678 a03e cac5 473e a1cf 5f3e 1590 273e
000003b0: bcff 123b 2c3c 7c3b 8a0b ffbd 7fc5 b73e
000003c0: 6580 0c3e 8875 9b3e 0502 1ebe bdef 1f3e
000003d0: 4e1f 46be 9cf1 d83d f144 0dbd 910e acbe
000003e0: d2fb 953e defa 19be d9a9 893d 6f04 af3e
000003f0: 4b0b da3e 84b5 9d3e 23cd 7fbe fb0b 7d3e
-0.21718287 0.14883876 0.070152275 0.09317491 -0.08523479 -0.22740316 0.24740481 -0.024148183
-0.39327335 0.02338774 -0.07136486 0.17177927 0.19834827 -0.23900817 -0.16368149 0.11538783
0.124663524 -0.19875558 -0.005417305 0.13197318 0.119007245 -0.27712244 -0.08892509 0.1123075
0.33567587 0.33138826 -0.27220342 0.22249803 0.22655867 -0.31672022 0.28137004 0.34753802
0.16133486 -0.36606696 0.13244659 -0.33611244 0.13661015 0.07540966 -0.011299951 -0.24016492
0.059740502 -0.0029872626 0.14614232 0.012708206 -0.11613511 -0.16334413 -0.16935287 0.11946215
0.057158172 -0.33790076 -0.29508808 -0.008373083 0.62574244 -0.22557965 0.014837957 -0.11449213
-0.23705803 0.11324994 0.057762515 0.059225366 0.14518726 0.02978278 0.029608993 0.3549074
0.1671992 -0.12538573 0.22099169 0.1029875 0.26588947 -0.029879563 0.13717023 0.0009143067
0.14253637 -0.19311975 -0.2674096 0.20926155 -0.1321615 0.047113936 -0.5131944 -0.08243956
0.17029028 0.08708168 -0.23527806 0.01573633 0.14943567 0.20582515 -0.050657466 -0.56897044
-0.24454333 0.30035806 0.1990939 0.29089424 -0.23909004 0.19072182 0.027477369 -0.06736492
-0.151479 0.29737017 0.37941 -0.15764993 -0.15298681 -0.10304039 -0.64282775 0.22920252
0.073690094 0.21635921 0.08917907 -0.44219115 -0.017832061 -0.06963377 0.080617145 -0.29983994
0.03483326 -0.11244024 -0.30696884 0.10825438 0.13298786 0.32954913 0.42024437 0.2278295
0.061200257 0.29044998 0.029257922 -0.25866276 -0.021650543 0.10856549 0.43982232 0.26291114
-0.3150393 -0.026311725 0.20547776 -0.20020817 -0.16127016 0.110110804 0.05861327 -0.26627037
-0.024648068 -0.1522312 0.34551975 0.4050165 0.18322922 0.2846798 -0.35407022 0.012591355
-0.1437217 -0.29606816 -0.14282392 -0.23661642 0.1689053 0.3885691 0.10035604 -0.45043495
0.24984588 -0.06782727 0.20222236 -0.2519798 -0.45941764 -0.07897413 0.2264355 0.05507133
-0.013185386 0.10193751 0.3841679 -0.030667087 -0.04127121 0.079289086 -0.14828691 -0.032895718
-0.0686857 0.107602485 0.298942 -0.15826815 0.49599117 -0.14426042 -0.084279835 0.27482826
0.17763282 -0.39982042 0.14908259 0.16409199 0.093090616 0.30088907 -0.23548435 -0.36629593
0.31771904 0.0024567363 0.43017587 -0.042934917 0.315825 -0.17295115 -0.28899306 -0.20038082
-0.26383367 0.04182468 0.14692067 0.20076269 -0.021274501 0.15988576 0.09708085 0.21066657
-0.2143901 -0.14505814 0.10006943 -0.26550356 -0.4265171 -0.1735679 0.2201857 0.18380038
-0.11542151 0.06669303 -0.0024650898 -0.10502137 -0.20258948 0.21669969 0.028286738 -0.28795913
0.34194264 0.5086084 0.22401157 0.21012647 -0.1813162 0.108162895 -0.14660548 0.1608683
-0.11127455 -0.5686692 0.1484691 -0.17846696 0.41658673 -0.20658354 -0.25573993 0.08337546
0.31342 0.19509044 0.21856548 0.16363557 0.0022430262 0.0038488014 -0.12453373 0.35892865
0.13720854 0.30363107 -0.15430458 0.15618797 -0.1934788 0.10592958 -0.034489576 -0.33604863
0.29293686 -0.15037104 0.06721849 0.3418307 0.4258674 0.30802548 -0.24980597 0.24711601

13.bias f4 [26]
00000000: ee92 4fbc 2e6d 5a3d dd17 a7bd 1669 6abb
00000010: c4ac 833b eb8b 14bd f76d 1ebc c844 0c3d
00000020: 6145 0abd d4b8 17bd 4526 02be 8e12 edba
00000030: b8a9 abbd 759a 1bbd 1de1 a5bc 7dc0 64bd
00000040: 00b8 183d d0ae b53d 184d 57bd 8079 4b3d
00000050: 1987 0f3c ae42 f53c d8e7 95bb bfe3 bebb
00000060: 0338 453d 59cc dbbc
-0.012669308 0.053326778 -0.081588484 -0.0035768203 0.004018398 -0.03626625 -0.009669772 0.034245282
-0.03375757 -0.0370415 -0.12709911 -0.0018087195 -0.08381981 -0.0379891 -0.020248944 -0.055847634
0.03728485 0.088712335 -0.052563757 0.04967642 0.008760237 0.029939022 -0.004574757 -0.0058254893
0.04814912 -0.026830839
