model_5.pth (torch, 108171 bytes, 22 tensors)

0.weight f4 [6, 1, 5, 5]
000000 aa b3 b1 3d d5 ae 6b 3e bf 16 3e be 29 00 84 be
       0.08676846 0.23015912 -0.18563364 -0.25781372
000010 f1 03 8a bd 8a 1b 21 3e 5b 9a 48 3d c1 b0 7e 3d
       -0.06739033 0.15733162 0.04897533 0.062180284
000020 a9 f8 28 be 14 2d 4b bd 99 60 c5 3d af be b4 3c
       -0.16501106 -0.049603537 0.09637565 0.022063581
000030 85 99 73 be e8 8e 42 be f9 60 d7 bd d7 ba e0 3d
       -0.23789032 -0.18999827 -0.10516543 0.10973137
000040 98 4c be 3d 20 11 6d 3d f0 d3 2e be 6a 8e 67 bd
       0.09291953 0.05787766 -0.17073035 -0.0565323
000050 d0 f1 b4 3d ce 54 4b 3e a0 2a 43 3c d3 78 28 3e
       0.088351846 0.19856569 0.011912018 0.16452341
000060 13 9e 20 3d b5 12 10 3e 02 80 33 3e 84 8b ef bd
       0.03921325 0.14069636 0.175293 -0.11696532
000070 05 4f 2e be 20 2c 17 be 9c b9 2d 3d 27 5d 8b 3d
       -0.17022331 -0.14762926 0.04241334 0.06804877
000080 53 53 7f be 00 12 8f be 11 79 53 be f8 bb 32 be
       -0.2493413 -0.2794342 -0.20651652 -0.17454517
000090 48 6d bc be 2d 4c aa be ca 61 02 be 60 93 43 3d
       -0.36802125 -0.33261243 -0.12732616 0.04774797
0000a0 bd ae fe bd e8 25 9a be 6a fa ad bd b2 55 05 be
       -0.124356724 -0.30107045 -0.08495028 -0.13020971
0000b0 f1 21 9c bc eb 2c 07 be 93 85 53 3d a2 66 c1 3d
       -0.019059153 -0.13200729 0.05164106 0.09443404
0000c0 02 e8 17 3d 7f 37 50 3e 3c a6 ad 3d db 3a 06 3e
       0.037086494 0.2033367 0.08478972 0.13108389
0000d0 7f 6a a3 3d a0 4a 81 bc 42 b4 93 ba b3 2d 07 be
       0.07979297 -0.015782654 -0.0011268931 -0.13201027
0000e0 d8 04 66 bc 49 19 33 be 78 de 45 be 55 dd 8b be
       -0.014039241 -0.17490114 -0.19323146 -0.273173
0000f0 38 dc 98 3d fc 59 00 bb 97 24 e7 bd be 06 fa 3d
       0.074638784 -0.0019584885 -0.11286276 0.12208317
000100 d6 e9 1b 3d 73 27 c1 bd cb 93 83 bd 44 a0 f9 3d
       0.0380648 -0.094313525 -0.06424674 0.12188771
000110 53 08 58 3e a6 d1 3f 3e 0f ab 87 be bf 74 f7 bd
       0.21096925 0.18732318 -0.26497695 -0.120828144
000120 c9 72 29 3e 6c 95 75 3e 29 27 95 3e ba 87 0f 3e
       0.16547693 0.23982781 0.2913144 0.1401662
000130 3b d8 aa bc b9 38 2a be 2b a3 c9 3c 58 d0 64 be
       -0.02085506 -0.166232 0.024613937 -0.22345102
000140 3a 00 51 be 05 57 11 3e 1b 1e 6e 3e 21 b0 f2 bd
       -0.20410243 0.14193352 0.23253672 -0.1185
000150 86 ef 45 be 68 58 40 bd 5f fd 8a bc 45 5e 70 3d
       -0.19329652 -0.04695931 -0.01696652 0.058683652
000160 9f 82 35 3e 87 7f 02 bf bf 58 a2 bb 40 3f 0b 3d
       0.17725609 -0.5097584 -0.004954427 0.033995867
000170 54 2d 48 3e 73 e3 0d 3e 4a 89 da be 93 3e de bd
       0.19548541 0.13856296 -0.42682868 -0.10851779
000180 b7 c0 01 3e 98 d1 13 3e e2 59 8e bd d0 58 96 be
       0.12671171 0.14435422 -0.069507375 -0.29364634
000190 88 ca 79 3e 90 36 5f 3e 23 dd 26 bd 8b d2 01 be
       0.24393666 0.21798158 -0.040738236 -0.12677972
0001a0 64 b8 03 be de 4e 8c 3d 58 29 7f be 88 ee cc be
       -0.12863308 0.0685098 -0.24918115 -0.40025735
0001b0 4f 03 31 bd e9 bb f4 3d ed 2d 6e bd a4 6e 18 bc
       -0.043216046 0.119499035 -0.058149267 -0.0093037225
0001c0 f8 32 de bd dd 76 34 3e ff 6b c8 3d 6c 72 2f be
       -0.10849565 0.17623468 0.097862236 -0.17133492
0001d0 38 f1 e3 3b 05 d3 30 3e b9 8a 83 3d 5a f3 73 3c
       0.0069562458 0.17267998 0.064229436 0.0148895625
0001e0 e4 c8 4d bb 64 c7 7c 3c 08 41 8f 3b 50 97 f8 3d
       -0.0031400258 0.015428398 0.004371766 0.121382356
0001f0 ee 6c 71 be 98 76 a3 be 4f 0c cf be 4f d0 dd be
       -0.2357671 -0.31926417 -0.40439078 -0.4332299
000200 7a 4c b7 bd a4 df 51 bd bf 99 1e bc f1 74 4d 3d
       -0.089501336 -0.05123867 -0.009680211 0.050160352
000210 dd de 49 be e9 aa ac bd a7 cb 63 3d 27 e9 af 3d
       -0.19713922 -0.08431036 0.05561414 0.08589392
000220 ce a0 35 3e ce 35 be 3d 09 f0 f8 ba fc 3e bd 3b
       0.17737123 0.09287606 -0.0018992434 0.0057753306
000230 05 77 03 3e 98 57 e3 3d c4 7d 47 3e 58 91 a7 bc
       0.12838371 0.111006916 0.1948157 -0.020455047
000240 58 0f 5e be 2e a3 f1 bd bb 88 24 3e c3 6f 79 3d
       -0.2168554 -0.11798702 0.16067784 0.0608976
000250 e6 20 16 bd fb 3d 1f be
       -0.03665247 -0.15550987

0.bias f4 [6]
000000 dc 03 05 be f7 60 b9 3c 18 98 72 3d 9d e7 9f 3d
       -0.12989753 0.022629244 0.05922708 0.078078486
000010 2d 59 02 3d 12 00 03 be
       0.031823326 -0.12792996

1.weight f4 [6]
000000 26 c1 af 3f c5 ed ba 3f 06 4f 83 3f 77 35 8c 3f
       1.3730819 1.4603812 1.0258491 1.0953816
000010 d5 5e 7f 3f e7 ea 88 3f
       0.9975408 1.0696687

1.bias f4 [6]
000000 60 c8 03 bf 2f b2 15 bf 6a 89 5a 3e 28 76 1e bf
       -0.51477623 -0.5847501 0.21341482 -0.6189904
000010 08 ff 35 bf 56 35 11 bf
       -0.7109227 -0.5672201

1.running_mean f4 [6]
000000 32 5a db bd 4f ff a6 bc 2d a5 97 3d ed 69 19 3b
       -0.10710563 -0.020385412 0.07404552 0.0023409084
000010 09 b7 ed 3c 7c 2d 4a be
       0.029017942 -0.19743913

1.running_var f4 [6]
000000 89 b3 42 3f 0f ed 6c 40 10 a8 44 3f 60 31 85 3f
       0.760552 3.701969 0.76818943 1.0405693
000010 63 98 99 3e 55 3b a4 3f
       0.29999074 1.2830607

4.weight f4 [16, 6, 5, 5]
000000 2d 68 bd 3d 45 a8 87 bd 20 f6 04 be 56 5f 58 bd
       0.092483856 -0.06623892 -0.12984514 -0.052825294
000010 e1 ef 82 bd e7 ae 51 bd 72 bd 0c be d9 cc 1c be
       -0.063934095 -0.05119219 -0.13744143 -0.15312518
000020 69 d6 a7 bd 98 69 0c be 3e 89 d9 bc de 63 23 3d
       -0.08195192 -0.13712156 -0.0265547 0.039890163
000030 8b 93 7a 3d 29 94 1d 3e 13 21 be 3d da 7c e3 3c
       0.061175864 0.1538855 0.09283652 0.027769495
000040 34 7b dd 3d d3 38 45 bd c4 9d 1b be eb 1c 96 bc
       0.10814515 -0.048149895 -0.15196902 -0.018324336
000050 62 4e 64 3c 8c c8 db bd 13 58 0b be 67 c1 41 be
       0.013934704 -0.10731611 -0.13607816 -0.18921433
000060 fb ed 20 bd c9 96 b6 bd 4c 0a 4f 3d cc 6f 41 3d
       -0.039289456 -0.08915479 0.05054693 0.04722576
000070 38 ec be 3d f4 1c 86 3d 2e 9b 4e bd 96 c5 7f 3d
       0.09322399 0.06548491 -0.05044096 0.062444292
000080 ab df 50 bc ca 72 cc 3d c6 04 ce 3d f2 e3 71 3d
       -0.012748639 0.09982832 0.10059504 0.059055276
000090 7d 5b d9 bc 9a 50 3a bc a5 ea 9f bd d5 21 8c bc
       -0.026532883 -0.011371756 -0.07808427 -0.017105976
0000a0 a7 05 6f bd 72 a0 4c bd 2d cc 34 be 76 e3 b9 bd
       -0.058355 -0.0499577 -0.17656012 -0.09076588
0000b0 c4 6d 97 bb e2 48 e9 bd ef da 4d be c8 e4 c2 bd
       -0.0046212394 -0.113908544 -0.20103048 -0.09516293
0000c0 11 24 38 3d bb 15 f1 3d 5c 7d ad bd 86 3b 6a 3c
       0.04495627 0.11771723 -0.08471176 0.014296418
0000d0 2f cb cf 3c 6d 4c b1 bc f0 5d 68 bc 1f df 84 bd
       0.02536544 -0.021642888 -0.014182553 -0.064878695
0000e0 86 98 a0 bc a5 2a bf bd 4d d1 a7 bd c5 d4 2e bd
       -0.019603979 -0.09334306 -0.08194218 -0.04268338
0000f0 01 59 93 bd 71 82 cb 3a ca 09 32 3e 13 a8 76 3c
       -0.071947105 0.0015526545 0.17386547 0.01505472
000100 0a ca ee 3c 6f fe 54 3e f2 b3 0d 3e 63 7a 0d 3c
       0.029149074 0.20800184 0.13838175 0.008635136
000110 27 1f d1 bc e0 60 2b 3d 92 a8 54 be 4d b2 8d be
       -0.02552755 0.041840434 -0.2076743 -0.27675095
000120 91 dd 0a be f6 21 ba 3c a6 ad a0 3d ac 87 61 3e
       -0.13561083 0.022721272 0.07845621 0.22024411
000130 b3 95 94 3e cf 45 76 3e 8e 07 8b 3e 12 28 b5 3d
       0.2902046 0.24050067 0.271542 0.088455334
000140 b8 4a 40 3e ba ad 47 3e fe 65 12 3e d6 11 17 3e
       0.18778503 0.19499865 0.1429672 0.14752898
000150 ef 95 b4 3d fc 55 9f 3d b0 14 0f 3c 48 e0 ba bc
       0.0881766 0.07780072 0.00873296 -0.022812024
000160 4d d1 43 bc f6 65 d1 bd 6c 81 c9 bd b9 b7 1b be
       -0.011951757 -0.10224526 -0.098391384 -0.15206803
000170 e1 b6 32 bd 39 e4 ee bd cf f9 b8 bd ff c5 aa bd
       -0.04363144 -0.11664624 -0.09032022 -0.08338546
000180 d3 c2 9f 3b 3e 4d 14 bd de 9a 8f bd fa 2d ae bd
       0.00487552 -0.036206476 -0.070119604 -0.08504863
000190 7d 56 d0 bd 70 3f a9 3d d7 5b bf bd 18 24 51 bd
       -0.10172746 0.08264053 -0.09343689 -0.051059812
0001a0 d4 f2 d0 3c fa 96 1b 3d 4f f0 5d bc 28 80 8c 3d
       0.025506414 0.03798578 -0.013546064 0.06860381
0001b0 06 a8 05 3d e3 86 c3 3c 87 5e 16 bc fd 19 1d bd
       0.032630943 0.02386803 -0.0091778105 -0.038354862
0001c0 5a 7a c4 3b b2 22 76 3d f4 cd a8 3d 39 e1 ea 3b
       0.0059960308 0.06009168 0.082424074 0.007167962
0001d0 9d 33 9e 3d eb 09 5d 3e 8f b2 bd 3c 58 3b 06 be
       0.07724688 0.21585815 0.023156432 -0.13108575
0001e0 15 88 fe 3d d8 91 dc bd da ff 40 bd aa 32 b3 3d
       0.12428299 -0.10770005 -0.047119 0.08749898
0001f0 37 ab 96 bd 25 d7 36 bd 84 65 84 bc 8c 8a 5e 3d
       -0.073568754 -0.04463877 -0.016161688 0.054331347
000200 5f 44 8b bd c7 fa 8c bb 7c 92 93 3c d9 c6 a1 3b
       -0.0680015 -0.004302356 0.018014185 0.0049370346
000210 76 c2 97 bd d6 b5 27 be a2 26 46 be 61 d7 12 bc
       -0.07410137 -0.16377959 -0.19350675 -0.008962483
000220 f7 dc de bd 42 e4 91 bd a2 f0 bf bd 4f ff 3b bd
       -0.108819894 -0.07123615 -0.09372069 -0.045897778
000230 c1 6b d8 bc 14 97 c9 bd 1c 56 69 3d 29 32 f7 ba
       -0.026418569 -0.09843269 0.056966886 -0.0018859553
000240 e6 c3 04 3d 62 b3 8b 3d 46 78 a4 bd 3e 76 fd bd
       0.032413386 0.06821324 -0.08030753 -0.123760685
000250 40 fa 1c be 8b a9 55 be 33 bb 5a 3d 54 4e 28 3d
       -0.15329838 -0.20865457 0.053401183 0.041090325
000260 f9 72 eb bd 31 d9 42 be 6e 47 b2 3d 11 72 8f 3d
       -0.11496539 -0.19028164 0.087050304 0.07004178
000270 7e dd a6 3d 61 70 66 bd d1 41 7a bd 6c 87 8c 3d
       0.08147715 -0.056259517 -0.061097924 0.06861767
000280 dc 4d df bc e0 a6 1f bd d9 69 ac bb e9 e6 b4 3c
       -0.027258806 -0.038977504 -0.0052616415 0.022082763
000290 0c d8 42 3d 70 86 c3 bb 6b e9 1e be 35 52 9b 3b
       0.04756932 -0.005966954 -0.1551873 0.0047400245
0002a0 e5 b5 c1 3d 1a 9b 04 3e 37 0e a7 3d 5c bd 38 bd
       0.09458522 0.12949792 0.08157008 -0.045102462
0002b0 7a a1 83 3d 3a d0 f2 bd cc 7f 05 be b5 23 97 3a
       0.064272836 -0.11856122 -0.13037032 0.0011531027
0002c0 06 2e 5e 3e eb 71 fb 3d 0a b2 98 bd 40 07 ab bd
       0.21697244 0.122775875 -0.07455833 -0.08350992
0002d0 b9 6f f6 3d 1a 1f 55 3e f5 ec 92 3e 4e c6 f4 3d
       0.12033028 0.20812646 0.2869641 0.11951886
0002e0 15 47 de bd e1 36 f4 3c a2 ff 34 3e 41 07 80 3e
       -0.108534016 0.029811325 0.17675641 0.25005534
0002f0 9b a7 83 3d e8 e6 de 3a 6e 6e e1 3d c9 46 3a 3e
       0.064284526 0.0017006071 0.11007391 0.18191065
000300 a3 0c 00 3e 26 78 d3 3d cd 67 a5 bd 1d c0 51 3e
       0.1250482 0.10325651 -0.08076439 0.20483442
000310 88 ba 25 3e 3d 59 76 3e 30 9f 40 3e a3 2e 8b 3d
       0.16184437 0.24057479 0.18810725 0.067960046
000320 3a dc 95 3c d8 73 3c 3d 81 12 88 bd 82 31 c3 3d
       0.018293489 0.046008915 -0.06644154 0.09530927
000330 97 7a e2 3c 4f a5 4d 3b 48 79 eb bc fb 40 16 3d
       0.027646346 0.003137905 -0.028744355 0.036683064
000340 26 e4 0b 3d 6d f8 ec 3d a2 b0 35 3e 88 7f 05 bd
       0.034153126 0.11570821 0.17743161 -0.032592326
000350 bb b8 04 be 84 51 c4 bd 9f f4 21 bd f4 01 a6 3d
       -0.12961094 -0.0958586 -0.03953993 0.08105841
000360 80 af d6 ba 0a 16 a5 bd 99 19 f5 bd 31 26 38 3d
       -0.0016379207 -0.08060844 -0.11967773 0.044958297
000370 a5 36 8a bd 0d 9b 0d be 90 d7 e5 bd 1c 9b c8 3b
       -0.06748704 -0.13828678 -0.11222756 0.006122006
000380 8b 6f ea 3d 2c da e4 3c db 17 a8 3d f8 ef 2d bd
       0.114470564 0.027936064 0.08207675 -0.04246518
000390 6b b0 ed bd e5 04 08 3e ef 2d 04 3c fa 02 62 3d
       -0.11605915 0.13283117 0.008067592 0.05517862
0003a0 25 b4 5a bd 44 00 e9 bd c7 f0 5d bc 49 12 aa bd
       -0.053394455 -0.11377004 -0.013546175 -0.08304269
0003b0 30 6f d4 bd e5 35 f5 bd 05 64 5e be 44 19 f6 bd
       -0.1037277 -0.1197317 -0.21717842 -0.12016538
0003c0 ac c1 d0 bc e9 7d 04 bd c4 c8 f0 bd b0 4e a1 bd
       -0.025482975 -0.03234664 -0.11757043 -0.078763366
0003d0 1f 5c 10 be 90 a9 e2 bb f3 d8 c8 3c 2b 76 69 3d
       -0.14097641 -0.006917186 0.024517512 0.05699746
0003e0 7b 1c 61 bd a5 f7 7e be 8d f8 1b bd 88 55 12 3c
       -0.0549588 -0.24899156 -0.038078833 0.008931525
0003f0 da 8e c6 bd f1 5f 8b bc 51 82 8f 3c 03 55 55 3d
       -0.096952155 -0.017013522 0.017518194 0.052083027

4.bias f4 [16]
000000 93 67 a9 3d 32 de 82 3d 96 f1 82 bd 86 80 84 3d
       0.08271708 0.06390037 -0.06393735 0.064698264
000010 80 63 0d be 79 e6 fd bd cf d9 9a 3c 29 41 d1 3c
       -0.13807487 -0.12397475 0.018902687 0.025543766
000020 20 b9 0f 3c f2 ef 0f bd 67 2e 46 be f9 f6 cd 3d
       0.008772165 -0.03514094 -0.19353639 0.10056872
000030 0c 4f 67 bd 5d 13 7e bd 89 1b 2a 3d e6 a3 89 bd
       -0.05647187 -0.062030185 0.041530166 -0.06720714

5.weight f4 [16]
000000 ac 76 07 40 d3 b7 f7 3f 3c 2f e5 3f e0 57 03 40
       2.1166182 1.9352974 1.790504 2.0522385
000010 cc a1 f7 3f b6 0a 18 40 ad 34 e5 3f f9 cb fc 3f
       1.9346251 2.3756537 1.79067 1.9749748
000020 02 6f d5 3f 42 3a d3 3f fc cc 0e 40 d7 16 10 40
       1.6674502 1.6502154 2.2312613 2.251394
000030 3f 1d 08 40 e3 11 12 40 c8 c5 08 40 42 ee f5 3f
       2.126785 2.2823417 2.1370716 1.9213336

5.bias f4 [16]
000000 c3 7d 7c 3e 1e 5c d2 be 7d 06 e9 3e 4e 1d df 3e
       0.2465735 -0.41085905 0.45512763 0.43577045
000010 5b 84 54 3e 6c a7 d3 3e c8 52 82 be dc e0 0b bd
       0.20753615 0.4133867 -0.25453782 -0.03414999
000020 1a ca 04 3f 35 ef de be 6c a4 5c 3e f3 94 d8 bd
       0.5187088 -0.43541875 0.21547097 -0.10575285
000030 96 33 b5 be 82 c0 14 3f 95 21 bc 3e d6 41 1e bd
       -0.3539092 0.58106244 0.3674437 -0.038637005

5.running_mean f4 [16]
000000 54 9b a0 3e da ce fb 3e e9 86 d0 3e b1 1d 80 3e
       0.31368506 0.49181253 0.40727928 0.25022653
000010 a6 17 7a 3e 9e 13 f6 be eb 34 41 bf ad 1a 09 3e
       0.24423084 -0.48061842 -0.7547137 0.13389082
000020 57 f7 fb 3e 63 42 ed be bd 15 19 3e 39 2d a2 3e
       0.49212143 -0.46339712 0.14949699 0.31675127
000030 0a 1a 1a 3f 16 34 9d bd a7 0d 4a bf 39 dc 5a 3f
       0.6019598 -0.0767595 -0.7892708 0.85492283

5.running_var f4 [16]
000000 57 6e 94 3f 67 98 56 3f 36 23 c0 3e 77 c1 13 3f
       1.1596173 0.838263 0.37526864 0.5771708
000010 00 87 21 3f 8a 52 b4 3f fc 27 59 3f 43 b0 50 3f
       0.6309662 1.4087689 0.84826636 0.81518954
000020 d8 67 81 3e 5e 09 9c 3f 21 7b 5c 3f 8a 95 a6 3f
       0.2527454 1.2190359 0.8612538 1.3014386
000030 73 9a 38 3f dd dd 0e 3f 56 aa 83 3f 93 9d a2 3f
       0.7211067 0.55807287 1.0286357 1.2704338

8.weight f4 [50, 16, 5, 5]
000000 2e b2 2a 3b f2 26 4c 3e 5d 0c 30 3e 33 c3 2a 3e
       0.0026046145 0.19936731 0.17192216 0.16676025
000010 36 3c f1 bc 62 f3 71 3d f6 11 e6 3d 8a cc ba bc
       -0.029447656 0.05907 0.112338945 -0.02280261
000020 4f 43 36 bd dd 97 b5 bc 60 d2 a6 3c 57 af 59 3d
       -0.044497784 -0.02216714 0.020363986 0.053145733
000030 94 7b 1b be a3 f4 ae bd fc b4 65 3d 5e 3b 7c bc
       -0.1518386 -0.085427545 0.056080803 -0.015395014
000040 b0 38 21 bc de a6 d8 b9 e2 76 ee 3d bc e5 07 bc
       -0.0098401755 -0.00041323056 0.11643769 -0.008294519
000050 4e 32 b8 bd cb 81 72 bd ad a5 bf 3d 43 c6 03 3d
       -0.0899397 -0.05920581 0.09357772 0.0321715
000060 6e c1 e8 3c 2c 21 e6 3d 19 d3 85 3c 29 23 1f bc
       0.028412547 0.11236796 0.01633601 -0.009712973
000070 a8 31 76 3d bd 71 bc bd 4b 10 64 bd cf 27 01 be
       0.06010595 -0.09201381 -0.0556796 -0.12612842
000080 ae a6 30 bd 90 c8 40 bd d8 fb 28 bd 2f 95 11 be
       -0.043127708 -0.04706627 -0.041255802 -0.14217065
000090 f2 d0 35 be d7 e8 d3 bd c3 96 fb bd 31 18 0c bd
       -0.17755488 -0.10347145 -0.12284615 -0.03420276
0000a0 b7 73 cc bd 7c 38 39 3d 40 eb 14 bc a9 31 9f bc
       -0.09983008 0.045219883 -0.009089291 -0.01943286
0000b0 c5 1d 03 3e ab a8 e1 bd 6a 21 25 3d 52 d0 2e 3d
       0.12804325 -0.11018499 0.04031507 0.04267914
0000c0 f9 cb ac 3d e5 e1 9f 3d 56 10 86 bc fa 18 67 be
       0.08437342 0.07806758 -0.016365211 -0.22568122
0000d0 40 03 c2 bd 30 f7 8e bc 8d 8c 96 bc 6f 28 08 be
       -0.09473276 -0.017451853 -0.018377567 -0.13296674
0000e0 bc 7b 4b be 76 ec 6a 3b 1c ee 27 3d 6b b6 26 3d
       -0.1987142 0.0035846508 0.040998563 0.04070131
0000f0 85 90 26 be c5 96 bf bd b0 89 4b 3d b0 f3 c5 3d
       -0.16266067 -0.09354929 0.049691856 0.0966562
000100 dc fd 41 3d 3e 63 6c bc 99 15 3a 3d 20 f6 91 3d
       0.04736124 -0.014427958 0.045430753 0.07127023
000110 4c d7 58 bd bf 58 c0 3d f8 00 0c 3d 32 c1 3c 3d
       -0.052939698 0.09391927 0.03418061 0.046082683
000120 75 02 12 bd 62 54 e6 3c d7 0e f8 3d da 55 05 3d
       -0.035646874 0.028116409 0.121122055 0.032552578
000130 cc e8 d2 3b d9 56 d9 bc 78 af e6 bc d1 04 e3 3d
       0.006436443 -0.02653067 -0.028159842 0.11084903
000140 99 a5 98 3d 7a d0 76 ba b4 83 57 3d cd 49 36 3e
       0.0745346 -0.00094152207 0.052615836 0.1780159
000150 0f 17 a4 3e cb 53 09 bd 48 e1 2c 3d 3a dd d8 bb
       0.32048842 -0.033527177 0.042207032 -0.006618169
000160 db 90 ce 3d 74 33 07 3e 9e a9 e4 bd c4 36 19 3c
       0.10086223 0.13203222 -0.111651644 0.009351436
000170 9a e0 7a bc 22 43 0b 3d a2 a6 a6 3c 0f eb 3d bd
       -0.015312338 0.03399957 0.020343129 -0.046366747
000180 1e 05 95 3d 9b 92 43 3c 96 9e 0e be ff c1 97 bc
       0.07276367 0.011936809 -0.13927683 -0.018525122
000190 72 df 08 be 13 f5 0c bd fe 56 e6 bd 9d f6 ab bd
       -0.13366488 -0.03441341 -0.11247061 -0.08396647
0001a0 d7 e0 16 ba 4d 4c ca 3b 56 cb 2e 3d 6e 0d 8d 3d
       -0.00057555496 0.0061736465 0.042674385 0.06887327
0001b0 b9 56 80 3d c1 df e4 bc af 49 b4 bc f2 f7 94 3c
       0.06266541 -0.027938725 -0.022007791 0.018184636
0001c0 a9 3e e9 bc 09 bd 15 3e 9c b3 b1 bb 5a db 12 bc
       -0.028472262 0.14622892 -0.0054230224 -0.00896343
0001d0 9e 97 84 3d 82 24 51 bd 5a af 06 3e af b8 ca 3d
       0.06474231 -0.051060207 0.13152829 0.09898507
0001e0 be db a5 bd 0b de f0 3d 1a 1e 1f 3d 60 b8 8a 3c
       -0.08098553 0.11761101 0.038847066 0.01693362
0001f0 75 71 46 3e 40 cd 03 3d ec c5 61 3d 89 9b c6 3d
       0.19379218 0.032178164 0.055120394 0.09697635
000200 ea cb fd 3d c1 f6 8a 3d cc 1b d8 3d 1a 16 2c bd
       0.12392409 0.06785346 0.10552177 -0.042013265
000210 ca ef 9d bc 4a b9 0f 3e 3e 00 13 bc d3 dc 09 3e
       -0.01927938 0.14035526 -0.008972226 0.13463144
000220 ed a4 26 bd c8 38 fd bd 13 89 5d bb 4c ff b4 bc
       -0.04068463 -0.12364346 -0.0033803626 -0.022094391
000230 74 bd c5 3d 65 b6 3b be e0 a3 50 be 91 cd ce bd
       0.09655276 -0.18331297 -0.20375013 -0.100978024
000240 fb eb fc bd 53 66 4a 3d 75 7a ab bd c4 d6 23 be
       -0.12349697 0.04941399 -0.08372966 -0.15999895
000250 da 2e be bd a2 5d 0e bb d7 12 3b be e8 c6 b9 bd
       -0.0928628 -0.002172329 -0.18268906 -0.090711415
000260 1b 9a f5 bc 60 e0 6b 3c 73 f2 79 be ef b1 41 be
       -0.02998071 0.014396757 -0.24408893 -0.18915533
000270 dd b2 58 be 07 23 af bd ef 1f e3 bd 8a a2 17 be
       -0.21161981 -0.08551603 -0.11090075 -0.14808097
000280 84 bf a9 bd 7e ff a6 bd 2d ee 93 be 7d b6 66 bd
       -0.08288482 -0.081542 -0.2889265 -0.056326378
000290 7f 44 cb bc 4b 93 60 bd 54 01 62 3c db 21 8d 3d
       -0.024812935 -0.05482797 0.013794262 0.06891223
0002a0 97 9c 08 3e af b9 37 3d 7e 50 99 3d e2 dd 12 3d
       0.13340984 0.044854816 0.07486056 0.035856135
0002b0 96 29 13 3e 8b ef d1 3d 15 89 79 bd 5f 8e 6f bd
       0.14371333 0.10250767 -0.060921747 -0.058485385
0002c0 3d f9 88 bd 73 24 4e 3e ed e5 00 3e 33 57 81 3c
       -0.066881634 0.20131092 0.1258771 0.01578865
0002d0 e5 8d 32 bd b3 6e 6f 3d 39 af 34 bd 50 1a f1 3c
       -0.043592352 0.05845518 -0.044112418 0.029431492
0002e0 19 e9 5f 3d e7 4b 6d bc d0 f7 d9 bc 17 0c 6c bc
       0.05466566 -0.014483429 -0.026607424 -0.014407179
0002f0 40 e0 aa 3d 0e 92 d1 3d e6 cf e7 3c 25 f8 30 3c
       0.083435535 0.10232936 0.028297376 0.01080135
000300 7e 8c eb 3b f0 8d 76 3c 50 77 90 3e 17 f2 b8 3d
       0.007188379 0.015048489 0.28216028 0.0903055
000310 ff 8d a5 bb 6b 6b 84 bc d5 dd ae bc 84 e3 5c 3d
       -0.0050523276 -0.016164502 -0.021346012 0.053927913
000320 3e 7e ba bd 8e fe 51 bd 86 d8 c4 bd db bc c8 3d
       -0.0910611 -0.051268153 -0.09611611 0.09801646
000330 05 1a 0c 3e 30 e4 24 bd a9 e5 11 be e8 0f b1 bd
       0.136818 -0.04025668 -0.14247765 -0.08645612
000340 12 6a 02 be b3 22 86 bd d1 87 00 be 52 da 00 be
       -0.12735775 -0.06549587 -0.1255181 -0.12583283
000350 4e e1 83 bd 03 b8 e1 bd b0 97 5f be 69 3a 1d bd
       -0.06439458 -0.110214256 -0.21835208 -0.038385782
000360 2b 3a e4 bd a2 1d f9 bd 78 32 50 bd 76 e8 20 bd
       -0.11143907 -0.12163855 -0.05082938 -0.039284192
000370 11 55 7b bd 78 09 4e bd e3 28 38 bc b0 c9 1d 3c
       -0.061360423 -0.050302 -0.011240217 0.009630606
000380 6e 95 ac 3c 9f f1 af 3d 1d 3d 0b 3e 78 7a b6 bc
       0.021067347 0.085910074 0.13597532 -0.022275195
000390 5a 67 04 be 88 d4 4c be 40 f4 1d bd 27 a4 ff bd
       -0.1293005 -0.20002949 -0.038563013 -0.124824814
0003a0 e1 48 1f 3d 48 4f 7e 3d 71 d1 9d 39 c9 2a 04 3d
       0.038887862 0.062087327 0.0003010142 0.032267366
0003b0 b4 4d ec bd c0 91 d4 3d 43 50 d9 bd 0e 04 ac 3c
       -0.11538258 0.10379362 -0.10611012 0.020998027
0003c0 a1 19 4e 3d da 19 a5 3d 89 f1 96 3d 90 ec ee bc
       0.05031741 0.080615714 0.07370288 -0.029165536
0003d0 1c d5 27 bd 10 02 d4 3c f5 dc 0c bd f9 c8 41 3d
       -0.04097472 0.02587989 -0.03439041 0.047310803
0003e0 8b 5f 55 bd e3 2d f4 bb f4 87 d7 3c 44 d2 ee 3d
       -0.05209307 -0.007451759 0.026309945 0.11661199
0003f0 cb cb 3c 3d 45 2c a3 bd 49 40 89 be 7c 06 e0 bc
       0.04609279 -0.07967428 -0.26806858 -0.027346842

8.bias f4 [50]
000000 4b 09 0a bd 3e 20 41 bd b7 57 d8 3c 1c 08 1b bd
       -0.03370027 -0.04714989 0.026409013 -0.03784953
000010 60 a0 2b 3d c9 2b cb bc 3b 22 83 bc 2d f7 8b bc
       0.041900992 -0.024801152 -0.016007533 -0.017085636
000020 98 98 78 3d dd 3e e1 bc 4b bc 2b 3d 1a 51 db bb
       0.0606924 -0.027495796 0.041927617 -0.0066930177
000030 da f7 86 3c ed 6a 3f 3d 1f f7 3a 3d 3e 9f 88 3c
       0.016475607 0.04673283 0.04564583 0.016677495
000040 f0 54 38 bd fc 45 1a bd 3d 1e 3c 3d 29 d9 45 bc
       -0.045002878 -0.0376644 0.045927275 -0.012075701
000050 09 25 c1 bc f4 a4 3e bd 24 2f 9f bd cd b5 94 bc
       -0.02357723 -0.04654403 -0.07772663 -0.018153096
000060 d9 78 cb bc 9c 74 09 3d 0d b6 40 3c 9a 11 23 bd
       -0.024837898 0.033558473 0.011762154 -0.039811708
000070 e6 04 a3 3c bf a9 28 3c af 91 88 3d dc 4b 32 bd
       0.019899797 0.010294377 0.06668412 -0.043529376
000080 be 09 e9 3b 4f 2d 5b bc e2 27 01 3d db 70 62 bc
       0.007111757 -0.013377502 0.031532176 -0.013820852
000090 52 5d e6 bc 72 e8 16 3c fd fc c6 3c 92 f0 3f bd
       -0.02812067 0.009210693 0.024290556 -0.046860285
0000a0 0e 96 7e 3a c1 53 e5 3c 76 a3 2a bc a1 cb dc ba
       0.0009711691 0.027994039 -0.010414949 -0.0016845354
0000b0 67 7d ed 3b f0 ef 22 3b 05 0d e9 3c 14 4c 9a bc
       0.007247615 0.0024862252 0.028448591 -0.018835105
0000c0 69 6b 4d 3c b3 7d fb 3b
       0.012537816 0.0076748966

9.weight f4 [50]
000000 e0 ae e1 3f 25 7d 07 40 c3 bd d5 3f 2a 20 cb 3f
       1.7631493 2.1170132 1.6698536 1.5869191
000010 e0 d9 df 3f 96 23 e4 3f 46 0f e1 3f a2 fe e5 3f
       1.7488365 1.782336 1.7582786 1.7968333
000020 b6 ec f1 3f 99 59 c8 3f b0 a6 e6 3f 98 0e f3 3f
       1.8900363 1.5652343 1.8019619 1.8988829
000030 87 5a fb 3f ac e5 e3 3f d7 40 00 40 39 2b 01 40
       1.9637002 1.7804465 2.0039575 2.018263
000040 c3 97 c9 3f 1f 36 f1 3f 45 4e e8 3f 16 c3 e4 3f
       1.5749439 1.8844641 1.8148886 1.7872036
000050 04 f2 ec 3f fe cf e9 3f 3c 44 01 40 84 23 e9 3f
       1.8511357 1.8266599 2.0197897 1.8213964
000060 08 a7 10 40 4b 87 fd 3f f1 b1 c5 3f c4 9c f2 3f
       2.2601948 1.9806913 1.5444928 1.8954091
000070 e1 d2 c5 3f 2a d1 04 40 4d 24 df 3f 76 a9 c5 3f
       1.545498 2.0752664 1.7432953 1.544234
000080 37 c0 da 3f 59 53 00 40 19 05 e9 3f 20 35 df 3f
       1.7089909 2.0050871 1.8204681 1.7438087
000090 2b 3f c6 3f 47 a2 c5 3f 43 6e ec 3f cf 6b df 3f
       1.5488027 1.5440148 1.8471149 1.7454776
0000a0 5c 59 e0 3f c1 0c c1 3f 1d 38 c6 3f eb 66 fc 3f
       1.752727 1.5082017 1.5485874 1.9718908
0000b0 90 04 e0 3f 8c 89 e9 3f 77 7e d1 3f 29 ec c2 3f
       1.7501392 1.8245101 1.6366719 1.522832
0000c0 2b c8 bc 3f 16 bc dc 3f
       1.4748586 1.7244899

9.bias f4 [50]
000000 6a 53 a4 3d 5c 77 b9 3d c2 0d d5 3c df be 80 bd
       0.080237225 0.09055969 0.026007537 -0.06286406
000010 c6 7f 23 3e ca 62 7b 3e cf f3 48 be a6 f6 54 be
       0.1596671 0.24549404 -0.19624256 -0.20797214
000020 1c d4 3c 3e 01 9b ac 3c 87 8a 3e be 17 6e b9 bc
       0.18440288 0.021070005 -0.18607531 -0.022635503
000030 f2 71 d9 3d 6d fa 68 3e da cf b1 3e c9 e6 c5 bd
       0.106174365 0.2275178 0.3472889 -0.096631594
000040 2f 84 c9 bc c8 e5 e5 bd 28 06 11 be 9f 98 fd bd
       -0.024599163 -0.11225468 -0.14162505 -0.12382626
000050 bd 97 1e be ad dc 6b 3e ca 57 72 3e 72 2c 9b 3e
       -0.15487571 0.230334 0.23666301 0.30307347
000060 0a c8 68 3e 61 a6 1b bc e0 33 09 bf d1 90 31 3e
       0.22732559 -0.009500117 -0.5359478 0.173404
000070 8d a2 e8 3d 36 6b 38 be ce 14 06 be 40 17 04 3e
       0.11359129 -0.18009648 -0.13093874 0.12899494
000080 bc 86 c6 3d da 27 6e 3c e0 7d a0 bb a5 2e ea bc
       0.09693667 0.014535869 -0.004897818 -0.028586695
000090 13 54 2d 3e b4 2b 66 be 20 09 65 3d 4c eb 05 be
       0.16926603 -0.22477609 0.055916905 -0.1307804
0000a0 f7 af 26 be 86 dc c3 bd 62 02 ae be ed ba 2e bd
       -0.16278063 -0.09563546 -0.33986193 -0.042658735
0000b0 8b ff cf bd 28 b5 ad bd 9b fa cc bd 3a 8e 00 bf
       -0.10156163 -0.084818184 -0.10008737 -0.5021702
0000c0 79 2a 3d be 05 1c 82 3e
       -0.18473233 0.25412002

9.running_mean f4 [50]
000000 4f 55 40 bf bc d7 18 c0 58 99 72 3f 76 9a 10 c0
       -0.7513017 -2.3881674 0.94765234 -2.2594275
000010 2a e8 03 40 50 60 4b bf 3d 24 b8 3e e9 28 2c 3f
       2.0610452 -0.79443836 0.35965148 0.67249924
000020 be f0 61 bf 99 54 2e 3f ea 21 d5 bf 92 5c 63 bf
       -0.8825797 0.68097836 -1.6650975 -0.88813126
000030 28 fd ac bf 8c 0c e7 3d 86 e6 aa bf 81 e7 a8 3f
       -1.3514757 0.1128169 -1.33516 1.3195649
000040 6f 88 5c bf 9d 6b 57 bf 26 50 1e bf 34 07 31 bf
       -0.8614568 -0.8414858 -0.61841047 -0.69151616
000050 5c 53 9d be ef 14 a1 bc 16 4c 09 3e c2 14 1c c0
       -0.3072766 -0.019663302 0.1340793 -2.438767
000060 c4 4a ca 3f 82 5d eb bf f1 9b a7 3f 15 f0 84 3e
       1.5804067 -1.8387911 1.3094465 0.25964418
000070 d3 6c 91 bf 50 33 8c bf 75 f6 00 c0 3a a8 19 3f
       -1.1361336 -1.0953159 -2.0150425 0.6002232
000080 8c 1b df 3b a3 62 13 be 69 38 b9 3e ff 66 c4 3e
       0.0068087038 -0.14393096 0.3617585 0.3835983
000090 80 44 87 3f ae 89 a3 3f 4b f8 a8 bf 5c 87 cc 3f
       1.056778 1.2776392 -1.3200773 1.5978808
0000a0 d2 0b 9f be 1b a6 22 3f 89 7b c0 3f cf 97 6e bf
       -0.31063706 0.63534707 1.50377 -0.9320039
0000b0 0f 12 fd 3e 69 2c 3f 3f 12 03 b5 bd 4f 54 42 3f
       0.4942784 0.7467714 -0.08838476 0.75909895
0000c0 14 b4 1f 3f 72 9e 1c bf
       0.6238415 -0.6117927

9.running_var f4 [50]
000000 20 83 4f 40 e0 8b 91 40 6d 7a 2b 40 8e 2a 30 40
       3.2423782 4.5483246 2.6793473 2.7525973
000010 b3 6d 4b 40 e2 09 77 40 da 49 26 40 c3 e3 2f 40
       3.1785705 3.8599782 2.5982575 2.7482765
000020 1b 22 8e 40 c2 b1 1a 40 17 10 74 40 d3 57 af 40
       4.4416633 2.4170995 3.813482 5.4794707
000030 70 5c 73 40 22 28 52 40 7e e7 95 40 e5 dc 61 40
       3.802517 3.2836995 4.6845083 3.5291073
000040 30 c9 2f 40 ce cc 81 40 fe b3 ad 40 a3 40 6f 40
       2.7466545 4.0562506 5.4282217 3.73832
000050 77 c5 7a 40 20 a9 6a 40 eb f7 4d 40 11 d4 87 40
       3.9183023 3.6665726 3.2182567 4.244637
000060 81 e8 a3 40 5a 88 93 40 83 fe 17 40 3c 8f 77 40
       5.122132 4.6103945 2.3749092 3.8681173
000070 82 35 28 40 76 a0 a0 40 23 a3 3f 40 29 86 66 40
       2.6282659 5.0195875 2.994332 3.6019385
000080 84 dd 3e 40 9c 87 58 40 d0 bc 64 40 b6 f3 69 40
       2.9822702 3.383277 3.5740242 3.6555
000090 bb ea 3c 40 6c 2b 1f 40 2e 54 71 40 c0 72 8e 40
       2.9518268 2.4870253 3.770763 4.4515076
0000a0 b7 c1 6e 40 3e 73 57 40 da e7 15 40 2a e1 36 40
       3.7305734 3.3664088 2.342276 2.857493
0000b0 f6 68 2c 40 b3 43 12 40 82 8c 31 40 1d d3 10 40
       2.6939063 2.285382 2.774201 2.2628853
0000c0 7d 76 71 40 3e d2 73 40
       3.772857 3.8097072

12.weight f4 [30, 50]
000000 8b d5 43 be 40 73 96 be 92 eb ea be a5 b4 d9 3e
       -0.19124429 -0.29384804 -0.4588285 0.42520633
000010 b1 9c 0d bd 87 03 d3 3e ff e8 1c 3e a8 f4 1a 3e
       -0.03457326 0.4121363 0.15323256 0.15132391
000020 13 e8 28 be 96 2c c9 be 8f ae 03 bf 0e d7 be 3e
       -0.1649478 -0.3929183 -0.5143823 0.3727345
000030 c9 06 3d 3e 72 d0 e8 3e ce 42 9d bd 46 3f c8 bd
       0.1845962 0.4547153 -0.076787576 -0.097776935
000040 0c 7f 72 3e 4b 0f 66 3e 56 8d c7 be 28 13 2d be
       0.23681277 0.22466771 -0.38975018 -0.16901839
000050 93 9d a0 3d 0f 7f 82 3e 66 83 ff bd 66 db 92 3e
       0.07842555 0.25487563 -0.12476234 0.28683013
000060 77 1e f6 be 45 95 68 be 18 66 4e 3e a4 a8 ea 3e
       -0.48070118 -0.22713192 0.20156133 0.45831788
000070 aa 6d d9 3d d2 dc 2c bd 7b 68 27 bd 5f e5 e8 3d
       0.1061662 -0.04220278 -0.040871125 0.11371874
000080 0a 6b ee bd f8 03 2f 3e 5f 54 1f 3f 80 d1 6a 3e
       -0.1164151 0.17091358 0.62238115 0.2293148
000090 d5 96 c1 be b9 b4 0e be 98 34 8c bd 9f 64 a4 be
       -0.37810388 -0.13936128 -0.06845969 -0.32108018
0000a0 f9 c7 a6 bd 1f b3 45 3e 0e 49 2e be af c9 b9 3e
       -0.081436105 0.1930661 -0.17020056 0.36286685
0000b0 6e 3b 9d be 43 68 c6 3e 5e c0 a3 bc 2d 1d a7 be
       -0.30709404 0.3875142 -0.019989189 -0.32639447
0000c0 27 44 d4 3e a4 4c 26 bd fb f4 e2 bd 72 95 e5 bd
       0.41458246 -0.040600434 -0.110818826 -0.11210145
0000d0 b6 6e d0 3e 80 8a 1f be 07 22 33 3e a0 99 d4 3d
       0.40709466 -0.15580177 0.17493449 0.10380864
0000e0 95 1f d2 bc ef b8 b0 bd f1 12 95 3d f0 e2 8f 3e
       -0.025649825 -0.08629023 0.072790034 0.28102827
0000f0 c1 5c e6 3d d2 f4 b5 be c5 9b 35 be 2b 25 e6 3d
       0.1124816 -0.35538346 -0.17735203 0.11237558
000100 64 47 95 3c b1 73 86 3c 03 cc 9f be c1 35 fa bd
       0.018222518 0.016412588 -0.31210336 -0.12217284
000110 e8 6a 37 be 92 ef 0b 3f 01 4e d3 bc 87 69 1e be
       -0.17911875 0.5466243 -0.025794031 -0.15469943
000120 67 ca cb be a5 b2 49 be f1 bf ed 3e 0f da 68 be
       -0.39802858 -0.19697054 0.46435502 -0.22739433
000130 fd 76 07 be df c6 e9 be ea 3c aa be 41 89 8d be
       -0.13228984 -0.4565954 -0.332496 -0.2764378
000140 6d 81 b1 bd fa 94 44 3e 01 3b e9 bd e4 63 62 bd
       -0.08667264 0.19197455 -0.11388207 -0.055271044
000150 29 75 99 3e 43 e3 1e be ab fc ce 3d 2f ff 80 bd
       0.299722 -0.15516381 0.10106786 -0.062986724
000160 4b 93 36 3e bb d9 98 3e 55 78 dd 3d 90 08 c4 3e
       0.17829625 0.29853615 0.10813967 0.38287783
000170 dc 5b d1 3e 74 ab 71 be 82 81 a2 be ba 5d 42 3e
       0.40890396 -0.2360056 -0.31739432 0.18981066
000180 78 6f e0 3d ef e2 bd 3e 45 9a 11 be 93 89 0a bf
       0.10958761 0.370872 -0.14219005 -0.5411617
000190 c0 73 f9 3e c6 fc ff 3e f6 77 cc 3e 40 b5 dd be
       0.48721123 0.49997538 0.39935273 -0.43302345
0001a0 79 2f be bd 04 86 f2 3e df 9a c3 be aa 90 8c bb
       -0.092863984 0.4736787 -0.38204095 -0.0042897062
0001b0 3d 20 38 be a8 45 92 be cb b8 00 3f 4b 75 72 3e
       -0.17981048 -0.28568769 0.5028197 0.23677556
0001c0 7e 1e 88 bd c5 aa 86 be 9f 5e 03 3f 3d ae c0 be
       -0.06646441 -0.26302162 0.51316255 -0.37632933
0001d0 06 81 1d be ff f9 a5 be 7f 46 15 3e 3a ec 2d 3d
       -0.1538125 -0.32417294 0.14577673 0.04246161
0001e0 1f 19 20 be 24 95 96 3c 17 63 9f 3e ab fe 73 3d
       -0.15634583 0.018381663 0.31130287 0.059569042
0001f0 52 59 d8 3e 29 6a 8b bc 4d ae 5a 3d 47 89 8e be
       0.42255646 -0.017018395 0.053388882 -0.2783911
000200 1f 6f 96 3e a4 4c 09 3e 37 98 21 3a 60 dc 72 bd
       0.29381654 0.13408142 0.00061643444 -0.059292197
000210 cc 72 8a 3c 00 bc ef 3e 5a cc 90 be f6 3f cc be
       0.016900443 0.4682312 -0.28280908 -0.39892548
000220 e4 ea 9e bd 5a f0 6f be 6a 55 6c be 90 86 49 3e
       -0.077596456 -0.2343153 -0.23079458 0.19680238
000230 a2 34 29 be ea 58 ea 3e 28 c9 1d be 6d 08 58 be
       -0.16523984 0.4577096 -0.15408766 -0.21096964
000240 80 7d fe 3d 9b 46 eb 3c 90 a3 65 3d 40 f4 a3 3d
       0.12426281 0.02872019 0.05606419 0.08005571
000250 13 c4 7b be 2f e3 40 be 19 f0 b7 3e ce 75 80 3e
       -0.24586515 -0.18836664 0.35925367 0.25089878
000260 a3 7d 87 3e 84 d9 14 3f 8b 61 42 be dd 79 95 be
       0.2646304 0.581444 -0.18982522 -0.29194537
000270 2d 77 33 3e bb 9d 62 3e ec b8 f5 be 57 6e 7d 3e
       0.1752593 0.22130482 -0.47992647 0.24749123
000280 3f c5 0a be 5d 9f fc bd ed 8c 9e 3d 16 02 ca be
       -0.13551806 -0.12335084 0.07741723 -0.39454716
000290 93 d5 e9 3c 79 25 c2 be 11 13 9c 3e c7 b3 6b 3e
       0.028544223 -0.37919214 0.30483297 0.23017798
0002a0 60 52 06 3e c1 d3 a8 3e cc bd 87 bc bd 80 c6 be
       0.13117361 0.32974055 -0.016569994 -0.38770095
0002b0 c1 22 de 3d d5 45 8b 3e 5a 35 6a be 53 7a 79 3e
       0.108464725 0.27201715 -0.22871915 0.24363069
0002c0 cf 64 07 3f 4c ae c7 bb 38 82 4d 3e 95 d4 0a bf
       0.52888197 -0.006093776 0.20069206 -0.54230624
0002d0 21 dc 84 be 8f 18 02 3e f4 23 f5 3e 2c 2e 30 be
       -0.25949195 0.12704681 0.47878993 -0.17205113
0002e0 4b db 59 3e e8 47 b9 3b 20 cc 6d 3e 20 ba 5a 3e
       0.2127506 0.005654324 0.23222399 0.21360064
0002f0 63 19 cc 3e 56 0c 64 be 23 a0 e5 3e ba 0e 95 3d
       0.3986312 -0.22270331 0.44848737 0.072781995
000300 32 61 15 bf f4 d3 bd be 02 fd 96 3e 4a 71 e1 3d
       -0.58351433 -0.3707577 0.29489905 0.11007936
000310 85 c3 99 be dd e9 71 3e 9f 38 96 3e 3d d8 d4 3d
       -0.30031982 0.23624368 0.29340073 0.10392807
000320 73 53 89 be 19 98 1e bf 6a f4 96 be c8 bb 9a 3e
       -0.2682148 -0.6195083 -0.29483348 0.3022139
000330 b8 82 02 be 92 e9 b7 be de c2 0f 3d 1c e7 4b be
       -0.12745178 -0.35920388 0.03509795 -0.1991238
000340 bd 8d ee 3e 1d 43 46 3d 17 28 82 3e cf 89 6f be
       0.46592513 0.048403848 0.2542121 -0.23392414
000350 dd d9 af bb dd ca 04 3f 68 54 9b be 14 65 98 be
       -0.0053665475 0.51872045 -0.30337834 -0.29764616
000360 ac a6 12 3e 4e 1a ca 3e 3f 04 90 be 75 49 f0 3d
       0.14321393 0.39473194 -0.2812824 0.11732761
000370 e3 6d f9 be a0 63 cf be 45 da 39 3b 85 56 b9 3d
       -0.4871665 -0.40505695 0.0028358859 0.090497054
000380 2a 6d 14 bd 48 c0 31 3e 38 9e 07 bf 78 e4 c5 3c
       -0.03623692 0.17358506 -0.529758 0.024156794
000390 fb 66 3c be 02 0a 85 3e c9 15 c6 3e d8 7d b7 3d
       -0.18398659 0.25984198 0.38688496 0.0895955
0003a0 85 48 3a 3e f8 fc d8 be 34 7b 0b bd 70 b5 25 be
       0.18191727 -0.423805 -0.034053043 -0.16182494
0003b0 7b cd d4 be b0 0a 88 3e d2 a9 d7 3d 5d fa e5 bd
       -0.4156302 0.26570654 0.105304375 -0.11229394
0003c0 62 10 9c 3c c6 06 b6 3d bb 59 16 be 52 6c 52 3e
       0.01905078 0.08888011 -0.14682667 0.20549133
0003d0 e4 7c de be 59 26 8a 3e b8 ad 4f be c6 f9 34 3d
       -0.4345466 0.26982382 -0.20281112 0.044183515
0003e0 ad 07 df be 18 0f 00 3d 9e 97 14 bd e9 72 18 bf
       -0.43560544 0.031264395 -0.036277406 -0.5955034
0003f0 29 f0 92 bd cb 43 cc 3d 38 1e de bc 07 81 1e 3e
       -0.07174713 0.09973868 -0.027114019 0.15478908

12.bias f4 [30]
000000 a8 e9 96 be 92 52 a1 be 17 8f ab 3e d8 0b 27 3e
       -0.2947514 -0.3150831 0.33507606 0.16313112
000010 9a 80 21 3c 93 7b ce 3e db f1 08 3e 09 5c d0 bc
       0.009857321 0.40328655 0.1337351 -0.02543451
000020 fb ab f7 bd d0 07 a4 3e 5f 68 10 3e 18 85 c0 bd
       -0.120933495 0.3203721 0.14102314 -0.094003856
000030 4c a8 52 be a1 d0 bf be b9 bd 86 3d b6 92 db bd
       -0.20572013 -0.3746386 0.065791555 -0.10721342
000040 98 91 13 3e ea f2 07 bd 6f ed 38 3d 97 85 95 be
       0.14411008 -0.033190645 0.04514831 -0.29203483
000050 e0 b5 69 be be ed 37 3e a1 d6 21 3e 8e dd 8b 3d
       -0.22823286 0.17961785 0.1580453 0.068293676
000060 8e a8 84 3d dd cb 5e 3e 9b 09 b0 bd 4b e9 6f 3d
       0.06477462 0.21757455 -0.08595582 0.058572095
000070 8d 0c a7 3d d9 bb 4a 3e
       0.08156691 0.1979822

13.weight f4 [26, 30]
000000 09 5a 16 be c6 a0 fc bc 80 ab 8a 3d fc db 6f be
       -0.14682783 -0.030838381 0.06770992 -0.23423761
000010 5e 5e 08 be 16 36 af 3e a7 05 ab 3e 4d 59 af be
       -0.13317248 0.34220952 0.3340275 -0.3424782
000020 0d 40 d6 be 07 3e 8b be a2 2c 3d 3e 4e 4c 8c be
       -0.41845742 -0.2719576 0.18474057 -0.27401966
000030 2e fc a9 be 57 98 94 be 01 ea d7 3d 71 18 dc bd
       -0.3320021 -0.29022476 0.105426796 -0.10746849
000040 98 9f 4a 3e b3 54 f5 3d 77 c4 7e 3e 77 7c c9 3d
       0.19787443 0.11979046 0.24879633 0.09838193
000050 91 f1 b9 3e 4b 0d b8 be 49 d5 6b be c8 33 c9 be
       0.36317113 -0.35947642 -0.2303058 -0.39297318
000060 24 d4 ae 3e 5b 45 59 3e 7d 78 31 3d d5 93 b4 bc
       0.34146225 0.21217863 0.043327797 -0.022043148
000070 53 a0 b3 3e 97 b4 e0 3e 36 6a 03 3f d5 c9 93 be
       0.35083255 0.4388778 0.5133394 -0.28864923
000080 d8 e4 0e 3e 52 7f a0 bd 4d 77 77 bd bc 89 1f 3d
       0.13954484 -0.078367844 -0.06041651 0.038949713
000090 73 ae 10 bf c1 47 8b be 18 50 26 be 47 2c 4d 3e
       -0.5651619 -0.2720318 -0.16241491 0.20036422
0000a0 24 04 2e be 07 7b bb be 80 d0 bf 3e 19 f7 93 be
       -0.16993767 -0.366173 0.3746376 -0.28899458
0000b0 1a c9 84 3e d1 23 c1 3e f6 cd af bc 90 8c d9 3e
       0.25934678 0.37722638 -0.021460515 0.42490053
0000c0 be 85 43 be 0b b3 64 3e 75 a0 fb 3a c7 cf ef 3e
       -0.19093987 0.22333924 0.00191976 0.4683821
0000d0 93 32 29 3f f8 43 7e 3e e4 f6 d1 3d 02 9f 63 3d
       0.66092795 0.24830616 0.10252169 0.055571564
0000e0 fa 78 96 3e 76 2d 16 bf 64 fa 1b 3d db b2 97 3e
       0.29389173 -0.5866312 0.038080588 0.29628643
0000f0 4f 40 57 3e 7c a6 3e 3e 76 2d 04 3e 2a 85 02 be
       0.21020626 0.18618196 0.12907967 -0.1274611
000100 64 fb 1e 3d 91 69 f4 be b5 af 9b 3e fa 97 5a be
       0.038813964 -0.4773679 0.3040749 -0.21347037
000110 db 46 ae bd a4 a2 93 3e 0a 94 b4 3e 1d 39 d1 be
       -0.08509608 0.28835022 0.35269195 -0.40863886
000120 dc 05 79 bd b3 c7 92 be fb 89 7e 3e 82 d7 b1 3e
       -0.060796604 -0.28667983 0.24857323 0.34734732
000130 9f 1b 02 bf ba 56 a7 3c ab 32 78 3e 48 a2 b6 3e
       -0.50823396 0.020427097 0.24238078 0.35670686
000140 d5 9f 86 be 11 91 ab 3d 47 9d 36 bd 57 86 b0 be
       -0.26293817 0.083772786 -0.044583585 -0.34477493
000150 e9 81 f7 be 77 f5 fe be 6d 53 8a 3e 63 40 7a 3e
       -0.483413 -0.4979665 0.27016774 0.24438624
000160 67 c6 52 3e 8a 4d cd 3d d0 4e 32 3d b1 01 f0 3d
       0.20583497 0.10024555 0.043532193 0.117190726
000170 e7 b2 9b 3e c8 10 a6 be 60 fc a1 be 08 76 a3 3e
       0.3040993 -0.32434678 -0.3163786 0.31925988
000180 a3 9a d5 be 5b d8 8a be aa 5a ee 3e 4a fe 1c 3e
       -0.4171954 -0.2711819 0.46553546 0.15331379
000190 74 9e 92 3e 93 9d 94 3d e7 06 9e 3e a3 61 24 be
       0.28636515 0.072566174 0.3086464 -0.1605287
0001a0 eb 04 0a 3f 7c a2 66 3e b9 e8 de bc b3 5e d4 be
       0.53913754 0.2252292 -0.02721058 -0.414785
0001b0 ed ea 16 3e 56 be a1 bd 72 98 95 bd 2d 24 68 3e
       0.14738055 -0.07897632 -0.07304467 0.2267005
0001c0 b4 0f 18 3e 71 e5 97 be 4d 00 1b 3f 5e 05 03 3f
       0.1484974 -0.29667237 0.60547334 0.51180065
0001d0 0d 6f 8d 3e be ed 1b bd 96 03 e8 be 3e c4 71 3e
       0.27623788 -0.038068525 -0.45315236 0.23610017
0001e0 16 3e ec 3b 7e 93 d4 3e 4d 8b c9 bc 4c e8 a4 bb
       0.0072095497 0.41518778 -0.024602557 -0.0050325748
0001f0 10 13 f7 be 5e f9 fb be af 6b bf 3e ae 06 04 be
       -0.4825673 -0.4921369 0.37386844 -0.12893173
000200 09 28 12 3f fa 64 13 be c2 cb 9d 3e 33 25 04 3f
       0.5709234 -0.14393988 0.30819517 0.5161926
000210 5a 0e 90 be 29 ad 2c be b8 e3 ca be df de 5d be
       -0.2813595 -0.1686293 -0.3962686 -0.2166705
000220 03 ab 31 be f5 f2 e8 bc 1e 90 96 3e d4 b9 91 3e
       -0.17350392 -0.028436163 0.29406828 0.28462088
000230 84 44 ce bd b5 b4 d0 bd 8d 92 28 3d a3 fb 84 3e
       -0.10071662 -0.10190717 0.041155387 0.25973234
000240 29 10 e8 bd cb 75 8f 3d 5c 04 81 3e 1c 39 ca be
       -0.11331207 0.07004889 0.25198638 -0.39496696
000250 bc ec a1 3e 79 c0 09 3e 48 3f b4 be fc 03 a5 3e
       0.31625926 0.13452329 -0.3520453 0.32229602
000260 1d 7a 78 3e 41 13 42 3e 6a 28 19 3e 50 8d ed be
       0.24265333 0.18952657 0.14956823 -0.46396875
000270 4c fc 08 be c4 83 0a bf fe 2e 0e 3f 5d e0 8d bd
       -0.13377494 -0.5410731 0.55540454 -0.069275595
000280 d9 85 21 be 10 90 54 3e 03 18 8d 3d bd ea 5d be
       -0.15773715 0.2075808 0.068893455 -0.21671577
000290 09 8a 98 be 90 61 2b 3e 40 21 bc bd 1a 89 66 3e
       -0.29792812 0.16736436 -0.091860294 0.22513238
0002a0 3a 64 15 be 44 51 a6 be aa 95 76 3e fb eb aa be
       -0.14589015 -0.32483876 0.2408053 -0.33383164
0002b0 e9 6f 51 be 93 df 9a 3e 6a 63 10 be 23 b3 44 3e
       -0.20452847 0.302487 -0.14100423 0.1920896
0002c0 54 aa d1 be 77 93 a8 3e d5 4e 6e be bc d4 db 3e
       -0.40950263 0.32925007 -0.2327226 0.4293574
0002d0 2f f6 6f be 82 72 b7 bd 52 91 ba 3e 1d b1 0f 3e
       -0.23433755 -0.089573875 0.36438996 0.14032407
0002e0 be 05 65 be b1 be cf 3e a6 d9 02 3e 24 6f d3 bc
       -0.22365472 0.40575173 0.12778339 -0.025809832
0002f0 f2 20 5d be 66 38 01 3f d4 ac 1d bd e4 77 1c bd
       -0.21594599 0.5047668 -0.0384949 -0.038200274
000300 90 e5 e2 bb 22 0f 80 be b3 71 b6 be 5f 86 9b 3e
       -0.0069243386 -0.25011545 -0.3563362 0.30375955
000310 97 04 2f 3e ae b2 f7 3e a0 1e c6 3e 32 75 35 be
       0.17091595 0.4837851 0.3869524 -0.17720488
000320 91 9d af 3e e5 a6 8c be 0e 98 16 be 88 61 a3 3e
       0.342999 -0.2747108 -0.14706442 0.31910348
000330 46 52 34 3d 35 9a 6b bc ce db 9c 3e 80 44 cc 3e
       0.044023775 -0.014380028 0.30636448 0.3989601
000340 87 44 32 3b 51 c8 c8 3d a6 23 60 3d ae a1 97 ba
       0.002720149 0.09803832 0.054721497 -0.001156857
000350 1a 3f b0 be 34 47 b6 be 55 cd fa 3e f1 dd 8d 3e
       -0.34423143 -0.356012 0.4898478 0.2770839
000360 8e c7 1d be 16 2b ce bd e2 af 91 be 42 48 b8 3e
       -0.15408155 -0.10066812 -0.284545 0.35992628
000370 ba bf e2 be 28 02 9c bd 76 fd b3 3d 93 d5 7f be
       -0.442869 -0.07617599 0.08788578 -0.24983816
000380 bf 3e 3c 3e 12 f4 14 be eb af 82 3e 46 36 84 3e
       0.1838331 -0.1454623 0.2552484 0.25822657
000390 ed 3d 86 be 1a ef be be db e7 cd 3d da d1 3b be
       -0.2621912 -0.37291795 0.100539885 -0.18341771
0003a0 c8 85 0c 3e bc 4e 03 be 5d af 2c be 45 fb d1 3e
       0.13722908 -0.12823004 -0.16863771 0.41012016
0003b0 08 60 b6 be 89 8c 3c be 15 c5 82 be e8 14 c6 3e
       -0.3562014 -0.18412985 -0.25540987 0.38687825
0003c0 f8 c9 fb 3d 5c e3 95 be 2a 2e 52 be b3 d4 2e 3e
       0.12294382 -0.29275024 -0.20525423 0.17073326
0003d0 83 9c c3 3d 59 a1 be 3d 15 f0 c6 3e 94 b2 bd be
       0.095513366 0.093081184 0.38855043 -0.37050307
0003e0 cf 28 21 be 94 45 53 3e 30 42 fc 3d c4 f7 a9 3e
       -0.15738223 0.2063201 0.12317312 0.33196843
0003f0 cb 83 90 3e a8 19 a7 3e d6 65 9b 3e 1a 8c d5 be
       0.2822555 0.32636762 0.30351132 -0.41708452

13.bias f4 [26]
000000 29 cb 9d 3d cb 97 3a 3e 23 2e 9c be 96 b8 39 3e
       0.07704765 0.18221967 -0.3050395 0.1813682
000010 dd 0b 0d bd c5 69 56 be 34 27 90 3e 73 a6 0e bd
       -0.03443514 -0.20938785 0.2815491 -0.034826707
000020 ce 59 92 bd 35 9f 9f bc fa e2 a8 be 6a 3a 4d 3d
       -0.07146035 -0.019485096 -0.3298567 0.050104536
000030 e4 8d 13 bf 6d c4 60 bc d3 6d 84 bd e6 ce 39 be
       -0.5763838 -0.013718707 -0.0646626 -0.18145332
000040 67 38 15 3e 79 17 42 3e 39 67 b2 be b0 86 ba bd
       0.14572297 0.18954267 -0.34844378 -0.09107721
000050 03 a4 81 be e2 a8 b9 3d 08 84 a1 be ee 9e f0 3d
       -0.25320444 0.09065415 -0.31546044 0.117490634
000060 34 a1 2b 3e 4f 8d 5c be
       0.16760713 -0.2153828
